name: "PyramidNet-101"
input: "data"
input_dim: 1
input_dim: 3
input_dim: 224
input_dim: 224

layer {
   name: "conv1"
   type: "Convolution"
   bottom: "data"
   top: "conv1"
   param {
      lr_mult: 1
      decay_mult: 1
   }
   convolution_param {
      num_output: 64
      bias_term: false
      pad: 3
      kernel_size: 7
      stride: 2
      weight_filler {
         type: "msra"
      }
   }
}

layer {
   name: "bn1"
   type: "BatchNorm"
   bottom: "conv1"
   top: "conv1"
   param {
      lr_mult: 0
   }
   param {
      lr_mult: 0
   }
   param {
      lr_mult: 0
   }
   batch_norm_param {
      use_global_stats: true
   }
}

layer {
   name: "scale1"
   type: "Scale"
   bottom: "conv1"
   top: "conv1"
   scale_param {
      bias_term: true
   }
}

layer {
   name: "relu1"
   type: "ReLU"
   bottom: "conv1"
   top: "conv1"
}

layer {
   name: "max1"
   type: "Pooling"
   bottom: "conv1"
   top: "max1"
   pooling_param {
      pool: MAX
      kernel_size: 3
      stride: 2
      pad: 1
   }
}

layer {
   name: "bn1_1"
   type: "BatchNorm"
   bottom: "max1"
   top: "bn1_1"
   param {
      lr_mult: 0
   }
   param {
      lr_mult: 0
   }
   param {
      lr_mult: 0
   }
   batch_norm_param {
      use_global_stats: true
   }
}

layer {
   name: "scale1_1"
   type: "Scale"
   bottom: "bn1_1"
   top: "bn1_1"
   scale_param {
      bias_term: true
   }
}

layer {
   name: "conv1_1_1"
   type: "Convolution"
   bottom: "bn1_1"
   top: "conv1_1_1"
   param {
      lr_mult: 1
      decay_mult: 1
   }
   convolution_param {
      num_output: 72
      bias_term: false
      pad: 0
      kernel_size: 1
      stride: 1
      weight_filler {
         type: "msra"
      }
   }
}

layer {
   name: "bn1_1_1"
   type: "BatchNorm"
   bottom: "conv1_1_1"
   top: "conv1_1_1"
   param {
      lr_mult: 0
   }
   param {
      lr_mult: 0
   }
   param {
      lr_mult: 0
   }
   batch_norm_param {
      use_global_stats: true
   }
}

layer {
   name: "scale1_1_1"
   type: "Scale"
   bottom: "conv1_1_1"
   top: "conv1_1_1"
   scale_param {
      bias_term: true
   }
}

layer {
   name: "relu1_1_1"
   type: "ReLU"
   bottom: "conv1_1_1"
   top: "conv1_1_1"
}

layer {
   name: "conv1_1_2"
   type: "Convolution"
   bottom: "conv1_1_1"
   top: "conv1_1_2"
   param {
      lr_mult: 1
      decay_mult: 1
   }
   convolution_param {
      num_output: 72
      bias_term: false
      pad: 1
      kernel_size: 3
      stride: 1
      weight_filler {
         type: "msra"
      }
   }
}

layer {
   name: "bn1_1_2"
   type: "BatchNorm"
   bottom: "conv1_1_2"
   top: "conv1_1_2"
   param {
      lr_mult: 0
   }
   param {
      lr_mult: 0
   }
   param {
      lr_mult: 0
   }
   batch_norm_param {
      use_global_stats: true
   }
}

layer {
   name: "scale1_1_2"
   type: "Scale"
   bottom: "conv1_1_2"
   top: "conv1_1_2"
   scale_param {
      bias_term: true
   }
}

layer {
   name: "relu1_1_2"
   type: "ReLU"
   bottom: "conv1_1_2"
   top: "conv1_1_2"
}

layer {
   name: "conv1_1_3"
   type: "Convolution"
   bottom: "conv1_1_2"
   top: "conv1_1_3"
   param {
      lr_mult: 1
      decay_mult: 1
   }
   convolution_param {
      num_output: 288
      bias_term: false
      pad: 0
      kernel_size: 1
      stride: 1
      weight_filler {
         type: "msra"
      }
   }
}

layer {
   name: "bn1_1_3"
   type: "BatchNorm"
   bottom: "conv1_1_3"
   top: "conv1_1_3"
   param {
      lr_mult: 0
   }
   param {
      lr_mult: 0
   }
   param {
      lr_mult: 0
   }
   batch_norm_param {
      use_global_stats: true
   }
}

layer {
   name: "scale1_1_3"
   type: "Scale"
   bottom: "conv1_1_3"
   top: "conv1_1_3"
   scale_param {
      bias_term: true
   }
}

layer {
   name: "zero_conv1_1"
   type: "Convolution"
   bottom: "max1"
   top: "zero_conv1_1"
   param {
      lr_mult: 0
      decay_mult: 0
   }
   convolution_param {
      num_output: 224
      bias_term: false
      pad: 0
      kernel_size: 1
      stride: 1
      weight_filler {
         type: "constant"
         value: 0.0
      }
   }
}

layer {
   name: "zero1_1"
   type: "Concat"
   bottom: "max1"
   bottom: "zero_conv1_1"
   top: "zero1_1"
   concat_param {
      axis: 1
   }
}

layer {
   name: "res1_1"
   type: "Eltwise"
   bottom: "zero1_1"
   bottom: "conv1_1_3"
   top: "res1_1"
   eltwise_param {
      operation: SUM 
   }
}

layer {
   name: "bn1_2"
   type: "BatchNorm"
   bottom: "res1_1"
   top: "bn1_2"
   param {
      lr_mult: 0
   }
   param {
      lr_mult: 0
   }
   param {
      lr_mult: 0
   }
   batch_norm_param {
      use_global_stats: true
   }
}

layer {
   name: "scale1_2"
   type: "Scale"
   bottom: "bn1_2"
   top: "bn1_2"
   scale_param {
      bias_term: true
   }
}

layer {
   name: "conv1_2_1"
   type: "Convolution"
   bottom: "bn1_2"
   top: "conv1_2_1"
   param {
      lr_mult: 1
      decay_mult: 1
   }
   convolution_param {
      num_output: 79
      bias_term: false
      pad: 0
      kernel_size: 1
      stride: 1
      weight_filler {
         type: "msra"
      }
   }
}

layer {
   name: "bn1_2_1"
   type: "BatchNorm"
   bottom: "conv1_2_1"
   top: "conv1_2_1"
   param {
      lr_mult: 0
   }
   param {
      lr_mult: 0
   }
   param {
      lr_mult: 0
   }
   batch_norm_param {
      use_global_stats: true
   }
}

layer {
   name: "scale1_2_1"
   type: "Scale"
   bottom: "conv1_2_1"
   top: "conv1_2_1"
   scale_param {
      bias_term: true
   }
}

layer {
   name: "relu1_2_1"
   type: "ReLU"
   bottom: "conv1_2_1"
   top: "conv1_2_1"
}

layer {
   name: "conv1_2_2"
   type: "Convolution"
   bottom: "conv1_2_1"
   top: "conv1_2_2"
   param {
      lr_mult: 1
      decay_mult: 1
   }
   convolution_param {
      num_output: 79
      bias_term: false
      pad: 1
      kernel_size: 3
      stride: 1
      weight_filler {
         type: "msra"
      }
   }
}

layer {
   name: "bn1_2_2"
   type: "BatchNorm"
   bottom: "conv1_2_2"
   top: "conv1_2_2"
   param {
      lr_mult: 0
   }
   param {
      lr_mult: 0
   }
   param {
      lr_mult: 0
   }
   batch_norm_param {
      use_global_stats: true
   }
}

layer {
   name: "scale1_2_2"
   type: "Scale"
   bottom: "conv1_2_2"
   top: "conv1_2_2"
   scale_param {
      bias_term: true
   }
}

layer {
   name: "relu1_2_2"
   type: "ReLU"
   bottom: "conv1_2_2"
   top: "conv1_2_2"
}

layer {
   name: "conv1_2_3"
   type: "Convolution"
   bottom: "conv1_2_2"
   top: "conv1_2_3"
   param {
      lr_mult: 1
      decay_mult: 1
   }
   convolution_param {
      num_output: 316
      bias_term: false
      pad: 0
      kernel_size: 1
      stride: 1
      weight_filler {
         type: "msra"
      }
   }
}

layer {
   name: "bn1_2_3"
   type: "BatchNorm"
   bottom: "conv1_2_3"
   top: "conv1_2_3"
   param {
      lr_mult: 0
   }
   param {
      lr_mult: 0
   }
   param {
      lr_mult: 0
   }
   batch_norm_param {
      use_global_stats: true
   }
}

layer {
   name: "scale1_2_3"
   type: "Scale"
   bottom: "conv1_2_3"
   top: "conv1_2_3"
   scale_param {
      bias_term: true
   }
}

layer {
   name: "zero_conv1_2"
   type: "Convolution"
   bottom: "res1_1"
   top: "zero_conv1_2"
   param {
      lr_mult: 0
      decay_mult: 0
   }
   convolution_param {
      num_output: 28
      bias_term: false
      pad: 0
      kernel_size: 1
      stride: 1
      weight_filler {
         type: "constant"
         value: 0.0
      }
   }
}

layer {
   name: "zero1_2"
   type: "Concat"
   bottom: "res1_1"
   bottom: "zero_conv1_2"
   top: "zero1_2"
   concat_param {
      axis: 1
   }
}

layer {
   name: "res1_2"
   type: "Eltwise"
   bottom: "zero1_2"
   bottom: "conv1_2_3"
   top: "res1_2"
   eltwise_param {
      operation: SUM 
   }
}

layer {
   name: "bn1_3"
   type: "BatchNorm"
   bottom: "res1_2"
   top: "bn1_3"
   param {
      lr_mult: 0
   }
   param {
      lr_mult: 0
   }
   param {
      lr_mult: 0
   }
   batch_norm_param {
      use_global_stats: true
   }
}

layer {
   name: "scale1_3"
   type: "Scale"
   bottom: "bn1_3"
   top: "bn1_3"
   scale_param {
      bias_term: true
   }
}

layer {
   name: "conv1_3_1"
   type: "Convolution"
   bottom: "bn1_3"
   top: "conv1_3_1"
   param {
      lr_mult: 1
      decay_mult: 1
   }
   convolution_param {
      num_output: 87
      bias_term: false
      pad: 0
      kernel_size: 1
      stride: 1
      weight_filler {
         type: "msra"
      }
   }
}

layer {
   name: "bn1_3_1"
   type: "BatchNorm"
   bottom: "conv1_3_1"
   top: "conv1_3_1"
   param {
      lr_mult: 0
   }
   param {
      lr_mult: 0
   }
   param {
      lr_mult: 0
   }
   batch_norm_param {
      use_global_stats: true
   }
}

layer {
   name: "scale1_3_1"
   type: "Scale"
   bottom: "conv1_3_1"
   top: "conv1_3_1"
   scale_param {
      bias_term: true
   }
}

layer {
   name: "relu1_3_1"
   type: "ReLU"
   bottom: "conv1_3_1"
   top: "conv1_3_1"
}

layer {
   name: "conv1_3_2"
   type: "Convolution"
   bottom: "conv1_3_1"
   top: "conv1_3_2"
   param {
      lr_mult: 1
      decay_mult: 1
   }
   convolution_param {
      num_output: 87
      bias_term: false
      pad: 1
      kernel_size: 3
      stride: 1
      weight_filler {
         type: "msra"
      }
   }
}

layer {
   name: "bn1_3_2"
   type: "BatchNorm"
   bottom: "conv1_3_2"
   top: "conv1_3_2"
   param {
      lr_mult: 0
   }
   param {
      lr_mult: 0
   }
   param {
      lr_mult: 0
   }
   batch_norm_param {
      use_global_stats: true
   }
}

layer {
   name: "scale1_3_2"
   type: "Scale"
   bottom: "conv1_3_2"
   top: "conv1_3_2"
   scale_param {
      bias_term: true
   }
}

layer {
   name: "relu1_3_2"
   type: "ReLU"
   bottom: "conv1_3_2"
   top: "conv1_3_2"
}

layer {
   name: "conv1_3_3"
   type: "Convolution"
   bottom: "conv1_3_2"
   top: "conv1_3_3"
   param {
      lr_mult: 1
      decay_mult: 1
   }
   convolution_param {
      num_output: 348
      bias_term: false
      pad: 0
      kernel_size: 1
      stride: 1
      weight_filler {
         type: "msra"
      }
   }
}

layer {
   name: "bn1_3_3"
   type: "BatchNorm"
   bottom: "conv1_3_3"
   top: "conv1_3_3"
   param {
      lr_mult: 0
   }
   param {
      lr_mult: 0
   }
   param {
      lr_mult: 0
   }
   batch_norm_param {
      use_global_stats: true
   }
}

layer {
   name: "scale1_3_3"
   type: "Scale"
   bottom: "conv1_3_3"
   top: "conv1_3_3"
   scale_param {
      bias_term: true
   }
}

layer {
   name: "zero_conv1_3"
   type: "Convolution"
   bottom: "res1_2"
   top: "zero_conv1_3"
   param {
      lr_mult: 0
      decay_mult: 0
   }
   convolution_param {
      num_output: 32
      bias_term: false
      pad: 0
      kernel_size: 1
      stride: 1
      weight_filler {
         type: "constant"
         value: 0.0
      }
   }
}

layer {
   name: "zero1_3"
   type: "Concat"
   bottom: "res1_2"
   bottom: "zero_conv1_3"
   top: "zero1_3"
   concat_param {
      axis: 1
   }
}

layer {
   name: "res1_3"
   type: "Eltwise"
   bottom: "zero1_3"
   bottom: "conv1_3_3"
   top: "res1_3"
   eltwise_param {
      operation: SUM 
   }
}

layer {
   name: "bn2_1"
   type: "BatchNorm"
   bottom: "res1_3"
   top: "bn2_1"
   param {
      lr_mult: 0
   }
   param {
      lr_mult: 0
   }
   param {
      lr_mult: 0
   }
   batch_norm_param {
      use_global_stats: true
   }
}

layer {
   name: "scale2_1"
   type: "Scale"
   bottom: "bn2_1"
   top: "bn2_1"
   scale_param {
      bias_term: true
   }
}

layer {
   name: "conv2_1_1"
   type: "Convolution"
   bottom: "bn2_1"
   top: "conv2_1_1"
   param {
      lr_mult: 1
      decay_mult: 1
   }
   convolution_param {
      num_output: 94
      bias_term: false
      pad: 0
      kernel_size: 1
      stride: 1
      weight_filler {
         type: "msra"
      }
   }
}

layer {
   name: "bn2_1_1"
   type: "BatchNorm"
   bottom: "conv2_1_1"
   top: "conv2_1_1"
   param {
      lr_mult: 0
   }
   param {
      lr_mult: 0
   }
   param {
      lr_mult: 0
   }
   batch_norm_param {
      use_global_stats: true
   }
}

layer {
   name: "scale2_1_1"
   type: "Scale"
   bottom: "conv2_1_1"
   top: "conv2_1_1"
   scale_param {
      bias_term: true
   }
}

layer {
   name: "relu2_1_1"
   type: "ReLU"
   bottom: "conv2_1_1"
   top: "conv2_1_1"
}

layer {
   name: "conv2_1_2"
   type: "Convolution"
   bottom: "conv2_1_1"
   top: "conv2_1_2"
   param {
      lr_mult: 1
      decay_mult: 1
   }
   convolution_param {
      num_output: 94
      bias_term: false
      pad: 1
      kernel_size: 3
      stride: 2
      weight_filler {
         type: "msra"
      }
   }
}

layer {
   name: "bn2_1_2"
   type: "BatchNorm"
   bottom: "conv2_1_2"
   top: "conv2_1_2"
   param {
      lr_mult: 0
   }
   param {
      lr_mult: 0
   }
   param {
      lr_mult: 0
   }
   batch_norm_param {
      use_global_stats: true
   }
}

layer {
   name: "scale2_1_2"
   type: "Scale"
   bottom: "conv2_1_2"
   top: "conv2_1_2"
   scale_param {
      bias_term: true
   }
}

layer {
   name: "relu2_1_2"
   type: "ReLU"
   bottom: "conv2_1_2"
   top: "conv2_1_2"
}

layer {
   name: "conv2_1_3"
   type: "Convolution"
   bottom: "conv2_1_2"
   top: "conv2_1_3"
   param {
      lr_mult: 1
      decay_mult: 1
   }
   convolution_param {
      num_output: 376
      bias_term: false
      pad: 0
      kernel_size: 1
      stride: 1
      weight_filler {
         type: "msra"
      }
   }
}

layer {
   name: "bn2_1_3"
   type: "BatchNorm"
   bottom: "conv2_1_3"
   top: "conv2_1_3"
   param {
      lr_mult: 0
   }
   param {
      lr_mult: 0
   }
   param {
      lr_mult: 0
   }
   batch_norm_param {
      use_global_stats: true
   }
}

layer {
   name: "scale2_1_3"
   type: "Scale"
   bottom: "conv2_1_3"
   top: "conv2_1_3"
   scale_param {
      bias_term: true
   }
}

layer {
   name: "pool2"
   type: "Pooling"
   bottom: "res1_3"
   top: "pool2"
   pooling_param {
      pool: AVE
      kernel_size: 2
      stride: 2
   }}

layer {
   name: "zero_conv2_1"
   type: "Convolution"
   bottom: "pool2"
   top: "zero_conv2_1"
   param {
      lr_mult: 0
      decay_mult: 0
   }
   convolution_param {
      num_output: 28
      bias_term: false
      pad: 0
      kernel_size: 1
      stride: 1
      weight_filler {
         type: "constant"
         value: 0.0
      }
   }
}

layer {
   name: "zero2_1"
   type: "Concat"
   bottom: "pool2"
   bottom: "zero_conv2_1"
   top: "zero2_1"
   concat_param {
      axis: 1
   }
}

layer {
   name: "res2_1"
   type: "Eltwise"
   bottom: "zero2_1"
   bottom: "conv2_1_3"
   top: "res2_1"
   eltwise_param {
      operation: SUM 
   }
}

layer {
   name: "bn2_2"
   type: "BatchNorm"
   bottom: "res2_1"
   top: "bn2_2"
   param {
      lr_mult: 0
   }
   param {
      lr_mult: 0
   }
   param {
      lr_mult: 0
   }
   batch_norm_param {
      use_global_stats: true
   }
}

layer {
   name: "scale2_2"
   type: "Scale"
   bottom: "bn2_2"
   top: "bn2_2"
   scale_param {
      bias_term: true
   }
}

layer {
   name: "conv2_2_1"
   type: "Convolution"
   bottom: "bn2_2"
   top: "conv2_2_1"
   param {
      lr_mult: 1
      decay_mult: 1
   }
   convolution_param {
      num_output: 102
      bias_term: false
      pad: 0
      kernel_size: 1
      stride: 1
      weight_filler {
         type: "msra"
      }
   }
}

layer {
   name: "bn2_2_1"
   type: "BatchNorm"
   bottom: "conv2_2_1"
   top: "conv2_2_1"
   param {
      lr_mult: 0
   }
   param {
      lr_mult: 0
   }
   param {
      lr_mult: 0
   }
   batch_norm_param {
      use_global_stats: true
   }
}

layer {
   name: "scale2_2_1"
   type: "Scale"
   bottom: "conv2_2_1"
   top: "conv2_2_1"
   scale_param {
      bias_term: true
   }
}

layer {
   name: "relu2_2_1"
   type: "ReLU"
   bottom: "conv2_2_1"
   top: "conv2_2_1"
}

layer {
   name: "conv2_2_2"
   type: "Convolution"
   bottom: "conv2_2_1"
   top: "conv2_2_2"
   param {
      lr_mult: 1
      decay_mult: 1
   }
   convolution_param {
      num_output: 102
      bias_term: false
      pad: 1
      kernel_size: 3
      stride: 1
      weight_filler {
         type: "msra"
      }
   }
}

layer {
   name: "bn2_2_2"
   type: "BatchNorm"
   bottom: "conv2_2_2"
   top: "conv2_2_2"
   param {
      lr_mult: 0
   }
   param {
      lr_mult: 0
   }
   param {
      lr_mult: 0
   }
   batch_norm_param {
      use_global_stats: true
   }
}

layer {
   name: "scale2_2_2"
   type: "Scale"
   bottom: "conv2_2_2"
   top: "conv2_2_2"
   scale_param {
      bias_term: true
   }
}

layer {
   name: "relu2_2_2"
   type: "ReLU"
   bottom: "conv2_2_2"
   top: "conv2_2_2"
}

layer {
   name: "conv2_2_3"
   type: "Convolution"
   bottom: "conv2_2_2"
   top: "conv2_2_3"
   param {
      lr_mult: 1
      decay_mult: 1
   }
   convolution_param {
      num_output: 408
      bias_term: false
      pad: 0
      kernel_size: 1
      stride: 1
      weight_filler {
         type: "msra"
      }
   }
}

layer {
   name: "bn2_2_3"
   type: "BatchNorm"
   bottom: "conv2_2_3"
   top: "conv2_2_3"
   param {
      lr_mult: 0
   }
   param {
      lr_mult: 0
   }
   param {
      lr_mult: 0
   }
   batch_norm_param {
      use_global_stats: true
   }
}

layer {
   name: "scale2_2_3"
   type: "Scale"
   bottom: "conv2_2_3"
   top: "conv2_2_3"
   scale_param {
      bias_term: true
   }
}

layer {
   name: "zero_conv2_2"
   type: "Convolution"
   bottom: "res2_1"
   top: "zero_conv2_2"
   param {
      lr_mult: 0
      decay_mult: 0
   }
   convolution_param {
      num_output: 32
      bias_term: false
      pad: 0
      kernel_size: 1
      stride: 1
      weight_filler {
         type: "constant"
         value: 0.0
      }
   }
}

layer {
   name: "zero2_2"
   type: "Concat"
   bottom: "res2_1"
   bottom: "zero_conv2_2"
   top: "zero2_2"
   concat_param {
      axis: 1
   }
}

layer {
   name: "res2_2"
   type: "Eltwise"
   bottom: "zero2_2"
   bottom: "conv2_2_3"
   top: "res2_2"
   eltwise_param {
      operation: SUM 
   }
}

layer {
   name: "bn2_3"
   type: "BatchNorm"
   bottom: "res2_2"
   top: "bn2_3"
   param {
      lr_mult: 0
   }
   param {
      lr_mult: 0
   }
   param {
      lr_mult: 0
   }
   batch_norm_param {
      use_global_stats: true
   }
}

layer {
   name: "scale2_3"
   type: "Scale"
   bottom: "bn2_3"
   top: "bn2_3"
   scale_param {
      bias_term: true
   }
}

layer {
   name: "conv2_3_1"
   type: "Convolution"
   bottom: "bn2_3"
   top: "conv2_3_1"
   param {
      lr_mult: 1
      decay_mult: 1
   }
   convolution_param {
      num_output: 109
      bias_term: false
      pad: 0
      kernel_size: 1
      stride: 1
      weight_filler {
         type: "msra"
      }
   }
}

layer {
   name: "bn2_3_1"
   type: "BatchNorm"
   bottom: "conv2_3_1"
   top: "conv2_3_1"
   param {
      lr_mult: 0
   }
   param {
      lr_mult: 0
   }
   param {
      lr_mult: 0
   }
   batch_norm_param {
      use_global_stats: true
   }
}

layer {
   name: "scale2_3_1"
   type: "Scale"
   bottom: "conv2_3_1"
   top: "conv2_3_1"
   scale_param {
      bias_term: true
   }
}

layer {
   name: "relu2_3_1"
   type: "ReLU"
   bottom: "conv2_3_1"
   top: "conv2_3_1"
}

layer {
   name: "conv2_3_2"
   type: "Convolution"
   bottom: "conv2_3_1"
   top: "conv2_3_2"
   param {
      lr_mult: 1
      decay_mult: 1
   }
   convolution_param {
      num_output: 109
      bias_term: false
      pad: 1
      kernel_size: 3
      stride: 1
      weight_filler {
         type: "msra"
      }
   }
}

layer {
   name: "bn2_3_2"
   type: "BatchNorm"
   bottom: "conv2_3_2"
   top: "conv2_3_2"
   param {
      lr_mult: 0
   }
   param {
      lr_mult: 0
   }
   param {
      lr_mult: 0
   }
   batch_norm_param {
      use_global_stats: true
   }
}

layer {
   name: "scale2_3_2"
   type: "Scale"
   bottom: "conv2_3_2"
   top: "conv2_3_2"
   scale_param {
      bias_term: true
   }
}

layer {
   name: "relu2_3_2"
   type: "ReLU"
   bottom: "conv2_3_2"
   top: "conv2_3_2"
}

layer {
   name: "conv2_3_3"
   type: "Convolution"
   bottom: "conv2_3_2"
   top: "conv2_3_3"
   param {
      lr_mult: 1
      decay_mult: 1
   }
   convolution_param {
      num_output: 436
      bias_term: false
      pad: 0
      kernel_size: 1
      stride: 1
      weight_filler {
         type: "msra"
      }
   }
}

layer {
   name: "bn2_3_3"
   type: "BatchNorm"
   bottom: "conv2_3_3"
   top: "conv2_3_3"
   param {
      lr_mult: 0
   }
   param {
      lr_mult: 0
   }
   param {
      lr_mult: 0
   }
   batch_norm_param {
      use_global_stats: true
   }
}

layer {
   name: "scale2_3_3"
   type: "Scale"
   bottom: "conv2_3_3"
   top: "conv2_3_3"
   scale_param {
      bias_term: true
   }
}

layer {
   name: "zero_conv2_3"
   type: "Convolution"
   bottom: "res2_2"
   top: "zero_conv2_3"
   param {
      lr_mult: 0
      decay_mult: 0
   }
   convolution_param {
      num_output: 28
      bias_term: false
      pad: 0
      kernel_size: 1
      stride: 1
      weight_filler {
         type: "constant"
         value: 0.0
      }
   }
}

layer {
   name: "zero2_3"
   type: "Concat"
   bottom: "res2_2"
   bottom: "zero_conv2_3"
   top: "zero2_3"
   concat_param {
      axis: 1
   }
}

layer {
   name: "res2_3"
   type: "Eltwise"
   bottom: "zero2_3"
   bottom: "conv2_3_3"
   top: "res2_3"
   eltwise_param {
      operation: SUM 
   }
}

layer {
   name: "bn2_4"
   type: "BatchNorm"
   bottom: "res2_3"
   top: "bn2_4"
   param {
      lr_mult: 0
   }
   param {
      lr_mult: 0
   }
   param {
      lr_mult: 0
   }
   batch_norm_param {
      use_global_stats: true
   }
}

layer {
   name: "scale2_4"
   type: "Scale"
   bottom: "bn2_4"
   top: "bn2_4"
   scale_param {
      bias_term: true
   }
}

layer {
   name: "conv2_4_1"
   type: "Convolution"
   bottom: "bn2_4"
   top: "conv2_4_1"
   param {
      lr_mult: 1
      decay_mult: 1
   }
   convolution_param {
      num_output: 117
      bias_term: false
      pad: 0
      kernel_size: 1
      stride: 1
      weight_filler {
         type: "msra"
      }
   }
}

layer {
   name: "bn2_4_1"
   type: "BatchNorm"
   bottom: "conv2_4_1"
   top: "conv2_4_1"
   param {
      lr_mult: 0
   }
   param {
      lr_mult: 0
   }
   param {
      lr_mult: 0
   }
   batch_norm_param {
      use_global_stats: true
   }
}

layer {
   name: "scale2_4_1"
   type: "Scale"
   bottom: "conv2_4_1"
   top: "conv2_4_1"
   scale_param {
      bias_term: true
   }
}

layer {
   name: "relu2_4_1"
   type: "ReLU"
   bottom: "conv2_4_1"
   top: "conv2_4_1"
}

layer {
   name: "conv2_4_2"
   type: "Convolution"
   bottom: "conv2_4_1"
   top: "conv2_4_2"
   param {
      lr_mult: 1
      decay_mult: 1
   }
   convolution_param {
      num_output: 117
      bias_term: false
      pad: 1
      kernel_size: 3
      stride: 1
      weight_filler {
         type: "msra"
      }
   }
}

layer {
   name: "bn2_4_2"
   type: "BatchNorm"
   bottom: "conv2_4_2"
   top: "conv2_4_2"
   param {
      lr_mult: 0
   }
   param {
      lr_mult: 0
   }
   param {
      lr_mult: 0
   }
   batch_norm_param {
      use_global_stats: true
   }
}

layer {
   name: "scale2_4_2"
   type: "Scale"
   bottom: "conv2_4_2"
   top: "conv2_4_2"
   scale_param {
      bias_term: true
   }
}

layer {
   name: "relu2_4_2"
   type: "ReLU"
   bottom: "conv2_4_2"
   top: "conv2_4_2"
}

layer {
   name: "conv2_4_3"
   type: "Convolution"
   bottom: "conv2_4_2"
   top: "conv2_4_3"
   param {
      lr_mult: 1
      decay_mult: 1
   }
   convolution_param {
      num_output: 468
      bias_term: false
      pad: 0
      kernel_size: 1
      stride: 1
      weight_filler {
         type: "msra"
      }
   }
}

layer {
   name: "bn2_4_3"
   type: "BatchNorm"
   bottom: "conv2_4_3"
   top: "conv2_4_3"
   param {
      lr_mult: 0
   }
   param {
      lr_mult: 0
   }
   param {
      lr_mult: 0
   }
   batch_norm_param {
      use_global_stats: true
   }
}

layer {
   name: "scale2_4_3"
   type: "Scale"
   bottom: "conv2_4_3"
   top: "conv2_4_3"
   scale_param {
      bias_term: true
   }
}

layer {
   name: "zero_conv2_4"
   type: "Convolution"
   bottom: "res2_3"
   top: "zero_conv2_4"
   param {
      lr_mult: 0
      decay_mult: 0
   }
   convolution_param {
      num_output: 32
      bias_term: false
      pad: 0
      kernel_size: 1
      stride: 1
      weight_filler {
         type: "constant"
         value: 0.0
      }
   }
}

layer {
   name: "zero2_4"
   type: "Concat"
   bottom: "res2_3"
   bottom: "zero_conv2_4"
   top: "zero2_4"
   concat_param {
      axis: 1
   }
}

layer {
   name: "res2_4"
   type: "Eltwise"
   bottom: "zero2_4"
   bottom: "conv2_4_3"
   top: "res2_4"
   eltwise_param {
      operation: SUM 
   }
}

layer {
   name: "bn3_1"
   type: "BatchNorm"
   bottom: "res2_4"
   top: "bn3_1"
   param {
      lr_mult: 0
   }
   param {
      lr_mult: 0
   }
   param {
      lr_mult: 0
   }
   batch_norm_param {
      use_global_stats: true
   }
}

layer {
   name: "scale3_1"
   type: "Scale"
   bottom: "bn3_1"
   top: "bn3_1"
   scale_param {
      bias_term: true
   }
}

layer {
   name: "conv3_1_1"
   type: "Convolution"
   bottom: "bn3_1"
   top: "conv3_1_1"
   param {
      lr_mult: 1
      decay_mult: 1
   }
   convolution_param {
      num_output: 125
      bias_term: false
      pad: 0
      kernel_size: 1
      stride: 1
      weight_filler {
         type: "msra"
      }
   }
}

layer {
   name: "bn3_1_1"
   type: "BatchNorm"
   bottom: "conv3_1_1"
   top: "conv3_1_1"
   param {
      lr_mult: 0
   }
   param {
      lr_mult: 0
   }
   param {
      lr_mult: 0
   }
   batch_norm_param {
      use_global_stats: true
   }
}

layer {
   name: "scale3_1_1"
   type: "Scale"
   bottom: "conv3_1_1"
   top: "conv3_1_1"
   scale_param {
      bias_term: true
   }
}

layer {
   name: "relu3_1_1"
   type: "ReLU"
   bottom: "conv3_1_1"
   top: "conv3_1_1"
}

layer {
   name: "conv3_1_2"
   type: "Convolution"
   bottom: "conv3_1_1"
   top: "conv3_1_2"
   param {
      lr_mult: 1
      decay_mult: 1
   }
   convolution_param {
      num_output: 125
      bias_term: false
      pad: 1
      kernel_size: 3
      stride: 2
      weight_filler {
         type: "msra"
      }
   }
}

layer {
   name: "bn3_1_2"
   type: "BatchNorm"
   bottom: "conv3_1_2"
   top: "conv3_1_2"
   param {
      lr_mult: 0
   }
   param {
      lr_mult: 0
   }
   param {
      lr_mult: 0
   }
   batch_norm_param {
      use_global_stats: true
   }
}

layer {
   name: "scale3_1_2"
   type: "Scale"
   bottom: "conv3_1_2"
   top: "conv3_1_2"
   scale_param {
      bias_term: true
   }
}

layer {
   name: "relu3_1_2"
   type: "ReLU"
   bottom: "conv3_1_2"
   top: "conv3_1_2"
}

layer {
   name: "conv3_1_3"
   type: "Convolution"
   bottom: "conv3_1_2"
   top: "conv3_1_3"
   param {
      lr_mult: 1
      decay_mult: 1
   }
   convolution_param {
      num_output: 500
      bias_term: false
      pad: 0
      kernel_size: 1
      stride: 1
      weight_filler {
         type: "msra"
      }
   }
}

layer {
   name: "bn3_1_3"
   type: "BatchNorm"
   bottom: "conv3_1_3"
   top: "conv3_1_3"
   param {
      lr_mult: 0
   }
   param {
      lr_mult: 0
   }
   param {
      lr_mult: 0
   }
   batch_norm_param {
      use_global_stats: true
   }
}

layer {
   name: "scale3_1_3"
   type: "Scale"
   bottom: "conv3_1_3"
   top: "conv3_1_3"
   scale_param {
      bias_term: true
   }
}

layer {
   name: "pool3"
   type: "Pooling"
   bottom: "res2_4"
   top: "pool3"
   pooling_param {
      pool: AVE
      kernel_size: 2
      stride: 2
   }}

layer {
   name: "zero_conv3_1"
   type: "Convolution"
   bottom: "pool3"
   top: "zero_conv3_1"
   param {
      lr_mult: 0
      decay_mult: 0
   }
   convolution_param {
      num_output: 32
      bias_term: false
      pad: 0
      kernel_size: 1
      stride: 1
      weight_filler {
         type: "constant"
         value: 0.0
      }
   }
}

layer {
   name: "zero3_1"
   type: "Concat"
   bottom: "pool3"
   bottom: "zero_conv3_1"
   top: "zero3_1"
   concat_param {
      axis: 1
   }
}

layer {
   name: "res3_1"
   type: "Eltwise"
   bottom: "zero3_1"
   bottom: "conv3_1_3"
   top: "res3_1"
   eltwise_param {
      operation: SUM 
   }
}

layer {
   name: "bn3_2"
   type: "BatchNorm"
   bottom: "res3_1"
   top: "bn3_2"
   param {
      lr_mult: 0
   }
   param {
      lr_mult: 0
   }
   param {
      lr_mult: 0
   }
   batch_norm_param {
      use_global_stats: true
   }
}

layer {
   name: "scale3_2"
   type: "Scale"
   bottom: "bn3_2"
   top: "bn3_2"
   scale_param {
      bias_term: true
   }
}

layer {
   name: "conv3_2_1"
   type: "Convolution"
   bottom: "bn3_2"
   top: "conv3_2_1"
   param {
      lr_mult: 1
      decay_mult: 1
   }
   convolution_param {
      num_output: 132
      bias_term: false
      pad: 0
      kernel_size: 1
      stride: 1
      weight_filler {
         type: "msra"
      }
   }
}

layer {
   name: "bn3_2_1"
   type: "BatchNorm"
   bottom: "conv3_2_1"
   top: "conv3_2_1"
   param {
      lr_mult: 0
   }
   param {
      lr_mult: 0
   }
   param {
      lr_mult: 0
   }
   batch_norm_param {
      use_global_stats: true
   }
}

layer {
   name: "scale3_2_1"
   type: "Scale"
   bottom: "conv3_2_1"
   top: "conv3_2_1"
   scale_param {
      bias_term: true
   }
}

layer {
   name: "relu3_2_1"
   type: "ReLU"
   bottom: "conv3_2_1"
   top: "conv3_2_1"
}

layer {
   name: "conv3_2_2"
   type: "Convolution"
   bottom: "conv3_2_1"
   top: "conv3_2_2"
   param {
      lr_mult: 1
      decay_mult: 1
   }
   convolution_param {
      num_output: 132
      bias_term: false
      pad: 1
      kernel_size: 3
      stride: 1
      weight_filler {
         type: "msra"
      }
   }
}

layer {
   name: "bn3_2_2"
   type: "BatchNorm"
   bottom: "conv3_2_2"
   top: "conv3_2_2"
   param {
      lr_mult: 0
   }
   param {
      lr_mult: 0
   }
   param {
      lr_mult: 0
   }
   batch_norm_param {
      use_global_stats: true
   }
}

layer {
   name: "scale3_2_2"
   type: "Scale"
   bottom: "conv3_2_2"
   top: "conv3_2_2"
   scale_param {
      bias_term: true
   }
}

layer {
   name: "relu3_2_2"
   type: "ReLU"
   bottom: "conv3_2_2"
   top: "conv3_2_2"
}

layer {
   name: "conv3_2_3"
   type: "Convolution"
   bottom: "conv3_2_2"
   top: "conv3_2_3"
   param {
      lr_mult: 1
      decay_mult: 1
   }
   convolution_param {
      num_output: 528
      bias_term: false
      pad: 0
      kernel_size: 1
      stride: 1
      weight_filler {
         type: "msra"
      }
   }
}

layer {
   name: "bn3_2_3"
   type: "BatchNorm"
   bottom: "conv3_2_3"
   top: "conv3_2_3"
   param {
      lr_mult: 0
   }
   param {
      lr_mult: 0
   }
   param {
      lr_mult: 0
   }
   batch_norm_param {
      use_global_stats: true
   }
}

layer {
   name: "scale3_2_3"
   type: "Scale"
   bottom: "conv3_2_3"
   top: "conv3_2_3"
   scale_param {
      bias_term: true
   }
}

layer {
   name: "zero_conv3_2"
   type: "Convolution"
   bottom: "res3_1"
   top: "zero_conv3_2"
   param {
      lr_mult: 0
      decay_mult: 0
   }
   convolution_param {
      num_output: 28
      bias_term: false
      pad: 0
      kernel_size: 1
      stride: 1
      weight_filler {
         type: "constant"
         value: 0.0
      }
   }
}

layer {
   name: "zero3_2"
   type: "Concat"
   bottom: "res3_1"
   bottom: "zero_conv3_2"
   top: "zero3_2"
   concat_param {
      axis: 1
   }
}

layer {
   name: "res3_2"
   type: "Eltwise"
   bottom: "zero3_2"
   bottom: "conv3_2_3"
   top: "res3_2"
   eltwise_param {
      operation: SUM 
   }
}

layer {
   name: "bn3_3"
   type: "BatchNorm"
   bottom: "res3_2"
   top: "bn3_3"
   param {
      lr_mult: 0
   }
   param {
      lr_mult: 0
   }
   param {
      lr_mult: 0
   }
   batch_norm_param {
      use_global_stats: true
   }
}

layer {
   name: "scale3_3"
   type: "Scale"
   bottom: "bn3_3"
   top: "bn3_3"
   scale_param {
      bias_term: true
   }
}

layer {
   name: "conv3_3_1"
   type: "Convolution"
   bottom: "bn3_3"
   top: "conv3_3_1"
   param {
      lr_mult: 1
      decay_mult: 1
   }
   convolution_param {
      num_output: 140
      bias_term: false
      pad: 0
      kernel_size: 1
      stride: 1
      weight_filler {
         type: "msra"
      }
   }
}

layer {
   name: "bn3_3_1"
   type: "BatchNorm"
   bottom: "conv3_3_1"
   top: "conv3_3_1"
   param {
      lr_mult: 0
   }
   param {
      lr_mult: 0
   }
   param {
      lr_mult: 0
   }
   batch_norm_param {
      use_global_stats: true
   }
}

layer {
   name: "scale3_3_1"
   type: "Scale"
   bottom: "conv3_3_1"
   top: "conv3_3_1"
   scale_param {
      bias_term: true
   }
}

layer {
   name: "relu3_3_1"
   type: "ReLU"
   bottom: "conv3_3_1"
   top: "conv3_3_1"
}

layer {
   name: "conv3_3_2"
   type: "Convolution"
   bottom: "conv3_3_1"
   top: "conv3_3_2"
   param {
      lr_mult: 1
      decay_mult: 1
   }
   convolution_param {
      num_output: 140
      bias_term: false
      pad: 1
      kernel_size: 3
      stride: 1
      weight_filler {
         type: "msra"
      }
   }
}

layer {
   name: "bn3_3_2"
   type: "BatchNorm"
   bottom: "conv3_3_2"
   top: "conv3_3_2"
   param {
      lr_mult: 0
   }
   param {
      lr_mult: 0
   }
   param {
      lr_mult: 0
   }
   batch_norm_param {
      use_global_stats: true
   }
}

layer {
   name: "scale3_3_2"
   type: "Scale"
   bottom: "conv3_3_2"
   top: "conv3_3_2"
   scale_param {
      bias_term: true
   }
}

layer {
   name: "relu3_3_2"
   type: "ReLU"
   bottom: "conv3_3_2"
   top: "conv3_3_2"
}

layer {
   name: "conv3_3_3"
   type: "Convolution"
   bottom: "conv3_3_2"
   top: "conv3_3_3"
   param {
      lr_mult: 1
      decay_mult: 1
   }
   convolution_param {
      num_output: 560
      bias_term: false
      pad: 0
      kernel_size: 1
      stride: 1
      weight_filler {
         type: "msra"
      }
   }
}

layer {
   name: "bn3_3_3"
   type: "BatchNorm"
   bottom: "conv3_3_3"
   top: "conv3_3_3"
   param {
      lr_mult: 0
   }
   param {
      lr_mult: 0
   }
   param {
      lr_mult: 0
   }
   batch_norm_param {
      use_global_stats: true
   }
}

layer {
   name: "scale3_3_3"
   type: "Scale"
   bottom: "conv3_3_3"
   top: "conv3_3_3"
   scale_param {
      bias_term: true
   }
}

layer {
   name: "zero_conv3_3"
   type: "Convolution"
   bottom: "res3_2"
   top: "zero_conv3_3"
   param {
      lr_mult: 0
      decay_mult: 0
   }
   convolution_param {
      num_output: 32
      bias_term: false
      pad: 0
      kernel_size: 1
      stride: 1
      weight_filler {
         type: "constant"
         value: 0.0
      }
   }
}

layer {
   name: "zero3_3"
   type: "Concat"
   bottom: "res3_2"
   bottom: "zero_conv3_3"
   top: "zero3_3"
   concat_param {
      axis: 1
   }
}

layer {
   name: "res3_3"
   type: "Eltwise"
   bottom: "zero3_3"
   bottom: "conv3_3_3"
   top: "res3_3"
   eltwise_param {
      operation: SUM 
   }
}

layer {
   name: "bn3_4"
   type: "BatchNorm"
   bottom: "res3_3"
   top: "bn3_4"
   param {
      lr_mult: 0
   }
   param {
      lr_mult: 0
   }
   param {
      lr_mult: 0
   }
   batch_norm_param {
      use_global_stats: true
   }
}

layer {
   name: "scale3_4"
   type: "Scale"
   bottom: "bn3_4"
   top: "bn3_4"
   scale_param {
      bias_term: true
   }
}

layer {
   name: "conv3_4_1"
   type: "Convolution"
   bottom: "bn3_4"
   top: "conv3_4_1"
   param {
      lr_mult: 1
      decay_mult: 1
   }
   convolution_param {
      num_output: 147
      bias_term: false
      pad: 0
      kernel_size: 1
      stride: 1
      weight_filler {
         type: "msra"
      }
   }
}

layer {
   name: "bn3_4_1"
   type: "BatchNorm"
   bottom: "conv3_4_1"
   top: "conv3_4_1"
   param {
      lr_mult: 0
   }
   param {
      lr_mult: 0
   }
   param {
      lr_mult: 0
   }
   batch_norm_param {
      use_global_stats: true
   }
}

layer {
   name: "scale3_4_1"
   type: "Scale"
   bottom: "conv3_4_1"
   top: "conv3_4_1"
   scale_param {
      bias_term: true
   }
}

layer {
   name: "relu3_4_1"
   type: "ReLU"
   bottom: "conv3_4_1"
   top: "conv3_4_1"
}

layer {
   name: "conv3_4_2"
   type: "Convolution"
   bottom: "conv3_4_1"
   top: "conv3_4_2"
   param {
      lr_mult: 1
      decay_mult: 1
   }
   convolution_param {
      num_output: 147
      bias_term: false
      pad: 1
      kernel_size: 3
      stride: 1
      weight_filler {
         type: "msra"
      }
   }
}

layer {
   name: "bn3_4_2"
   type: "BatchNorm"
   bottom: "conv3_4_2"
   top: "conv3_4_2"
   param {
      lr_mult: 0
   }
   param {
      lr_mult: 0
   }
   param {
      lr_mult: 0
   }
   batch_norm_param {
      use_global_stats: true
   }
}

layer {
   name: "scale3_4_2"
   type: "Scale"
   bottom: "conv3_4_2"
   top: "conv3_4_2"
   scale_param {
      bias_term: true
   }
}

layer {
   name: "relu3_4_2"
   type: "ReLU"
   bottom: "conv3_4_2"
   top: "conv3_4_2"
}

layer {
   name: "conv3_4_3"
   type: "Convolution"
   bottom: "conv3_4_2"
   top: "conv3_4_3"
   param {
      lr_mult: 1
      decay_mult: 1
   }
   convolution_param {
      num_output: 588
      bias_term: false
      pad: 0
      kernel_size: 1
      stride: 1
      weight_filler {
         type: "msra"
      }
   }
}

layer {
   name: "bn3_4_3"
   type: "BatchNorm"
   bottom: "conv3_4_3"
   top: "conv3_4_3"
   param {
      lr_mult: 0
   }
   param {
      lr_mult: 0
   }
   param {
      lr_mult: 0
   }
   batch_norm_param {
      use_global_stats: true
   }
}

layer {
   name: "scale3_4_3"
   type: "Scale"
   bottom: "conv3_4_3"
   top: "conv3_4_3"
   scale_param {
      bias_term: true
   }
}

layer {
   name: "zero_conv3_4"
   type: "Convolution"
   bottom: "res3_3"
   top: "zero_conv3_4"
   param {
      lr_mult: 0
      decay_mult: 0
   }
   convolution_param {
      num_output: 28
      bias_term: false
      pad: 0
      kernel_size: 1
      stride: 1
      weight_filler {
         type: "constant"
         value: 0.0
      }
   }
}

layer {
   name: "zero3_4"
   type: "Concat"
   bottom: "res3_3"
   bottom: "zero_conv3_4"
   top: "zero3_4"
   concat_param {
      axis: 1
   }
}

layer {
   name: "res3_4"
   type: "Eltwise"
   bottom: "zero3_4"
   bottom: "conv3_4_3"
   top: "res3_4"
   eltwise_param {
      operation: SUM 
   }
}

layer {
   name: "bn3_5"
   type: "BatchNorm"
   bottom: "res3_4"
   top: "bn3_5"
   param {
      lr_mult: 0
   }
   param {
      lr_mult: 0
   }
   param {
      lr_mult: 0
   }
   batch_norm_param {
      use_global_stats: true
   }
}

layer {
   name: "scale3_5"
   type: "Scale"
   bottom: "bn3_5"
   top: "bn3_5"
   scale_param {
      bias_term: true
   }
}

layer {
   name: "conv3_5_1"
   type: "Convolution"
   bottom: "bn3_5"
   top: "conv3_5_1"
   param {
      lr_mult: 1
      decay_mult: 1
   }
   convolution_param {
      num_output: 155
      bias_term: false
      pad: 0
      kernel_size: 1
      stride: 1
      weight_filler {
         type: "msra"
      }
   }
}

layer {
   name: "bn3_5_1"
   type: "BatchNorm"
   bottom: "conv3_5_1"
   top: "conv3_5_1"
   param {
      lr_mult: 0
   }
   param {
      lr_mult: 0
   }
   param {
      lr_mult: 0
   }
   batch_norm_param {
      use_global_stats: true
   }
}

layer {
   name: "scale3_5_1"
   type: "Scale"
   bottom: "conv3_5_1"
   top: "conv3_5_1"
   scale_param {
      bias_term: true
   }
}

layer {
   name: "relu3_5_1"
   type: "ReLU"
   bottom: "conv3_5_1"
   top: "conv3_5_1"
}

layer {
   name: "conv3_5_2"
   type: "Convolution"
   bottom: "conv3_5_1"
   top: "conv3_5_2"
   param {
      lr_mult: 1
      decay_mult: 1
   }
   convolution_param {
      num_output: 155
      bias_term: false
      pad: 1
      kernel_size: 3
      stride: 1
      weight_filler {
         type: "msra"
      }
   }
}

layer {
   name: "bn3_5_2"
   type: "BatchNorm"
   bottom: "conv3_5_2"
   top: "conv3_5_2"
   param {
      lr_mult: 0
   }
   param {
      lr_mult: 0
   }
   param {
      lr_mult: 0
   }
   batch_norm_param {
      use_global_stats: true
   }
}

layer {
   name: "scale3_5_2"
   type: "Scale"
   bottom: "conv3_5_2"
   top: "conv3_5_2"
   scale_param {
      bias_term: true
   }
}

layer {
   name: "relu3_5_2"
   type: "ReLU"
   bottom: "conv3_5_2"
   top: "conv3_5_2"
}

layer {
   name: "conv3_5_3"
   type: "Convolution"
   bottom: "conv3_5_2"
   top: "conv3_5_3"
   param {
      lr_mult: 1
      decay_mult: 1
   }
   convolution_param {
      num_output: 620
      bias_term: false
      pad: 0
      kernel_size: 1
      stride: 1
      weight_filler {
         type: "msra"
      }
   }
}

layer {
   name: "bn3_5_3"
   type: "BatchNorm"
   bottom: "conv3_5_3"
   top: "conv3_5_3"
   param {
      lr_mult: 0
   }
   param {
      lr_mult: 0
   }
   param {
      lr_mult: 0
   }
   batch_norm_param {
      use_global_stats: true
   }
}

layer {
   name: "scale3_5_3"
   type: "Scale"
   bottom: "conv3_5_3"
   top: "conv3_5_3"
   scale_param {
      bias_term: true
   }
}

layer {
   name: "zero_conv3_5"
   type: "Convolution"
   bottom: "res3_4"
   top: "zero_conv3_5"
   param {
      lr_mult: 0
      decay_mult: 0
   }
   convolution_param {
      num_output: 32
      bias_term: false
      pad: 0
      kernel_size: 1
      stride: 1
      weight_filler {
         type: "constant"
         value: 0.0
      }
   }
}

layer {
   name: "zero3_5"
   type: "Concat"
   bottom: "res3_4"
   bottom: "zero_conv3_5"
   top: "zero3_5"
   concat_param {
      axis: 1
   }
}

layer {
   name: "res3_5"
   type: "Eltwise"
   bottom: "zero3_5"
   bottom: "conv3_5_3"
   top: "res3_5"
   eltwise_param {
      operation: SUM 
   }
}

layer {
   name: "bn3_6"
   type: "BatchNorm"
   bottom: "res3_5"
   top: "bn3_6"
   param {
      lr_mult: 0
   }
   param {
      lr_mult: 0
   }
   param {
      lr_mult: 0
   }
   batch_norm_param {
      use_global_stats: true
   }
}

layer {
   name: "scale3_6"
   type: "Scale"
   bottom: "bn3_6"
   top: "bn3_6"
   scale_param {
      bias_term: true
   }
}

layer {
   name: "conv3_6_1"
   type: "Convolution"
   bottom: "bn3_6"
   top: "conv3_6_1"
   param {
      lr_mult: 1
      decay_mult: 1
   }
   convolution_param {
      num_output: 162
      bias_term: false
      pad: 0
      kernel_size: 1
      stride: 1
      weight_filler {
         type: "msra"
      }
   }
}

layer {
   name: "bn3_6_1"
   type: "BatchNorm"
   bottom: "conv3_6_1"
   top: "conv3_6_1"
   param {
      lr_mult: 0
   }
   param {
      lr_mult: 0
   }
   param {
      lr_mult: 0
   }
   batch_norm_param {
      use_global_stats: true
   }
}

layer {
   name: "scale3_6_1"
   type: "Scale"
   bottom: "conv3_6_1"
   top: "conv3_6_1"
   scale_param {
      bias_term: true
   }
}

layer {
   name: "relu3_6_1"
   type: "ReLU"
   bottom: "conv3_6_1"
   top: "conv3_6_1"
}

layer {
   name: "conv3_6_2"
   type: "Convolution"
   bottom: "conv3_6_1"
   top: "conv3_6_2"
   param {
      lr_mult: 1
      decay_mult: 1
   }
   convolution_param {
      num_output: 162
      bias_term: false
      pad: 1
      kernel_size: 3
      stride: 1
      weight_filler {
         type: "msra"
      }
   }
}

layer {
   name: "bn3_6_2"
   type: "BatchNorm"
   bottom: "conv3_6_2"
   top: "conv3_6_2"
   param {
      lr_mult: 0
   }
   param {
      lr_mult: 0
   }
   param {
      lr_mult: 0
   }
   batch_norm_param {
      use_global_stats: true
   }
}

layer {
   name: "scale3_6_2"
   type: "Scale"
   bottom: "conv3_6_2"
   top: "conv3_6_2"
   scale_param {
      bias_term: true
   }
}

layer {
   name: "relu3_6_2"
   type: "ReLU"
   bottom: "conv3_6_2"
   top: "conv3_6_2"
}

layer {
   name: "conv3_6_3"
   type: "Convolution"
   bottom: "conv3_6_2"
   top: "conv3_6_3"
   param {
      lr_mult: 1
      decay_mult: 1
   }
   convolution_param {
      num_output: 648
      bias_term: false
      pad: 0
      kernel_size: 1
      stride: 1
      weight_filler {
         type: "msra"
      }
   }
}

layer {
   name: "bn3_6_3"
   type: "BatchNorm"
   bottom: "conv3_6_3"
   top: "conv3_6_3"
   param {
      lr_mult: 0
   }
   param {
      lr_mult: 0
   }
   param {
      lr_mult: 0
   }
   batch_norm_param {
      use_global_stats: true
   }
}

layer {
   name: "scale3_6_3"
   type: "Scale"
   bottom: "conv3_6_3"
   top: "conv3_6_3"
   scale_param {
      bias_term: true
   }
}

layer {
   name: "zero_conv3_6"
   type: "Convolution"
   bottom: "res3_5"
   top: "zero_conv3_6"
   param {
      lr_mult: 0
      decay_mult: 0
   }
   convolution_param {
      num_output: 28
      bias_term: false
      pad: 0
      kernel_size: 1
      stride: 1
      weight_filler {
         type: "constant"
         value: 0.0
      }
   }
}

layer {
   name: "zero3_6"
   type: "Concat"
   bottom: "res3_5"
   bottom: "zero_conv3_6"
   top: "zero3_6"
   concat_param {
      axis: 1
   }
}

layer {
   name: "res3_6"
   type: "Eltwise"
   bottom: "zero3_6"
   bottom: "conv3_6_3"
   top: "res3_6"
   eltwise_param {
      operation: SUM 
   }
}

layer {
   name: "bn3_7"
   type: "BatchNorm"
   bottom: "res3_6"
   top: "bn3_7"
   param {
      lr_mult: 0
   }
   param {
      lr_mult: 0
   }
   param {
      lr_mult: 0
   }
   batch_norm_param {
      use_global_stats: true
   }
}

layer {
   name: "scale3_7"
   type: "Scale"
   bottom: "bn3_7"
   top: "bn3_7"
   scale_param {
      bias_term: true
   }
}

layer {
   name: "conv3_7_1"
   type: "Convolution"
   bottom: "bn3_7"
   top: "conv3_7_1"
   param {
      lr_mult: 1
      decay_mult: 1
   }
   convolution_param {
      num_output: 170
      bias_term: false
      pad: 0
      kernel_size: 1
      stride: 1
      weight_filler {
         type: "msra"
      }
   }
}

layer {
   name: "bn3_7_1"
   type: "BatchNorm"
   bottom: "conv3_7_1"
   top: "conv3_7_1"
   param {
      lr_mult: 0
   }
   param {
      lr_mult: 0
   }
   param {
      lr_mult: 0
   }
   batch_norm_param {
      use_global_stats: true
   }
}

layer {
   name: "scale3_7_1"
   type: "Scale"
   bottom: "conv3_7_1"
   top: "conv3_7_1"
   scale_param {
      bias_term: true
   }
}

layer {
   name: "relu3_7_1"
   type: "ReLU"
   bottom: "conv3_7_1"
   top: "conv3_7_1"
}

layer {
   name: "conv3_7_2"
   type: "Convolution"
   bottom: "conv3_7_1"
   top: "conv3_7_2"
   param {
      lr_mult: 1
      decay_mult: 1
   }
   convolution_param {
      num_output: 170
      bias_term: false
      pad: 1
      kernel_size: 3
      stride: 1
      weight_filler {
         type: "msra"
      }
   }
}

layer {
   name: "bn3_7_2"
   type: "BatchNorm"
   bottom: "conv3_7_2"
   top: "conv3_7_2"
   param {
      lr_mult: 0
   }
   param {
      lr_mult: 0
   }
   param {
      lr_mult: 0
   }
   batch_norm_param {
      use_global_stats: true
   }
}

layer {
   name: "scale3_7_2"
   type: "Scale"
   bottom: "conv3_7_2"
   top: "conv3_7_2"
   scale_param {
      bias_term: true
   }
}

layer {
   name: "relu3_7_2"
   type: "ReLU"
   bottom: "conv3_7_2"
   top: "conv3_7_2"
}

layer {
   name: "conv3_7_3"
   type: "Convolution"
   bottom: "conv3_7_2"
   top: "conv3_7_3"
   param {
      lr_mult: 1
      decay_mult: 1
   }
   convolution_param {
      num_output: 680
      bias_term: false
      pad: 0
      kernel_size: 1
      stride: 1
      weight_filler {
         type: "msra"
      }
   }
}

layer {
   name: "bn3_7_3"
   type: "BatchNorm"
   bottom: "conv3_7_3"
   top: "conv3_7_3"
   param {
      lr_mult: 0
   }
   param {
      lr_mult: 0
   }
   param {
      lr_mult: 0
   }
   batch_norm_param {
      use_global_stats: true
   }
}

layer {
   name: "scale3_7_3"
   type: "Scale"
   bottom: "conv3_7_3"
   top: "conv3_7_3"
   scale_param {
      bias_term: true
   }
}

layer {
   name: "zero_conv3_7"
   type: "Convolution"
   bottom: "res3_6"
   top: "zero_conv3_7"
   param {
      lr_mult: 0
      decay_mult: 0
   }
   convolution_param {
      num_output: 32
      bias_term: false
      pad: 0
      kernel_size: 1
      stride: 1
      weight_filler {
         type: "constant"
         value: 0.0
      }
   }
}

layer {
   name: "zero3_7"
   type: "Concat"
   bottom: "res3_6"
   bottom: "zero_conv3_7"
   top: "zero3_7"
   concat_param {
      axis: 1
   }
}

layer {
   name: "res3_7"
   type: "Eltwise"
   bottom: "zero3_7"
   bottom: "conv3_7_3"
   top: "res3_7"
   eltwise_param {
      operation: SUM 
   }
}

layer {
   name: "bn3_8"
   type: "BatchNorm"
   bottom: "res3_7"
   top: "bn3_8"
   param {
      lr_mult: 0
   }
   param {
      lr_mult: 0
   }
   param {
      lr_mult: 0
   }
   batch_norm_param {
      use_global_stats: true
   }
}

layer {
   name: "scale3_8"
   type: "Scale"
   bottom: "bn3_8"
   top: "bn3_8"
   scale_param {
      bias_term: true
   }
}

layer {
   name: "conv3_8_1"
   type: "Convolution"
   bottom: "bn3_8"
   top: "conv3_8_1"
   param {
      lr_mult: 1
      decay_mult: 1
   }
   convolution_param {
      num_output: 178
      bias_term: false
      pad: 0
      kernel_size: 1
      stride: 1
      weight_filler {
         type: "msra"
      }
   }
}

layer {
   name: "bn3_8_1"
   type: "BatchNorm"
   bottom: "conv3_8_1"
   top: "conv3_8_1"
   param {
      lr_mult: 0
   }
   param {
      lr_mult: 0
   }
   param {
      lr_mult: 0
   }
   batch_norm_param {
      use_global_stats: true
   }
}

layer {
   name: "scale3_8_1"
   type: "Scale"
   bottom: "conv3_8_1"
   top: "conv3_8_1"
   scale_param {
      bias_term: true
   }
}

layer {
   name: "relu3_8_1"
   type: "ReLU"
   bottom: "conv3_8_1"
   top: "conv3_8_1"
}

layer {
   name: "conv3_8_2"
   type: "Convolution"
   bottom: "conv3_8_1"
   top: "conv3_8_2"
   param {
      lr_mult: 1
      decay_mult: 1
   }
   convolution_param {
      num_output: 178
      bias_term: false
      pad: 1
      kernel_size: 3
      stride: 1
      weight_filler {
         type: "msra"
      }
   }
}

layer {
   name: "bn3_8_2"
   type: "BatchNorm"
   bottom: "conv3_8_2"
   top: "conv3_8_2"
   param {
      lr_mult: 0
   }
   param {
      lr_mult: 0
   }
   param {
      lr_mult: 0
   }
   batch_norm_param {
      use_global_stats: true
   }
}

layer {
   name: "scale3_8_2"
   type: "Scale"
   bottom: "conv3_8_2"
   top: "conv3_8_2"
   scale_param {
      bias_term: true
   }
}

layer {
   name: "relu3_8_2"
   type: "ReLU"
   bottom: "conv3_8_2"
   top: "conv3_8_2"
}

layer {
   name: "conv3_8_3"
   type: "Convolution"
   bottom: "conv3_8_2"
   top: "conv3_8_3"
   param {
      lr_mult: 1
      decay_mult: 1
   }
   convolution_param {
      num_output: 712
      bias_term: false
      pad: 0
      kernel_size: 1
      stride: 1
      weight_filler {
         type: "msra"
      }
   }
}

layer {
   name: "bn3_8_3"
   type: "BatchNorm"
   bottom: "conv3_8_3"
   top: "conv3_8_3"
   param {
      lr_mult: 0
   }
   param {
      lr_mult: 0
   }
   param {
      lr_mult: 0
   }
   batch_norm_param {
      use_global_stats: true
   }
}

layer {
   name: "scale3_8_3"
   type: "Scale"
   bottom: "conv3_8_3"
   top: "conv3_8_3"
   scale_param {
      bias_term: true
   }
}

layer {
   name: "zero_conv3_8"
   type: "Convolution"
   bottom: "res3_7"
   top: "zero_conv3_8"
   param {
      lr_mult: 0
      decay_mult: 0
   }
   convolution_param {
      num_output: 32
      bias_term: false
      pad: 0
      kernel_size: 1
      stride: 1
      weight_filler {
         type: "constant"
         value: 0.0
      }
   }
}

layer {
   name: "zero3_8"
   type: "Concat"
   bottom: "res3_7"
   bottom: "zero_conv3_8"
   top: "zero3_8"
   concat_param {
      axis: 1
   }
}

layer {
   name: "res3_8"
   type: "Eltwise"
   bottom: "zero3_8"
   bottom: "conv3_8_3"
   top: "res3_8"
   eltwise_param {
      operation: SUM 
   }
}

layer {
   name: "bn3_9"
   type: "BatchNorm"
   bottom: "res3_8"
   top: "bn3_9"
   param {
      lr_mult: 0
   }
   param {
      lr_mult: 0
   }
   param {
      lr_mult: 0
   }
   batch_norm_param {
      use_global_stats: true
   }
}

layer {
   name: "scale3_9"
   type: "Scale"
   bottom: "bn3_9"
   top: "bn3_9"
   scale_param {
      bias_term: true
   }
}

layer {
   name: "conv3_9_1"
   type: "Convolution"
   bottom: "bn3_9"
   top: "conv3_9_1"
   param {
      lr_mult: 1
      decay_mult: 1
   }
   convolution_param {
      num_output: 185
      bias_term: false
      pad: 0
      kernel_size: 1
      stride: 1
      weight_filler {
         type: "msra"
      }
   }
}

layer {
   name: "bn3_9_1"
   type: "BatchNorm"
   bottom: "conv3_9_1"
   top: "conv3_9_1"
   param {
      lr_mult: 0
   }
   param {
      lr_mult: 0
   }
   param {
      lr_mult: 0
   }
   batch_norm_param {
      use_global_stats: true
   }
}

layer {
   name: "scale3_9_1"
   type: "Scale"
   bottom: "conv3_9_1"
   top: "conv3_9_1"
   scale_param {
      bias_term: true
   }
}

layer {
   name: "relu3_9_1"
   type: "ReLU"
   bottom: "conv3_9_1"
   top: "conv3_9_1"
}

layer {
   name: "conv3_9_2"
   type: "Convolution"
   bottom: "conv3_9_1"
   top: "conv3_9_2"
   param {
      lr_mult: 1
      decay_mult: 1
   }
   convolution_param {
      num_output: 185
      bias_term: false
      pad: 1
      kernel_size: 3
      stride: 1
      weight_filler {
         type: "msra"
      }
   }
}

layer {
   name: "bn3_9_2"
   type: "BatchNorm"
   bottom: "conv3_9_2"
   top: "conv3_9_2"
   param {
      lr_mult: 0
   }
   param {
      lr_mult: 0
   }
   param {
      lr_mult: 0
   }
   batch_norm_param {
      use_global_stats: true
   }
}

layer {
   name: "scale3_9_2"
   type: "Scale"
   bottom: "conv3_9_2"
   top: "conv3_9_2"
   scale_param {
      bias_term: true
   }
}

layer {
   name: "relu3_9_2"
   type: "ReLU"
   bottom: "conv3_9_2"
   top: "conv3_9_2"
}

layer {
   name: "conv3_9_3"
   type: "Convolution"
   bottom: "conv3_9_2"
   top: "conv3_9_3"
   param {
      lr_mult: 1
      decay_mult: 1
   }
   convolution_param {
      num_output: 740
      bias_term: false
      pad: 0
      kernel_size: 1
      stride: 1
      weight_filler {
         type: "msra"
      }
   }
}

layer {
   name: "bn3_9_3"
   type: "BatchNorm"
   bottom: "conv3_9_3"
   top: "conv3_9_3"
   param {
      lr_mult: 0
   }
   param {
      lr_mult: 0
   }
   param {
      lr_mult: 0
   }
   batch_norm_param {
      use_global_stats: true
   }
}

layer {
   name: "scale3_9_3"
   type: "Scale"
   bottom: "conv3_9_3"
   top: "conv3_9_3"
   scale_param {
      bias_term: true
   }
}

layer {
   name: "zero_conv3_9"
   type: "Convolution"
   bottom: "res3_8"
   top: "zero_conv3_9"
   param {
      lr_mult: 0
      decay_mult: 0
   }
   convolution_param {
      num_output: 28
      bias_term: false
      pad: 0
      kernel_size: 1
      stride: 1
      weight_filler {
         type: "constant"
         value: 0.0
      }
   }
}

layer {
   name: "zero3_9"
   type: "Concat"
   bottom: "res3_8"
   bottom: "zero_conv3_9"
   top: "zero3_9"
   concat_param {
      axis: 1
   }
}

layer {
   name: "res3_9"
   type: "Eltwise"
   bottom: "zero3_9"
   bottom: "conv3_9_3"
   top: "res3_9"
   eltwise_param {
      operation: SUM 
   }
}

layer {
   name: "bn3_10"
   type: "BatchNorm"
   bottom: "res3_9"
   top: "bn3_10"
   param {
      lr_mult: 0
   }
   param {
      lr_mult: 0
   }
   param {
      lr_mult: 0
   }
   batch_norm_param {
      use_global_stats: true
   }
}

layer {
   name: "scale3_10"
   type: "Scale"
   bottom: "bn3_10"
   top: "bn3_10"
   scale_param {
      bias_term: true
   }
}

layer {
   name: "conv3_10_1"
   type: "Convolution"
   bottom: "bn3_10"
   top: "conv3_10_1"
   param {
      lr_mult: 1
      decay_mult: 1
   }
   convolution_param {
      num_output: 193
      bias_term: false
      pad: 0
      kernel_size: 1
      stride: 1
      weight_filler {
         type: "msra"
      }
   }
}

layer {
   name: "bn3_10_1"
   type: "BatchNorm"
   bottom: "conv3_10_1"
   top: "conv3_10_1"
   param {
      lr_mult: 0
   }
   param {
      lr_mult: 0
   }
   param {
      lr_mult: 0
   }
   batch_norm_param {
      use_global_stats: true
   }
}

layer {
   name: "scale3_10_1"
   type: "Scale"
   bottom: "conv3_10_1"
   top: "conv3_10_1"
   scale_param {
      bias_term: true
   }
}

layer {
   name: "relu3_10_1"
   type: "ReLU"
   bottom: "conv3_10_1"
   top: "conv3_10_1"
}

layer {
   name: "conv3_10_2"
   type: "Convolution"
   bottom: "conv3_10_1"
   top: "conv3_10_2"
   param {
      lr_mult: 1
      decay_mult: 1
   }
   convolution_param {
      num_output: 193
      bias_term: false
      pad: 1
      kernel_size: 3
      stride: 1
      weight_filler {
         type: "msra"
      }
   }
}

layer {
   name: "bn3_10_2"
   type: "BatchNorm"
   bottom: "conv3_10_2"
   top: "conv3_10_2"
   param {
      lr_mult: 0
   }
   param {
      lr_mult: 0
   }
   param {
      lr_mult: 0
   }
   batch_norm_param {
      use_global_stats: true
   }
}

layer {
   name: "scale3_10_2"
   type: "Scale"
   bottom: "conv3_10_2"
   top: "conv3_10_2"
   scale_param {
      bias_term: true
   }
}

layer {
   name: "relu3_10_2"
   type: "ReLU"
   bottom: "conv3_10_2"
   top: "conv3_10_2"
}

layer {
   name: "conv3_10_3"
   type: "Convolution"
   bottom: "conv3_10_2"
   top: "conv3_10_3"
   param {
      lr_mult: 1
      decay_mult: 1
   }
   convolution_param {
      num_output: 772
      bias_term: false
      pad: 0
      kernel_size: 1
      stride: 1
      weight_filler {
         type: "msra"
      }
   }
}

layer {
   name: "bn3_10_3"
   type: "BatchNorm"
   bottom: "conv3_10_3"
   top: "conv3_10_3"
   param {
      lr_mult: 0
   }
   param {
      lr_mult: 0
   }
   param {
      lr_mult: 0
   }
   batch_norm_param {
      use_global_stats: true
   }
}

layer {
   name: "scale3_10_3"
   type: "Scale"
   bottom: "conv3_10_3"
   top: "conv3_10_3"
   scale_param {
      bias_term: true
   }
}

layer {
   name: "zero_conv3_10"
   type: "Convolution"
   bottom: "res3_9"
   top: "zero_conv3_10"
   param {
      lr_mult: 0
      decay_mult: 0
   }
   convolution_param {
      num_output: 32
      bias_term: false
      pad: 0
      kernel_size: 1
      stride: 1
      weight_filler {
         type: "constant"
         value: 0.0
      }
   }
}

layer {
   name: "zero3_10"
   type: "Concat"
   bottom: "res3_9"
   bottom: "zero_conv3_10"
   top: "zero3_10"
   concat_param {
      axis: 1
   }
}

layer {
   name: "res3_10"
   type: "Eltwise"
   bottom: "zero3_10"
   bottom: "conv3_10_3"
   top: "res3_10"
   eltwise_param {
      operation: SUM 
   }
}

layer {
   name: "bn3_11"
   type: "BatchNorm"
   bottom: "res3_10"
   top: "bn3_11"
   param {
      lr_mult: 0
   }
   param {
      lr_mult: 0
   }
   param {
      lr_mult: 0
   }
   batch_norm_param {
      use_global_stats: true
   }
}

layer {
   name: "scale3_11"
   type: "Scale"
   bottom: "bn3_11"
   top: "bn3_11"
   scale_param {
      bias_term: true
   }
}

layer {
   name: "conv3_11_1"
   type: "Convolution"
   bottom: "bn3_11"
   top: "conv3_11_1"
   param {
      lr_mult: 1
      decay_mult: 1
   }
   convolution_param {
      num_output: 200
      bias_term: false
      pad: 0
      kernel_size: 1
      stride: 1
      weight_filler {
         type: "msra"
      }
   }
}

layer {
   name: "bn3_11_1"
   type: "BatchNorm"
   bottom: "conv3_11_1"
   top: "conv3_11_1"
   param {
      lr_mult: 0
   }
   param {
      lr_mult: 0
   }
   param {
      lr_mult: 0
   }
   batch_norm_param {
      use_global_stats: true
   }
}

layer {
   name: "scale3_11_1"
   type: "Scale"
   bottom: "conv3_11_1"
   top: "conv3_11_1"
   scale_param {
      bias_term: true
   }
}

layer {
   name: "relu3_11_1"
   type: "ReLU"
   bottom: "conv3_11_1"
   top: "conv3_11_1"
}

layer {
   name: "conv3_11_2"
   type: "Convolution"
   bottom: "conv3_11_1"
   top: "conv3_11_2"
   param {
      lr_mult: 1
      decay_mult: 1
   }
   convolution_param {
      num_output: 200
      bias_term: false
      pad: 1
      kernel_size: 3
      stride: 1
      weight_filler {
         type: "msra"
      }
   }
}

layer {
   name: "bn3_11_2"
   type: "BatchNorm"
   bottom: "conv3_11_2"
   top: "conv3_11_2"
   param {
      lr_mult: 0
   }
   param {
      lr_mult: 0
   }
   param {
      lr_mult: 0
   }
   batch_norm_param {
      use_global_stats: true
   }
}

layer {
   name: "scale3_11_2"
   type: "Scale"
   bottom: "conv3_11_2"
   top: "conv3_11_2"
   scale_param {
      bias_term: true
   }
}

layer {
   name: "relu3_11_2"
   type: "ReLU"
   bottom: "conv3_11_2"
   top: "conv3_11_2"
}

layer {
   name: "conv3_11_3"
   type: "Convolution"
   bottom: "conv3_11_2"
   top: "conv3_11_3"
   param {
      lr_mult: 1
      decay_mult: 1
   }
   convolution_param {
      num_output: 800
      bias_term: false
      pad: 0
      kernel_size: 1
      stride: 1
      weight_filler {
         type: "msra"
      }
   }
}

layer {
   name: "bn3_11_3"
   type: "BatchNorm"
   bottom: "conv3_11_3"
   top: "conv3_11_3"
   param {
      lr_mult: 0
   }
   param {
      lr_mult: 0
   }
   param {
      lr_mult: 0
   }
   batch_norm_param {
      use_global_stats: true
   }
}

layer {
   name: "scale3_11_3"
   type: "Scale"
   bottom: "conv3_11_3"
   top: "conv3_11_3"
   scale_param {
      bias_term: true
   }
}

layer {
   name: "zero_conv3_11"
   type: "Convolution"
   bottom: "res3_10"
   top: "zero_conv3_11"
   param {
      lr_mult: 0
      decay_mult: 0
   }
   convolution_param {
      num_output: 28
      bias_term: false
      pad: 0
      kernel_size: 1
      stride: 1
      weight_filler {
         type: "constant"
         value: 0.0
      }
   }
}

layer {
   name: "zero3_11"
   type: "Concat"
   bottom: "res3_10"
   bottom: "zero_conv3_11"
   top: "zero3_11"
   concat_param {
      axis: 1
   }
}

layer {
   name: "res3_11"
   type: "Eltwise"
   bottom: "zero3_11"
   bottom: "conv3_11_3"
   top: "res3_11"
   eltwise_param {
      operation: SUM 
   }
}

layer {
   name: "bn3_12"
   type: "BatchNorm"
   bottom: "res3_11"
   top: "bn3_12"
   param {
      lr_mult: 0
   }
   param {
      lr_mult: 0
   }
   param {
      lr_mult: 0
   }
   batch_norm_param {
      use_global_stats: true
   }
}

layer {
   name: "scale3_12"
   type: "Scale"
   bottom: "bn3_12"
   top: "bn3_12"
   scale_param {
      bias_term: true
   }
}

layer {
   name: "conv3_12_1"
   type: "Convolution"
   bottom: "bn3_12"
   top: "conv3_12_1"
   param {
      lr_mult: 1
      decay_mult: 1
   }
   convolution_param {
      num_output: 208
      bias_term: false
      pad: 0
      kernel_size: 1
      stride: 1
      weight_filler {
         type: "msra"
      }
   }
}

layer {
   name: "bn3_12_1"
   type: "BatchNorm"
   bottom: "conv3_12_1"
   top: "conv3_12_1"
   param {
      lr_mult: 0
   }
   param {
      lr_mult: 0
   }
   param {
      lr_mult: 0
   }
   batch_norm_param {
      use_global_stats: true
   }
}

layer {
   name: "scale3_12_1"
   type: "Scale"
   bottom: "conv3_12_1"
   top: "conv3_12_1"
   scale_param {
      bias_term: true
   }
}

layer {
   name: "relu3_12_1"
   type: "ReLU"
   bottom: "conv3_12_1"
   top: "conv3_12_1"
}

layer {
   name: "conv3_12_2"
   type: "Convolution"
   bottom: "conv3_12_1"
   top: "conv3_12_2"
   param {
      lr_mult: 1
      decay_mult: 1
   }
   convolution_param {
      num_output: 208
      bias_term: false
      pad: 1
      kernel_size: 3
      stride: 1
      weight_filler {
         type: "msra"
      }
   }
}

layer {
   name: "bn3_12_2"
   type: "BatchNorm"
   bottom: "conv3_12_2"
   top: "conv3_12_2"
   param {
      lr_mult: 0
   }
   param {
      lr_mult: 0
   }
   param {
      lr_mult: 0
   }
   batch_norm_param {
      use_global_stats: true
   }
}

layer {
   name: "scale3_12_2"
   type: "Scale"
   bottom: "conv3_12_2"
   top: "conv3_12_2"
   scale_param {
      bias_term: true
   }
}

layer {
   name: "relu3_12_2"
   type: "ReLU"
   bottom: "conv3_12_2"
   top: "conv3_12_2"
}

layer {
   name: "conv3_12_3"
   type: "Convolution"
   bottom: "conv3_12_2"
   top: "conv3_12_3"
   param {
      lr_mult: 1
      decay_mult: 1
   }
   convolution_param {
      num_output: 832
      bias_term: false
      pad: 0
      kernel_size: 1
      stride: 1
      weight_filler {
         type: "msra"
      }
   }
}

layer {
   name: "bn3_12_3"
   type: "BatchNorm"
   bottom: "conv3_12_3"
   top: "conv3_12_3"
   param {
      lr_mult: 0
   }
   param {
      lr_mult: 0
   }
   param {
      lr_mult: 0
   }
   batch_norm_param {
      use_global_stats: true
   }
}

layer {
   name: "scale3_12_3"
   type: "Scale"
   bottom: "conv3_12_3"
   top: "conv3_12_3"
   scale_param {
      bias_term: true
   }
}

layer {
   name: "zero_conv3_12"
   type: "Convolution"
   bottom: "res3_11"
   top: "zero_conv3_12"
   param {
      lr_mult: 0
      decay_mult: 0
   }
   convolution_param {
      num_output: 32
      bias_term: false
      pad: 0
      kernel_size: 1
      stride: 1
      weight_filler {
         type: "constant"
         value: 0.0
      }
   }
}

layer {
   name: "zero3_12"
   type: "Concat"
   bottom: "res3_11"
   bottom: "zero_conv3_12"
   top: "zero3_12"
   concat_param {
      axis: 1
   }
}

layer {
   name: "res3_12"
   type: "Eltwise"
   bottom: "zero3_12"
   bottom: "conv3_12_3"
   top: "res3_12"
   eltwise_param {
      operation: SUM 
   }
}

layer {
   name: "bn3_13"
   type: "BatchNorm"
   bottom: "res3_12"
   top: "bn3_13"
   param {
      lr_mult: 0
   }
   param {
      lr_mult: 0
   }
   param {
      lr_mult: 0
   }
   batch_norm_param {
      use_global_stats: true
   }
}

layer {
   name: "scale3_13"
   type: "Scale"
   bottom: "bn3_13"
   top: "bn3_13"
   scale_param {
      bias_term: true
   }
}

layer {
   name: "conv3_13_1"
   type: "Convolution"
   bottom: "bn3_13"
   top: "conv3_13_1"
   param {
      lr_mult: 1
      decay_mult: 1
   }
   convolution_param {
      num_output: 216
      bias_term: false
      pad: 0
      kernel_size: 1
      stride: 1
      weight_filler {
         type: "msra"
      }
   }
}

layer {
   name: "bn3_13_1"
   type: "BatchNorm"
   bottom: "conv3_13_1"
   top: "conv3_13_1"
   param {
      lr_mult: 0
   }
   param {
      lr_mult: 0
   }
   param {
      lr_mult: 0
   }
   batch_norm_param {
      use_global_stats: true
   }
}

layer {
   name: "scale3_13_1"
   type: "Scale"
   bottom: "conv3_13_1"
   top: "conv3_13_1"
   scale_param {
      bias_term: true
   }
}

layer {
   name: "relu3_13_1"
   type: "ReLU"
   bottom: "conv3_13_1"
   top: "conv3_13_1"
}

layer {
   name: "conv3_13_2"
   type: "Convolution"
   bottom: "conv3_13_1"
   top: "conv3_13_2"
   param {
      lr_mult: 1
      decay_mult: 1
   }
   convolution_param {
      num_output: 216
      bias_term: false
      pad: 1
      kernel_size: 3
      stride: 1
      weight_filler {
         type: "msra"
      }
   }
}

layer {
   name: "bn3_13_2"
   type: "BatchNorm"
   bottom: "conv3_13_2"
   top: "conv3_13_2"
   param {
      lr_mult: 0
   }
   param {
      lr_mult: 0
   }
   param {
      lr_mult: 0
   }
   batch_norm_param {
      use_global_stats: true
   }
}

layer {
   name: "scale3_13_2"
   type: "Scale"
   bottom: "conv3_13_2"
   top: "conv3_13_2"
   scale_param {
      bias_term: true
   }
}

layer {
   name: "relu3_13_2"
   type: "ReLU"
   bottom: "conv3_13_2"
   top: "conv3_13_2"
}

layer {
   name: "conv3_13_3"
   type: "Convolution"
   bottom: "conv3_13_2"
   top: "conv3_13_3"
   param {
      lr_mult: 1
      decay_mult: 1
   }
   convolution_param {
      num_output: 864
      bias_term: false
      pad: 0
      kernel_size: 1
      stride: 1
      weight_filler {
         type: "msra"
      }
   }
}

layer {
   name: "bn3_13_3"
   type: "BatchNorm"
   bottom: "conv3_13_3"
   top: "conv3_13_3"
   param {
      lr_mult: 0
   }
   param {
      lr_mult: 0
   }
   param {
      lr_mult: 0
   }
   batch_norm_param {
      use_global_stats: true
   }
}

layer {
   name: "scale3_13_3"
   type: "Scale"
   bottom: "conv3_13_3"
   top: "conv3_13_3"
   scale_param {
      bias_term: true
   }
}

layer {
   name: "zero_conv3_13"
   type: "Convolution"
   bottom: "res3_12"
   top: "zero_conv3_13"
   param {
      lr_mult: 0
      decay_mult: 0
   }
   convolution_param {
      num_output: 32
      bias_term: false
      pad: 0
      kernel_size: 1
      stride: 1
      weight_filler {
         type: "constant"
         value: 0.0
      }
   }
}

layer {
   name: "zero3_13"
   type: "Concat"
   bottom: "res3_12"
   bottom: "zero_conv3_13"
   top: "zero3_13"
   concat_param {
      axis: 1
   }
}

layer {
   name: "res3_13"
   type: "Eltwise"
   bottom: "zero3_13"
   bottom: "conv3_13_3"
   top: "res3_13"
   eltwise_param {
      operation: SUM 
   }
}

layer {
   name: "bn3_14"
   type: "BatchNorm"
   bottom: "res3_13"
   top: "bn3_14"
   param {
      lr_mult: 0
   }
   param {
      lr_mult: 0
   }
   param {
      lr_mult: 0
   }
   batch_norm_param {
      use_global_stats: true
   }
}

layer {
   name: "scale3_14"
   type: "Scale"
   bottom: "bn3_14"
   top: "bn3_14"
   scale_param {
      bias_term: true
   }
}

layer {
   name: "conv3_14_1"
   type: "Convolution"
   bottom: "bn3_14"
   top: "conv3_14_1"
   param {
      lr_mult: 1
      decay_mult: 1
   }
   convolution_param {
      num_output: 223
      bias_term: false
      pad: 0
      kernel_size: 1
      stride: 1
      weight_filler {
         type: "msra"
      }
   }
}

layer {
   name: "bn3_14_1"
   type: "BatchNorm"
   bottom: "conv3_14_1"
   top: "conv3_14_1"
   param {
      lr_mult: 0
   }
   param {
      lr_mult: 0
   }
   param {
      lr_mult: 0
   }
   batch_norm_param {
      use_global_stats: true
   }
}

layer {
   name: "scale3_14_1"
   type: "Scale"
   bottom: "conv3_14_1"
   top: "conv3_14_1"
   scale_param {
      bias_term: true
   }
}

layer {
   name: "relu3_14_1"
   type: "ReLU"
   bottom: "conv3_14_1"
   top: "conv3_14_1"
}

layer {
   name: "conv3_14_2"
   type: "Convolution"
   bottom: "conv3_14_1"
   top: "conv3_14_2"
   param {
      lr_mult: 1
      decay_mult: 1
   }
   convolution_param {
      num_output: 223
      bias_term: false
      pad: 1
      kernel_size: 3
      stride: 1
      weight_filler {
         type: "msra"
      }
   }
}

layer {
   name: "bn3_14_2"
   type: "BatchNorm"
   bottom: "conv3_14_2"
   top: "conv3_14_2"
   param {
      lr_mult: 0
   }
   param {
      lr_mult: 0
   }
   param {
      lr_mult: 0
   }
   batch_norm_param {
      use_global_stats: true
   }
}

layer {
   name: "scale3_14_2"
   type: "Scale"
   bottom: "conv3_14_2"
   top: "conv3_14_2"
   scale_param {
      bias_term: true
   }
}

layer {
   name: "relu3_14_2"
   type: "ReLU"
   bottom: "conv3_14_2"
   top: "conv3_14_2"
}

layer {
   name: "conv3_14_3"
   type: "Convolution"
   bottom: "conv3_14_2"
   top: "conv3_14_3"
   param {
      lr_mult: 1
      decay_mult: 1
   }
   convolution_param {
      num_output: 892
      bias_term: false
      pad: 0
      kernel_size: 1
      stride: 1
      weight_filler {
         type: "msra"
      }
   }
}

layer {
   name: "bn3_14_3"
   type: "BatchNorm"
   bottom: "conv3_14_3"
   top: "conv3_14_3"
   param {
      lr_mult: 0
   }
   param {
      lr_mult: 0
   }
   param {
      lr_mult: 0
   }
   batch_norm_param {
      use_global_stats: true
   }
}

layer {
   name: "scale3_14_3"
   type: "Scale"
   bottom: "conv3_14_3"
   top: "conv3_14_3"
   scale_param {
      bias_term: true
   }
}

layer {
   name: "zero_conv3_14"
   type: "Convolution"
   bottom: "res3_13"
   top: "zero_conv3_14"
   param {
      lr_mult: 0
      decay_mult: 0
   }
   convolution_param {
      num_output: 28
      bias_term: false
      pad: 0
      kernel_size: 1
      stride: 1
      weight_filler {
         type: "constant"
         value: 0.0
      }
   }
}

layer {
   name: "zero3_14"
   type: "Concat"
   bottom: "res3_13"
   bottom: "zero_conv3_14"
   top: "zero3_14"
   concat_param {
      axis: 1
   }
}

layer {
   name: "res3_14"
   type: "Eltwise"
   bottom: "zero3_14"
   bottom: "conv3_14_3"
   top: "res3_14"
   eltwise_param {
      operation: SUM 
   }
}

layer {
   name: "bn3_15"
   type: "BatchNorm"
   bottom: "res3_14"
   top: "bn3_15"
   param {
      lr_mult: 0
   }
   param {
      lr_mult: 0
   }
   param {
      lr_mult: 0
   }
   batch_norm_param {
      use_global_stats: true
   }
}

layer {
   name: "scale3_15"
   type: "Scale"
   bottom: "bn3_15"
   top: "bn3_15"
   scale_param {
      bias_term: true
   }
}

layer {
   name: "conv3_15_1"
   type: "Convolution"
   bottom: "bn3_15"
   top: "conv3_15_1"
   param {
      lr_mult: 1
      decay_mult: 1
   }
   convolution_param {
      num_output: 231
      bias_term: false
      pad: 0
      kernel_size: 1
      stride: 1
      weight_filler {
         type: "msra"
      }
   }
}

layer {
   name: "bn3_15_1"
   type: "BatchNorm"
   bottom: "conv3_15_1"
   top: "conv3_15_1"
   param {
      lr_mult: 0
   }
   param {
      lr_mult: 0
   }
   param {
      lr_mult: 0
   }
   batch_norm_param {
      use_global_stats: true
   }
}

layer {
   name: "scale3_15_1"
   type: "Scale"
   bottom: "conv3_15_1"
   top: "conv3_15_1"
   scale_param {
      bias_term: true
   }
}

layer {
   name: "relu3_15_1"
   type: "ReLU"
   bottom: "conv3_15_1"
   top: "conv3_15_1"
}

layer {
   name: "conv3_15_2"
   type: "Convolution"
   bottom: "conv3_15_1"
   top: "conv3_15_2"
   param {
      lr_mult: 1
      decay_mult: 1
   }
   convolution_param {
      num_output: 231
      bias_term: false
      pad: 1
      kernel_size: 3
      stride: 1
      weight_filler {
         type: "msra"
      }
   }
}

layer {
   name: "bn3_15_2"
   type: "BatchNorm"
   bottom: "conv3_15_2"
   top: "conv3_15_2"
   param {
      lr_mult: 0
   }
   param {
      lr_mult: 0
   }
   param {
      lr_mult: 0
   }
   batch_norm_param {
      use_global_stats: true
   }
}

layer {
   name: "scale3_15_2"
   type: "Scale"
   bottom: "conv3_15_2"
   top: "conv3_15_2"
   scale_param {
      bias_term: true
   }
}

layer {
   name: "relu3_15_2"
   type: "ReLU"
   bottom: "conv3_15_2"
   top: "conv3_15_2"
}

layer {
   name: "conv3_15_3"
   type: "Convolution"
   bottom: "conv3_15_2"
   top: "conv3_15_3"
   param {
      lr_mult: 1
      decay_mult: 1
   }
   convolution_param {
      num_output: 924
      bias_term: false
      pad: 0
      kernel_size: 1
      stride: 1
      weight_filler {
         type: "msra"
      }
   }
}

layer {
   name: "bn3_15_3"
   type: "BatchNorm"
   bottom: "conv3_15_3"
   top: "conv3_15_3"
   param {
      lr_mult: 0
   }
   param {
      lr_mult: 0
   }
   param {
      lr_mult: 0
   }
   batch_norm_param {
      use_global_stats: true
   }
}

layer {
   name: "scale3_15_3"
   type: "Scale"
   bottom: "conv3_15_3"
   top: "conv3_15_3"
   scale_param {
      bias_term: true
   }
}

layer {
   name: "zero_conv3_15"
   type: "Convolution"
   bottom: "res3_14"
   top: "zero_conv3_15"
   param {
      lr_mult: 0
      decay_mult: 0
   }
   convolution_param {
      num_output: 32
      bias_term: false
      pad: 0
      kernel_size: 1
      stride: 1
      weight_filler {
         type: "constant"
         value: 0.0
      }
   }
}

layer {
   name: "zero3_15"
   type: "Concat"
   bottom: "res3_14"
   bottom: "zero_conv3_15"
   top: "zero3_15"
   concat_param {
      axis: 1
   }
}

layer {
   name: "res3_15"
   type: "Eltwise"
   bottom: "zero3_15"
   bottom: "conv3_15_3"
   top: "res3_15"
   eltwise_param {
      operation: SUM 
   }
}

layer {
   name: "bn3_16"
   type: "BatchNorm"
   bottom: "res3_15"
   top: "bn3_16"
   param {
      lr_mult: 0
   }
   param {
      lr_mult: 0
   }
   param {
      lr_mult: 0
   }
   batch_norm_param {
      use_global_stats: true
   }
}

layer {
   name: "scale3_16"
   type: "Scale"
   bottom: "bn3_16"
   top: "bn3_16"
   scale_param {
      bias_term: true
   }
}

layer {
   name: "conv3_16_1"
   type: "Convolution"
   bottom: "bn3_16"
   top: "conv3_16_1"
   param {
      lr_mult: 1
      decay_mult: 1
   }
   convolution_param {
      num_output: 238
      bias_term: false
      pad: 0
      kernel_size: 1
      stride: 1
      weight_filler {
         type: "msra"
      }
   }
}

layer {
   name: "bn3_16_1"
   type: "BatchNorm"
   bottom: "conv3_16_1"
   top: "conv3_16_1"
   param {
      lr_mult: 0
   }
   param {
      lr_mult: 0
   }
   param {
      lr_mult: 0
   }
   batch_norm_param {
      use_global_stats: true
   }
}

layer {
   name: "scale3_16_1"
   type: "Scale"
   bottom: "conv3_16_1"
   top: "conv3_16_1"
   scale_param {
      bias_term: true
   }
}

layer {
   name: "relu3_16_1"
   type: "ReLU"
   bottom: "conv3_16_1"
   top: "conv3_16_1"
}

layer {
   name: "conv3_16_2"
   type: "Convolution"
   bottom: "conv3_16_1"
   top: "conv3_16_2"
   param {
      lr_mult: 1
      decay_mult: 1
   }
   convolution_param {
      num_output: 238
      bias_term: false
      pad: 1
      kernel_size: 3
      stride: 1
      weight_filler {
         type: "msra"
      }
   }
}

layer {
   name: "bn3_16_2"
   type: "BatchNorm"
   bottom: "conv3_16_2"
   top: "conv3_16_2"
   param {
      lr_mult: 0
   }
   param {
      lr_mult: 0
   }
   param {
      lr_mult: 0
   }
   batch_norm_param {
      use_global_stats: true
   }
}

layer {
   name: "scale3_16_2"
   type: "Scale"
   bottom: "conv3_16_2"
   top: "conv3_16_2"
   scale_param {
      bias_term: true
   }
}

layer {
   name: "relu3_16_2"
   type: "ReLU"
   bottom: "conv3_16_2"
   top: "conv3_16_2"
}

layer {
   name: "conv3_16_3"
   type: "Convolution"
   bottom: "conv3_16_2"
   top: "conv3_16_3"
   param {
      lr_mult: 1
      decay_mult: 1
   }
   convolution_param {
      num_output: 952
      bias_term: false
      pad: 0
      kernel_size: 1
      stride: 1
      weight_filler {
         type: "msra"
      }
   }
}

layer {
   name: "bn3_16_3"
   type: "BatchNorm"
   bottom: "conv3_16_3"
   top: "conv3_16_3"
   param {
      lr_mult: 0
   }
   param {
      lr_mult: 0
   }
   param {
      lr_mult: 0
   }
   batch_norm_param {
      use_global_stats: true
   }
}

layer {
   name: "scale3_16_3"
   type: "Scale"
   bottom: "conv3_16_3"
   top: "conv3_16_3"
   scale_param {
      bias_term: true
   }
}

layer {
   name: "zero_conv3_16"
   type: "Convolution"
   bottom: "res3_15"
   top: "zero_conv3_16"
   param {
      lr_mult: 0
      decay_mult: 0
   }
   convolution_param {
      num_output: 28
      bias_term: false
      pad: 0
      kernel_size: 1
      stride: 1
      weight_filler {
         type: "constant"
         value: 0.0
      }
   }
}

layer {
   name: "zero3_16"
   type: "Concat"
   bottom: "res3_15"
   bottom: "zero_conv3_16"
   top: "zero3_16"
   concat_param {
      axis: 1
   }
}

layer {
   name: "res3_16"
   type: "Eltwise"
   bottom: "zero3_16"
   bottom: "conv3_16_3"
   top: "res3_16"
   eltwise_param {
      operation: SUM 
   }
}

layer {
   name: "bn3_17"
   type: "BatchNorm"
   bottom: "res3_16"
   top: "bn3_17"
   param {
      lr_mult: 0
   }
   param {
      lr_mult: 0
   }
   param {
      lr_mult: 0
   }
   batch_norm_param {
      use_global_stats: true
   }
}

layer {
   name: "scale3_17"
   type: "Scale"
   bottom: "bn3_17"
   top: "bn3_17"
   scale_param {
      bias_term: true
   }
}

layer {
   name: "conv3_17_1"
   type: "Convolution"
   bottom: "bn3_17"
   top: "conv3_17_1"
   param {
      lr_mult: 1
      decay_mult: 1
   }
   convolution_param {
      num_output: 246
      bias_term: false
      pad: 0
      kernel_size: 1
      stride: 1
      weight_filler {
         type: "msra"
      }
   }
}

layer {
   name: "bn3_17_1"
   type: "BatchNorm"
   bottom: "conv3_17_1"
   top: "conv3_17_1"
   param {
      lr_mult: 0
   }
   param {
      lr_mult: 0
   }
   param {
      lr_mult: 0
   }
   batch_norm_param {
      use_global_stats: true
   }
}

layer {
   name: "scale3_17_1"
   type: "Scale"
   bottom: "conv3_17_1"
   top: "conv3_17_1"
   scale_param {
      bias_term: true
   }
}

layer {
   name: "relu3_17_1"
   type: "ReLU"
   bottom: "conv3_17_1"
   top: "conv3_17_1"
}

layer {
   name: "conv3_17_2"
   type: "Convolution"
   bottom: "conv3_17_1"
   top: "conv3_17_2"
   param {
      lr_mult: 1
      decay_mult: 1
   }
   convolution_param {
      num_output: 246
      bias_term: false
      pad: 1
      kernel_size: 3
      stride: 1
      weight_filler {
         type: "msra"
      }
   }
}

layer {
   name: "bn3_17_2"
   type: "BatchNorm"
   bottom: "conv3_17_2"
   top: "conv3_17_2"
   param {
      lr_mult: 0
   }
   param {
      lr_mult: 0
   }
   param {
      lr_mult: 0
   }
   batch_norm_param {
      use_global_stats: true
   }
}

layer {
   name: "scale3_17_2"
   type: "Scale"
   bottom: "conv3_17_2"
   top: "conv3_17_2"
   scale_param {
      bias_term: true
   }
}

layer {
   name: "relu3_17_2"
   type: "ReLU"
   bottom: "conv3_17_2"
   top: "conv3_17_2"
}

layer {
   name: "conv3_17_3"
   type: "Convolution"
   bottom: "conv3_17_2"
   top: "conv3_17_3"
   param {
      lr_mult: 1
      decay_mult: 1
   }
   convolution_param {
      num_output: 984
      bias_term: false
      pad: 0
      kernel_size: 1
      stride: 1
      weight_filler {
         type: "msra"
      }
   }
}

layer {
   name: "bn3_17_3"
   type: "BatchNorm"
   bottom: "conv3_17_3"
   top: "conv3_17_3"
   param {
      lr_mult: 0
   }
   param {
      lr_mult: 0
   }
   param {
      lr_mult: 0
   }
   batch_norm_param {
      use_global_stats: true
   }
}

layer {
   name: "scale3_17_3"
   type: "Scale"
   bottom: "conv3_17_3"
   top: "conv3_17_3"
   scale_param {
      bias_term: true
   }
}

layer {
   name: "zero_conv3_17"
   type: "Convolution"
   bottom: "res3_16"
   top: "zero_conv3_17"
   param {
      lr_mult: 0
      decay_mult: 0
   }
   convolution_param {
      num_output: 32
      bias_term: false
      pad: 0
      kernel_size: 1
      stride: 1
      weight_filler {
         type: "constant"
         value: 0.0
      }
   }
}

layer {
   name: "zero3_17"
   type: "Concat"
   bottom: "res3_16"
   bottom: "zero_conv3_17"
   top: "zero3_17"
   concat_param {
      axis: 1
   }
}

layer {
   name: "res3_17"
   type: "Eltwise"
   bottom: "zero3_17"
   bottom: "conv3_17_3"
   top: "res3_17"
   eltwise_param {
      operation: SUM 
   }
}

layer {
   name: "bn3_18"
   type: "BatchNorm"
   bottom: "res3_17"
   top: "bn3_18"
   param {
      lr_mult: 0
   }
   param {
      lr_mult: 0
   }
   param {
      lr_mult: 0
   }
   batch_norm_param {
      use_global_stats: true
   }
}

layer {
   name: "scale3_18"
   type: "Scale"
   bottom: "bn3_18"
   top: "bn3_18"
   scale_param {
      bias_term: true
   }
}

layer {
   name: "conv3_18_1"
   type: "Convolution"
   bottom: "bn3_18"
   top: "conv3_18_1"
   param {
      lr_mult: 1
      decay_mult: 1
   }
   convolution_param {
      num_output: 253
      bias_term: false
      pad: 0
      kernel_size: 1
      stride: 1
      weight_filler {
         type: "msra"
      }
   }
}

layer {
   name: "bn3_18_1"
   type: "BatchNorm"
   bottom: "conv3_18_1"
   top: "conv3_18_1"
   param {
      lr_mult: 0
   }
   param {
      lr_mult: 0
   }
   param {
      lr_mult: 0
   }
   batch_norm_param {
      use_global_stats: true
   }
}

layer {
   name: "scale3_18_1"
   type: "Scale"
   bottom: "conv3_18_1"
   top: "conv3_18_1"
   scale_param {
      bias_term: true
   }
}

layer {
   name: "relu3_18_1"
   type: "ReLU"
   bottom: "conv3_18_1"
   top: "conv3_18_1"
}

layer {
   name: "conv3_18_2"
   type: "Convolution"
   bottom: "conv3_18_1"
   top: "conv3_18_2"
   param {
      lr_mult: 1
      decay_mult: 1
   }
   convolution_param {
      num_output: 253
      bias_term: false
      pad: 1
      kernel_size: 3
      stride: 1
      weight_filler {
         type: "msra"
      }
   }
}

layer {
   name: "bn3_18_2"
   type: "BatchNorm"
   bottom: "conv3_18_2"
   top: "conv3_18_2"
   param {
      lr_mult: 0
   }
   param {
      lr_mult: 0
   }
   param {
      lr_mult: 0
   }
   batch_norm_param {
      use_global_stats: true
   }
}

layer {
   name: "scale3_18_2"
   type: "Scale"
   bottom: "conv3_18_2"
   top: "conv3_18_2"
   scale_param {
      bias_term: true
   }
}

layer {
   name: "relu3_18_2"
   type: "ReLU"
   bottom: "conv3_18_2"
   top: "conv3_18_2"
}

layer {
   name: "conv3_18_3"
   type: "Convolution"
   bottom: "conv3_18_2"
   top: "conv3_18_3"
   param {
      lr_mult: 1
      decay_mult: 1
   }
   convolution_param {
      num_output: 1012
      bias_term: false
      pad: 0
      kernel_size: 1
      stride: 1
      weight_filler {
         type: "msra"
      }
   }
}

layer {
   name: "bn3_18_3"
   type: "BatchNorm"
   bottom: "conv3_18_3"
   top: "conv3_18_3"
   param {
      lr_mult: 0
   }
   param {
      lr_mult: 0
   }
   param {
      lr_mult: 0
   }
   batch_norm_param {
      use_global_stats: true
   }
}

layer {
   name: "scale3_18_3"
   type: "Scale"
   bottom: "conv3_18_3"
   top: "conv3_18_3"
   scale_param {
      bias_term: true
   }
}

layer {
   name: "zero_conv3_18"
   type: "Convolution"
   bottom: "res3_17"
   top: "zero_conv3_18"
   param {
      lr_mult: 0
      decay_mult: 0
   }
   convolution_param {
      num_output: 28
      bias_term: false
      pad: 0
      kernel_size: 1
      stride: 1
      weight_filler {
         type: "constant"
         value: 0.0
      }
   }
}

layer {
   name: "zero3_18"
   type: "Concat"
   bottom: "res3_17"
   bottom: "zero_conv3_18"
   top: "zero3_18"
   concat_param {
      axis: 1
   }
}

layer {
   name: "res3_18"
   type: "Eltwise"
   bottom: "zero3_18"
   bottom: "conv3_18_3"
   top: "res3_18"
   eltwise_param {
      operation: SUM 
   }
}

layer {
   name: "bn3_19"
   type: "BatchNorm"
   bottom: "res3_18"
   top: "bn3_19"
   param {
      lr_mult: 0
   }
   param {
      lr_mult: 0
   }
   param {
      lr_mult: 0
   }
   batch_norm_param {
      use_global_stats: true
   }
}

layer {
   name: "scale3_19"
   type: "Scale"
   bottom: "bn3_19"
   top: "bn3_19"
   scale_param {
      bias_term: true
   }
}

layer {
   name: "conv3_19_1"
   type: "Convolution"
   bottom: "bn3_19"
   top: "conv3_19_1"
   param {
      lr_mult: 1
      decay_mult: 1
   }
   convolution_param {
      num_output: 261
      bias_term: false
      pad: 0
      kernel_size: 1
      stride: 1
      weight_filler {
         type: "msra"
      }
   }
}

layer {
   name: "bn3_19_1"
   type: "BatchNorm"
   bottom: "conv3_19_1"
   top: "conv3_19_1"
   param {
      lr_mult: 0
   }
   param {
      lr_mult: 0
   }
   param {
      lr_mult: 0
   }
   batch_norm_param {
      use_global_stats: true
   }
}

layer {
   name: "scale3_19_1"
   type: "Scale"
   bottom: "conv3_19_1"
   top: "conv3_19_1"
   scale_param {
      bias_term: true
   }
}

layer {
   name: "relu3_19_1"
   type: "ReLU"
   bottom: "conv3_19_1"
   top: "conv3_19_1"
}

layer {
   name: "conv3_19_2"
   type: "Convolution"
   bottom: "conv3_19_1"
   top: "conv3_19_2"
   param {
      lr_mult: 1
      decay_mult: 1
   }
   convolution_param {
      num_output: 261
      bias_term: false
      pad: 1
      kernel_size: 3
      stride: 1
      weight_filler {
         type: "msra"
      }
   }
}

layer {
   name: "bn3_19_2"
   type: "BatchNorm"
   bottom: "conv3_19_2"
   top: "conv3_19_2"
   param {
      lr_mult: 0
   }
   param {
      lr_mult: 0
   }
   param {
      lr_mult: 0
   }
   batch_norm_param {
      use_global_stats: true
   }
}

layer {
   name: "scale3_19_2"
   type: "Scale"
   bottom: "conv3_19_2"
   top: "conv3_19_2"
   scale_param {
      bias_term: true
   }
}

layer {
   name: "relu3_19_2"
   type: "ReLU"
   bottom: "conv3_19_2"
   top: "conv3_19_2"
}

layer {
   name: "conv3_19_3"
   type: "Convolution"
   bottom: "conv3_19_2"
   top: "conv3_19_3"
   param {
      lr_mult: 1
      decay_mult: 1
   }
   convolution_param {
      num_output: 1044
      bias_term: false
      pad: 0
      kernel_size: 1
      stride: 1
      weight_filler {
         type: "msra"
      }
   }
}

layer {
   name: "bn3_19_3"
   type: "BatchNorm"
   bottom: "conv3_19_3"
   top: "conv3_19_3"
   param {
      lr_mult: 0
   }
   param {
      lr_mult: 0
   }
   param {
      lr_mult: 0
   }
   batch_norm_param {
      use_global_stats: true
   }
}

layer {
   name: "scale3_19_3"
   type: "Scale"
   bottom: "conv3_19_3"
   top: "conv3_19_3"
   scale_param {
      bias_term: true
   }
}

layer {
   name: "zero_conv3_19"
   type: "Convolution"
   bottom: "res3_18"
   top: "zero_conv3_19"
   param {
      lr_mult: 0
      decay_mult: 0
   }
   convolution_param {
      num_output: 32
      bias_term: false
      pad: 0
      kernel_size: 1
      stride: 1
      weight_filler {
         type: "constant"
         value: 0.0
      }
   }
}

layer {
   name: "zero3_19"
   type: "Concat"
   bottom: "res3_18"
   bottom: "zero_conv3_19"
   top: "zero3_19"
   concat_param {
      axis: 1
   }
}

layer {
   name: "res3_19"
   type: "Eltwise"
   bottom: "zero3_19"
   bottom: "conv3_19_3"
   top: "res3_19"
   eltwise_param {
      operation: SUM 
   }
}

layer {
   name: "bn3_20"
   type: "BatchNorm"
   bottom: "res3_19"
   top: "bn3_20"
   param {
      lr_mult: 0
   }
   param {
      lr_mult: 0
   }
   param {
      lr_mult: 0
   }
   batch_norm_param {
      use_global_stats: true
   }
}

layer {
   name: "scale3_20"
   type: "Scale"
   bottom: "bn3_20"
   top: "bn3_20"
   scale_param {
      bias_term: true
   }
}

layer {
   name: "conv3_20_1"
   type: "Convolution"
   bottom: "bn3_20"
   top: "conv3_20_1"
   param {
      lr_mult: 1
      decay_mult: 1
   }
   convolution_param {
      num_output: 269
      bias_term: false
      pad: 0
      kernel_size: 1
      stride: 1
      weight_filler {
         type: "msra"
      }
   }
}

layer {
   name: "bn3_20_1"
   type: "BatchNorm"
   bottom: "conv3_20_1"
   top: "conv3_20_1"
   param {
      lr_mult: 0
   }
   param {
      lr_mult: 0
   }
   param {
      lr_mult: 0
   }
   batch_norm_param {
      use_global_stats: true
   }
}

layer {
   name: "scale3_20_1"
   type: "Scale"
   bottom: "conv3_20_1"
   top: "conv3_20_1"
   scale_param {
      bias_term: true
   }
}

layer {
   name: "relu3_20_1"
   type: "ReLU"
   bottom: "conv3_20_1"
   top: "conv3_20_1"
}

layer {
   name: "conv3_20_2"
   type: "Convolution"
   bottom: "conv3_20_1"
   top: "conv3_20_2"
   param {
      lr_mult: 1
      decay_mult: 1
   }
   convolution_param {
      num_output: 269
      bias_term: false
      pad: 1
      kernel_size: 3
      stride: 1
      weight_filler {
         type: "msra"
      }
   }
}

layer {
   name: "bn3_20_2"
   type: "BatchNorm"
   bottom: "conv3_20_2"
   top: "conv3_20_2"
   param {
      lr_mult: 0
   }
   param {
      lr_mult: 0
   }
   param {
      lr_mult: 0
   }
   batch_norm_param {
      use_global_stats: true
   }
}

layer {
   name: "scale3_20_2"
   type: "Scale"
   bottom: "conv3_20_2"
   top: "conv3_20_2"
   scale_param {
      bias_term: true
   }
}

layer {
   name: "relu3_20_2"
   type: "ReLU"
   bottom: "conv3_20_2"
   top: "conv3_20_2"
}

layer {
   name: "conv3_20_3"
   type: "Convolution"
   bottom: "conv3_20_2"
   top: "conv3_20_3"
   param {
      lr_mult: 1
      decay_mult: 1
   }
   convolution_param {
      num_output: 1076
      bias_term: false
      pad: 0
      kernel_size: 1
      stride: 1
      weight_filler {
         type: "msra"
      }
   }
}

layer {
   name: "bn3_20_3"
   type: "BatchNorm"
   bottom: "conv3_20_3"
   top: "conv3_20_3"
   param {
      lr_mult: 0
   }
   param {
      lr_mult: 0
   }
   param {
      lr_mult: 0
   }
   batch_norm_param {
      use_global_stats: true
   }
}

layer {
   name: "scale3_20_3"
   type: "Scale"
   bottom: "conv3_20_3"
   top: "conv3_20_3"
   scale_param {
      bias_term: true
   }
}

layer {
   name: "zero_conv3_20"
   type: "Convolution"
   bottom: "res3_19"
   top: "zero_conv3_20"
   param {
      lr_mult: 0
      decay_mult: 0
   }
   convolution_param {
      num_output: 32
      bias_term: false
      pad: 0
      kernel_size: 1
      stride: 1
      weight_filler {
         type: "constant"
         value: 0.0
      }
   }
}

layer {
   name: "zero3_20"
   type: "Concat"
   bottom: "res3_19"
   bottom: "zero_conv3_20"
   top: "zero3_20"
   concat_param {
      axis: 1
   }
}

layer {
   name: "res3_20"
   type: "Eltwise"
   bottom: "zero3_20"
   bottom: "conv3_20_3"
   top: "res3_20"
   eltwise_param {
      operation: SUM 
   }
}

layer {
   name: "bn3_21"
   type: "BatchNorm"
   bottom: "res3_20"
   top: "bn3_21"
   param {
      lr_mult: 0
   }
   param {
      lr_mult: 0
   }
   param {
      lr_mult: 0
   }
   batch_norm_param {
      use_global_stats: true
   }
}

layer {
   name: "scale3_21"
   type: "Scale"
   bottom: "bn3_21"
   top: "bn3_21"
   scale_param {
      bias_term: true
   }
}

layer {
   name: "conv3_21_1"
   type: "Convolution"
   bottom: "bn3_21"
   top: "conv3_21_1"
   param {
      lr_mult: 1
      decay_mult: 1
   }
   convolution_param {
      num_output: 276
      bias_term: false
      pad: 0
      kernel_size: 1
      stride: 1
      weight_filler {
         type: "msra"
      }
   }
}

layer {
   name: "bn3_21_1"
   type: "BatchNorm"
   bottom: "conv3_21_1"
   top: "conv3_21_1"
   param {
      lr_mult: 0
   }
   param {
      lr_mult: 0
   }
   param {
      lr_mult: 0
   }
   batch_norm_param {
      use_global_stats: true
   }
}

layer {
   name: "scale3_21_1"
   type: "Scale"
   bottom: "conv3_21_1"
   top: "conv3_21_1"
   scale_param {
      bias_term: true
   }
}

layer {
   name: "relu3_21_1"
   type: "ReLU"
   bottom: "conv3_21_1"
   top: "conv3_21_1"
}

layer {
   name: "conv3_21_2"
   type: "Convolution"
   bottom: "conv3_21_1"
   top: "conv3_21_2"
   param {
      lr_mult: 1
      decay_mult: 1
   }
   convolution_param {
      num_output: 276
      bias_term: false
      pad: 1
      kernel_size: 3
      stride: 1
      weight_filler {
         type: "msra"
      }
   }
}

layer {
   name: "bn3_21_2"
   type: "BatchNorm"
   bottom: "conv3_21_2"
   top: "conv3_21_2"
   param {
      lr_mult: 0
   }
   param {
      lr_mult: 0
   }
   param {
      lr_mult: 0
   }
   batch_norm_param {
      use_global_stats: true
   }
}

layer {
   name: "scale3_21_2"
   type: "Scale"
   bottom: "conv3_21_2"
   top: "conv3_21_2"
   scale_param {
      bias_term: true
   }
}

layer {
   name: "relu3_21_2"
   type: "ReLU"
   bottom: "conv3_21_2"
   top: "conv3_21_2"
}

layer {
   name: "conv3_21_3"
   type: "Convolution"
   bottom: "conv3_21_2"
   top: "conv3_21_3"
   param {
      lr_mult: 1
      decay_mult: 1
   }
   convolution_param {
      num_output: 1104
      bias_term: false
      pad: 0
      kernel_size: 1
      stride: 1
      weight_filler {
         type: "msra"
      }
   }
}

layer {
   name: "bn3_21_3"
   type: "BatchNorm"
   bottom: "conv3_21_3"
   top: "conv3_21_3"
   param {
      lr_mult: 0
   }
   param {
      lr_mult: 0
   }
   param {
      lr_mult: 0
   }
   batch_norm_param {
      use_global_stats: true
   }
}

layer {
   name: "scale3_21_3"
   type: "Scale"
   bottom: "conv3_21_3"
   top: "conv3_21_3"
   scale_param {
      bias_term: true
   }
}

layer {
   name: "zero_conv3_21"
   type: "Convolution"
   bottom: "res3_20"
   top: "zero_conv3_21"
   param {
      lr_mult: 0
      decay_mult: 0
   }
   convolution_param {
      num_output: 28
      bias_term: false
      pad: 0
      kernel_size: 1
      stride: 1
      weight_filler {
         type: "constant"
         value: 0.0
      }
   }
}

layer {
   name: "zero3_21"
   type: "Concat"
   bottom: "res3_20"
   bottom: "zero_conv3_21"
   top: "zero3_21"
   concat_param {
      axis: 1
   }
}

layer {
   name: "res3_21"
   type: "Eltwise"
   bottom: "zero3_21"
   bottom: "conv3_21_3"
   top: "res3_21"
   eltwise_param {
      operation: SUM 
   }
}

layer {
   name: "bn3_22"
   type: "BatchNorm"
   bottom: "res3_21"
   top: "bn3_22"
   param {
      lr_mult: 0
   }
   param {
      lr_mult: 0
   }
   param {
      lr_mult: 0
   }
   batch_norm_param {
      use_global_stats: true
   }
}

layer {
   name: "scale3_22"
   type: "Scale"
   bottom: "bn3_22"
   top: "bn3_22"
   scale_param {
      bias_term: true
   }
}

layer {
   name: "conv3_22_1"
   type: "Convolution"
   bottom: "bn3_22"
   top: "conv3_22_1"
   param {
      lr_mult: 1
      decay_mult: 1
   }
   convolution_param {
      num_output: 284
      bias_term: false
      pad: 0
      kernel_size: 1
      stride: 1
      weight_filler {
         type: "msra"
      }
   }
}

layer {
   name: "bn3_22_1"
   type: "BatchNorm"
   bottom: "conv3_22_1"
   top: "conv3_22_1"
   param {
      lr_mult: 0
   }
   param {
      lr_mult: 0
   }
   param {
      lr_mult: 0
   }
   batch_norm_param {
      use_global_stats: true
   }
}

layer {
   name: "scale3_22_1"
   type: "Scale"
   bottom: "conv3_22_1"
   top: "conv3_22_1"
   scale_param {
      bias_term: true
   }
}

layer {
   name: "relu3_22_1"
   type: "ReLU"
   bottom: "conv3_22_1"
   top: "conv3_22_1"
}

layer {
   name: "conv3_22_2"
   type: "Convolution"
   bottom: "conv3_22_1"
   top: "conv3_22_2"
   param {
      lr_mult: 1
      decay_mult: 1
   }
   convolution_param {
      num_output: 284
      bias_term: false
      pad: 1
      kernel_size: 3
      stride: 1
      weight_filler {
         type: "msra"
      }
   }
}

layer {
   name: "bn3_22_2"
   type: "BatchNorm"
   bottom: "conv3_22_2"
   top: "conv3_22_2"
   param {
      lr_mult: 0
   }
   param {
      lr_mult: 0
   }
   param {
      lr_mult: 0
   }
   batch_norm_param {
      use_global_stats: true
   }
}

layer {
   name: "scale3_22_2"
   type: "Scale"
   bottom: "conv3_22_2"
   top: "conv3_22_2"
   scale_param {
      bias_term: true
   }
}

layer {
   name: "relu3_22_2"
   type: "ReLU"
   bottom: "conv3_22_2"
   top: "conv3_22_2"
}

layer {
   name: "conv3_22_3"
   type: "Convolution"
   bottom: "conv3_22_2"
   top: "conv3_22_3"
   param {
      lr_mult: 1
      decay_mult: 1
   }
   convolution_param {
      num_output: 1136
      bias_term: false
      pad: 0
      kernel_size: 1
      stride: 1
      weight_filler {
         type: "msra"
      }
   }
}

layer {
   name: "bn3_22_3"
   type: "BatchNorm"
   bottom: "conv3_22_3"
   top: "conv3_22_3"
   param {
      lr_mult: 0
   }
   param {
      lr_mult: 0
   }
   param {
      lr_mult: 0
   }
   batch_norm_param {
      use_global_stats: true
   }
}

layer {
   name: "scale3_22_3"
   type: "Scale"
   bottom: "conv3_22_3"
   top: "conv3_22_3"
   scale_param {
      bias_term: true
   }
}

layer {
   name: "zero_conv3_22"
   type: "Convolution"
   bottom: "res3_21"
   top: "zero_conv3_22"
   param {
      lr_mult: 0
      decay_mult: 0
   }
   convolution_param {
      num_output: 32
      bias_term: false
      pad: 0
      kernel_size: 1
      stride: 1
      weight_filler {
         type: "constant"
         value: 0.0
      }
   }
}

layer {
   name: "zero3_22"
   type: "Concat"
   bottom: "res3_21"
   bottom: "zero_conv3_22"
   top: "zero3_22"
   concat_param {
      axis: 1
   }
}

layer {
   name: "res3_22"
   type: "Eltwise"
   bottom: "zero3_22"
   bottom: "conv3_22_3"
   top: "res3_22"
   eltwise_param {
      operation: SUM 
   }
}

layer {
   name: "bn3_23"
   type: "BatchNorm"
   bottom: "res3_22"
   top: "bn3_23"
   param {
      lr_mult: 0
   }
   param {
      lr_mult: 0
   }
   param {
      lr_mult: 0
   }
   batch_norm_param {
      use_global_stats: true
   }
}

layer {
   name: "scale3_23"
   type: "Scale"
   bottom: "bn3_23"
   top: "bn3_23"
   scale_param {
      bias_term: true
   }
}

layer {
   name: "conv3_23_1"
   type: "Convolution"
   bottom: "bn3_23"
   top: "conv3_23_1"
   param {
      lr_mult: 1
      decay_mult: 1
   }
   convolution_param {
      num_output: 291
      bias_term: false
      pad: 0
      kernel_size: 1
      stride: 1
      weight_filler {
         type: "msra"
      }
   }
}

layer {
   name: "bn3_23_1"
   type: "BatchNorm"
   bottom: "conv3_23_1"
   top: "conv3_23_1"
   param {
      lr_mult: 0
   }
   param {
      lr_mult: 0
   }
   param {
      lr_mult: 0
   }
   batch_norm_param {
      use_global_stats: true
   }
}

layer {
   name: "scale3_23_1"
   type: "Scale"
   bottom: "conv3_23_1"
   top: "conv3_23_1"
   scale_param {
      bias_term: true
   }
}

layer {
   name: "relu3_23_1"
   type: "ReLU"
   bottom: "conv3_23_1"
   top: "conv3_23_1"
}

layer {
   name: "conv3_23_2"
   type: "Convolution"
   bottom: "conv3_23_1"
   top: "conv3_23_2"
   param {
      lr_mult: 1
      decay_mult: 1
   }
   convolution_param {
      num_output: 291
      bias_term: false
      pad: 1
      kernel_size: 3
      stride: 1
      weight_filler {
         type: "msra"
      }
   }
}

layer {
   name: "bn3_23_2"
   type: "BatchNorm"
   bottom: "conv3_23_2"
   top: "conv3_23_2"
   param {
      lr_mult: 0
   }
   param {
      lr_mult: 0
   }
   param {
      lr_mult: 0
   }
   batch_norm_param {
      use_global_stats: true
   }
}

layer {
   name: "scale3_23_2"
   type: "Scale"
   bottom: "conv3_23_2"
   top: "conv3_23_2"
   scale_param {
      bias_term: true
   }
}

layer {
   name: "relu3_23_2"
   type: "ReLU"
   bottom: "conv3_23_2"
   top: "conv3_23_2"
}

layer {
   name: "conv3_23_3"
   type: "Convolution"
   bottom: "conv3_23_2"
   top: "conv3_23_3"
   param {
      lr_mult: 1
      decay_mult: 1
   }
   convolution_param {
      num_output: 1164
      bias_term: false
      pad: 0
      kernel_size: 1
      stride: 1
      weight_filler {
         type: "msra"
      }
   }
}

layer {
   name: "bn3_23_3"
   type: "BatchNorm"
   bottom: "conv3_23_3"
   top: "conv3_23_3"
   param {
      lr_mult: 0
   }
   param {
      lr_mult: 0
   }
   param {
      lr_mult: 0
   }
   batch_norm_param {
      use_global_stats: true
   }
}

layer {
   name: "scale3_23_3"
   type: "Scale"
   bottom: "conv3_23_3"
   top: "conv3_23_3"
   scale_param {
      bias_term: true
   }
}

layer {
   name: "zero_conv3_23"
   type: "Convolution"
   bottom: "res3_22"
   top: "zero_conv3_23"
   param {
      lr_mult: 0
      decay_mult: 0
   }
   convolution_param {
      num_output: 28
      bias_term: false
      pad: 0
      kernel_size: 1
      stride: 1
      weight_filler {
         type: "constant"
         value: 0.0
      }
   }
}

layer {
   name: "zero3_23"
   type: "Concat"
   bottom: "res3_22"
   bottom: "zero_conv3_23"
   top: "zero3_23"
   concat_param {
      axis: 1
   }
}

layer {
   name: "res3_23"
   type: "Eltwise"
   bottom: "zero3_23"
   bottom: "conv3_23_3"
   top: "res3_23"
   eltwise_param {
      operation: SUM 
   }
}

layer {
   name: "bn4_1"
   type: "BatchNorm"
   bottom: "res3_23"
   top: "bn4_1"
   param {
      lr_mult: 0
   }
   param {
      lr_mult: 0
   }
   param {
      lr_mult: 0
   }
   batch_norm_param {
      use_global_stats: true
   }
}

layer {
   name: "scale4_1"
   type: "Scale"
   bottom: "bn4_1"
   top: "bn4_1"
   scale_param {
      bias_term: true
   }
}

layer {
   name: "conv4_1_1"
   type: "Convolution"
   bottom: "bn4_1"
   top: "conv4_1_1"
   param {
      lr_mult: 1
      decay_mult: 1
   }
   convolution_param {
      num_output: 299
      bias_term: false
      pad: 0
      kernel_size: 1
      stride: 1
      weight_filler {
         type: "msra"
      }
   }
}

layer {
   name: "bn4_1_1"
   type: "BatchNorm"
   bottom: "conv4_1_1"
   top: "conv4_1_1"
   param {
      lr_mult: 0
   }
   param {
      lr_mult: 0
   }
   param {
      lr_mult: 0
   }
   batch_norm_param {
      use_global_stats: true
   }
}

layer {
   name: "scale4_1_1"
   type: "Scale"
   bottom: "conv4_1_1"
   top: "conv4_1_1"
   scale_param {
      bias_term: true
   }
}

layer {
   name: "relu4_1_1"
   type: "ReLU"
   bottom: "conv4_1_1"
   top: "conv4_1_1"
}

layer {
   name: "conv4_1_2"
   type: "Convolution"
   bottom: "conv4_1_1"
   top: "conv4_1_2"
   param {
      lr_mult: 1
      decay_mult: 1
   }
   convolution_param {
      num_output: 299
      bias_term: false
      pad: 1
      kernel_size: 3
      stride: 2
      weight_filler {
         type: "msra"
      }
   }
}

layer {
   name: "bn4_1_2"
   type: "BatchNorm"
   bottom: "conv4_1_2"
   top: "conv4_1_2"
   param {
      lr_mult: 0
   }
   param {
      lr_mult: 0
   }
   param {
      lr_mult: 0
   }
   batch_norm_param {
      use_global_stats: true
   }
}

layer {
   name: "scale4_1_2"
   type: "Scale"
   bottom: "conv4_1_2"
   top: "conv4_1_2"
   scale_param {
      bias_term: true
   }
}

layer {
   name: "relu4_1_2"
   type: "ReLU"
   bottom: "conv4_1_2"
   top: "conv4_1_2"
}

layer {
   name: "conv4_1_3"
   type: "Convolution"
   bottom: "conv4_1_2"
   top: "conv4_1_3"
   param {
      lr_mult: 1
      decay_mult: 1
   }
   convolution_param {
      num_output: 1196
      bias_term: false
      pad: 0
      kernel_size: 1
      stride: 1
      weight_filler {
         type: "msra"
      }
   }
}

layer {
   name: "bn4_1_3"
   type: "BatchNorm"
   bottom: "conv4_1_3"
   top: "conv4_1_3"
   param {
      lr_mult: 0
   }
   param {
      lr_mult: 0
   }
   param {
      lr_mult: 0
   }
   batch_norm_param {
      use_global_stats: true
   }
}

layer {
   name: "scale4_1_3"
   type: "Scale"
   bottom: "conv4_1_3"
   top: "conv4_1_3"
   scale_param {
      bias_term: true
   }
}

layer {
   name: "pool4"
   type: "Pooling"
   bottom: "res3_23"
   top: "pool4"
   pooling_param {
      pool: AVE
      kernel_size: 2
      stride: 2
   }}

layer {
   name: "zero_conv4_1"
   type: "Convolution"
   bottom: "pool4"
   top: "zero_conv4_1"
   param {
      lr_mult: 0
      decay_mult: 0
   }
   convolution_param {
      num_output: 32
      bias_term: false
      pad: 0
      kernel_size: 1
      stride: 1
      weight_filler {
         type: "constant"
         value: 0.0
      }
   }
}

layer {
   name: "zero4_1"
   type: "Concat"
   bottom: "pool4"
   bottom: "zero_conv4_1"
   top: "zero4_1"
   concat_param {
      axis: 1
   }
}

layer {
   name: "res4_1"
   type: "Eltwise"
   bottom: "zero4_1"
   bottom: "conv4_1_3"
   top: "res4_1"
   eltwise_param {
      operation: SUM 
   }
}

layer {
   name: "bn4_2"
   type: "BatchNorm"
   bottom: "res4_1"
   top: "bn4_2"
   param {
      lr_mult: 0
   }
   param {
      lr_mult: 0
   }
   param {
      lr_mult: 0
   }
   batch_norm_param {
      use_global_stats: true
   }
}

layer {
   name: "scale4_2"
   type: "Scale"
   bottom: "bn4_2"
   top: "bn4_2"
   scale_param {
      bias_term: true
   }
}

layer {
   name: "conv4_2_1"
   type: "Convolution"
   bottom: "bn4_2"
   top: "conv4_2_1"
   param {
      lr_mult: 1
      decay_mult: 1
   }
   convolution_param {
      num_output: 306
      bias_term: false
      pad: 0
      kernel_size: 1
      stride: 1
      weight_filler {
         type: "msra"
      }
   }
}

layer {
   name: "bn4_2_1"
   type: "BatchNorm"
   bottom: "conv4_2_1"
   top: "conv4_2_1"
   param {
      lr_mult: 0
   }
   param {
      lr_mult: 0
   }
   param {
      lr_mult: 0
   }
   batch_norm_param {
      use_global_stats: true
   }
}

layer {
   name: "scale4_2_1"
   type: "Scale"
   bottom: "conv4_2_1"
   top: "conv4_2_1"
   scale_param {
      bias_term: true
   }
}

layer {
   name: "relu4_2_1"
   type: "ReLU"
   bottom: "conv4_2_1"
   top: "conv4_2_1"
}

layer {
   name: "conv4_2_2"
   type: "Convolution"
   bottom: "conv4_2_1"
   top: "conv4_2_2"
   param {
      lr_mult: 1
      decay_mult: 1
   }
   convolution_param {
      num_output: 306
      bias_term: false
      pad: 1
      kernel_size: 3
      stride: 1
      weight_filler {
         type: "msra"
      }
   }
}

layer {
   name: "bn4_2_2"
   type: "BatchNorm"
   bottom: "conv4_2_2"
   top: "conv4_2_2"
   param {
      lr_mult: 0
   }
   param {
      lr_mult: 0
   }
   param {
      lr_mult: 0
   }
   batch_norm_param {
      use_global_stats: true
   }
}

layer {
   name: "scale4_2_2"
   type: "Scale"
   bottom: "conv4_2_2"
   top: "conv4_2_2"
   scale_param {
      bias_term: true
   }
}

layer {
   name: "relu4_2_2"
   type: "ReLU"
   bottom: "conv4_2_2"
   top: "conv4_2_2"
}

layer {
   name: "conv4_2_3"
   type: "Convolution"
   bottom: "conv4_2_2"
   top: "conv4_2_3"
   param {
      lr_mult: 1
      decay_mult: 1
   }
   convolution_param {
      num_output: 1224
      bias_term: false
      pad: 0
      kernel_size: 1
      stride: 1
      weight_filler {
         type: "msra"
      }
   }
}

layer {
   name: "bn4_2_3"
   type: "BatchNorm"
   bottom: "conv4_2_3"
   top: "conv4_2_3"
   param {
      lr_mult: 0
   }
   param {
      lr_mult: 0
   }
   param {
      lr_mult: 0
   }
   batch_norm_param {
      use_global_stats: true
   }
}

layer {
   name: "scale4_2_3"
   type: "Scale"
   bottom: "conv4_2_3"
   top: "conv4_2_3"
   scale_param {
      bias_term: true
   }
}

layer {
   name: "zero_conv4_2"
   type: "Convolution"
   bottom: "res4_1"
   top: "zero_conv4_2"
   param {
      lr_mult: 0
      decay_mult: 0
   }
   convolution_param {
      num_output: 28
      bias_term: false
      pad: 0
      kernel_size: 1
      stride: 1
      weight_filler {
         type: "constant"
         value: 0.0
      }
   }
}

layer {
   name: "zero4_2"
   type: "Concat"
   bottom: "res4_1"
   bottom: "zero_conv4_2"
   top: "zero4_2"
   concat_param {
      axis: 1
   }
}

layer {
   name: "res4_2"
   type: "Eltwise"
   bottom: "zero4_2"
   bottom: "conv4_2_3"
   top: "res4_2"
   eltwise_param {
      operation: SUM 
   }
}

layer {
   name: "bn4_3"
   type: "BatchNorm"
   bottom: "res4_2"
   top: "bn4_3"
   param {
      lr_mult: 0
   }
   param {
      lr_mult: 0
   }
   param {
      lr_mult: 0
   }
   batch_norm_param {
      use_global_stats: true
   }
}

layer {
   name: "scale4_3"
   type: "Scale"
   bottom: "bn4_3"
   top: "bn4_3"
   scale_param {
      bias_term: true
   }
}

layer {
   name: "conv4_3_1"
   type: "Convolution"
   bottom: "bn4_3"
   top: "conv4_3_1"
   param {
      lr_mult: 1
      decay_mult: 1
   }
   convolution_param {
      num_output: 314
      bias_term: false
      pad: 0
      kernel_size: 1
      stride: 1
      weight_filler {
         type: "msra"
      }
   }
}

layer {
   name: "bn4_3_1"
   type: "BatchNorm"
   bottom: "conv4_3_1"
   top: "conv4_3_1"
   param {
      lr_mult: 0
   }
   param {
      lr_mult: 0
   }
   param {
      lr_mult: 0
   }
   batch_norm_param {
      use_global_stats: true
   }
}

layer {
   name: "scale4_3_1"
   type: "Scale"
   bottom: "conv4_3_1"
   top: "conv4_3_1"
   scale_param {
      bias_term: true
   }
}

layer {
   name: "relu4_3_1"
   type: "ReLU"
   bottom: "conv4_3_1"
   top: "conv4_3_1"
}

layer {
   name: "conv4_3_2"
   type: "Convolution"
   bottom: "conv4_3_1"
   top: "conv4_3_2"
   param {
      lr_mult: 1
      decay_mult: 1
   }
   convolution_param {
      num_output: 314
      bias_term: false
      pad: 1
      kernel_size: 3
      stride: 1
      weight_filler {
         type: "msra"
      }
   }
}

layer {
   name: "bn4_3_2"
   type: "BatchNorm"
   bottom: "conv4_3_2"
   top: "conv4_3_2"
   param {
      lr_mult: 0
   }
   param {
      lr_mult: 0
   }
   param {
      lr_mult: 0
   }
   batch_norm_param {
      use_global_stats: true
   }
}

layer {
   name: "scale4_3_2"
   type: "Scale"
   bottom: "conv4_3_2"
   top: "conv4_3_2"
   scale_param {
      bias_term: true
   }
}

layer {
   name: "relu4_3_2"
   type: "ReLU"
   bottom: "conv4_3_2"
   top: "conv4_3_2"
}

layer {
   name: "conv4_3_3"
   type: "Convolution"
   bottom: "conv4_3_2"
   top: "conv4_3_3"
   param {
      lr_mult: 1
      decay_mult: 1
   }
   convolution_param {
      num_output: 1256
      bias_term: false
      pad: 0
      kernel_size: 1
      stride: 1
      weight_filler {
         type: "msra"
      }
   }
}

layer {
   name: "bn4_3_3"
   type: "BatchNorm"
   bottom: "conv4_3_3"
   top: "conv4_3_3"
   param {
      lr_mult: 0
   }
   param {
      lr_mult: 0
   }
   param {
      lr_mult: 0
   }
   batch_norm_param {
      use_global_stats: true
   }
}

layer {
   name: "scale4_3_3"
   type: "Scale"
   bottom: "conv4_3_3"
   top: "conv4_3_3"
   scale_param {
      bias_term: true
   }
}

layer {
   name: "zero_conv4_3"
   type: "Convolution"
   bottom: "res4_2"
   top: "zero_conv4_3"
   param {
      lr_mult: 0
      decay_mult: 0
   }
   convolution_param {
      num_output: 32
      bias_term: false
      pad: 0
      kernel_size: 1
      stride: 1
      weight_filler {
         type: "constant"
         value: 0.0
      }
   }
}

layer {
   name: "zero4_3"
   type: "Concat"
   bottom: "res4_2"
   bottom: "zero_conv4_3"
   top: "zero4_3"
   concat_param {
      axis: 1
   }
}

layer {
   name: "res4_3"
   type: "Eltwise"
   bottom: "zero4_3"
   bottom: "conv4_3_3"
   top: "res4_3"
   eltwise_param {
      operation: SUM 
   }
}

layer {
   name: "bn5"
   type: "BatchNorm"
   bottom: "res4_3"
   top: "bn5"
   param {
      lr_mult: 0
   }
   param {
      lr_mult: 0
   }
   param {
      lr_mult: 0
   }
   batch_norm_param {
      use_global_stats: true
   }
}

layer {
   name: "scale5"
   type: "Scale"
   bottom: "bn5"
   top: "bn5"
   scale_param {
      bias_term: true
   }
}

layer {
   name: "relu5"
   type: "ReLU"
   bottom: "bn5"
   top: "bn5"
}

layer {
   name: "global_avg_pool"
   type: "Pooling"
   bottom: "bn5"
   top: "global_avg_pool"
   pooling_param {
      pool: AVE 
      global_pooling: true
   }
}

layer {
   name: "fc"
   type: "InnerProduct"
   bottom: "global_avg_pool"
   top: "fc"
   param {
      lr_mult: 1
      decay_mult: 1
   }
   param {
      lr_mult: 1
      decay_mult: 1
   }
   inner_product_param {
      num_output: 1000
      weight_filler {
         type: "msra"
      }
      bias_filler {
         type: "constant"
         value: 0.0
      }
   }
}

layer {
   bottom: "fc"
   top: "prob"
   name: "prob"
   type: "Softmax"
}

