name: "PyramidNet-200"

layer {
  name: "data"
  type: "Data"
  top: "data"
  top: "label"
  include {
    phase: TEST
  }
  transform_param {
    mean_value: 104
    mean_value: 117
    mean_value: 124
    scale: 0.017352
    mirror: false
    crop_size: 224
  }
  data_param {
    source: "examples/imagenet/ilsvrc12_val_lmdb"
    batch_size: 5
    backend: LMDB
  }
}


layer {
   name: "conv1"
   type: "Convolution"
   bottom: "data"
   top: "conv1"
   param {
      lr_mult: 1
      decay_mult: 1
   }
   convolution_param {
      num_output: 64
      bias_term: false
      pad: 3
      kernel_size: 7
      stride: 2
      weight_filler {
         type: "msra"
      }
   }
}

layer {
   name: "bn1"
   type: "BatchNorm"
   bottom: "conv1"
   top: "conv1"
   param {
      lr_mult: 0
   }
   param {
      lr_mult: 0
   }
   param {
      lr_mult: 0
   }
   batch_norm_param {
      use_global_stats: true
   }
}

layer {
   name: "scale1"
   type: "Scale"
   bottom: "conv1"
   top: "conv1"
   scale_param {
      bias_term: true
   }
}

layer {
   name: "relu1"
   type: "ReLU"
   bottom: "conv1"
   top: "conv1"
}

layer {
   name: "max1"
   type: "Pooling"
   bottom: "conv1"
   top: "max1"
   pooling_param {
      pool: MAX
      kernel_size: 3
      stride: 2
      pad: 1
   }
}

layer {
   name: "bn1_1"
   type: "BatchNorm"
   bottom: "max1"
   top: "bn1_1"
   param {
      lr_mult: 0
   }
   param {
      lr_mult: 0
   }
   param {
      lr_mult: 0
   }
   batch_norm_param {
      use_global_stats: true
   }
}

layer {
   name: "scale1_1"
   type: "Scale"
   bottom: "bn1_1"
   top: "bn1_1"
   scale_param {
      bias_term: true
   }
}

layer {
   name: "conv1_1_1"
   type: "Convolution"
   bottom: "bn1_1"
   top: "conv1_1_1"
   param {
      lr_mult: 1
      decay_mult: 1
   }
   convolution_param {
      num_output: 69
      bias_term: false
      pad: 0
      kernel_size: 1
      stride: 1
      weight_filler {
         type: "msra"
      }
   }
}

layer {
   name: "bn1_1_1"
   type: "BatchNorm"
   bottom: "conv1_1_1"
   top: "conv1_1_1"
   param {
      lr_mult: 0
   }
   param {
      lr_mult: 0
   }
   param {
      lr_mult: 0
   }
   batch_norm_param {
      use_global_stats: true
   }
}

layer {
   name: "scale1_1_1"
   type: "Scale"
   bottom: "conv1_1_1"
   top: "conv1_1_1"
   scale_param {
      bias_term: true
   }
}

layer {
   name: "relu1_1_1"
   type: "ReLU"
   bottom: "conv1_1_1"
   top: "conv1_1_1"
}

layer {
   name: "conv1_1_2"
   type: "Convolution"
   bottom: "conv1_1_1"
   top: "conv1_1_2"
   param {
      lr_mult: 1
      decay_mult: 1
   }
   convolution_param {
      num_output: 69
      bias_term: false
      pad: 1
      kernel_size: 3
      stride: 1
      weight_filler {
         type: "msra"
      }
   }
}

layer {
   name: "bn1_1_2"
   type: "BatchNorm"
   bottom: "conv1_1_2"
   top: "conv1_1_2"
   param {
      lr_mult: 0
   }
   param {
      lr_mult: 0
   }
   param {
      lr_mult: 0
   }
   batch_norm_param {
      use_global_stats: true
   }
}

layer {
   name: "scale1_1_2"
   type: "Scale"
   bottom: "conv1_1_2"
   top: "conv1_1_2"
   scale_param {
      bias_term: true
   }
}

layer {
   name: "relu1_1_2"
   type: "ReLU"
   bottom: "conv1_1_2"
   top: "conv1_1_2"
}

layer {
   name: "conv1_1_3"
   type: "Convolution"
   bottom: "conv1_1_2"
   top: "conv1_1_3"
   param {
      lr_mult: 1
      decay_mult: 1
   }
   convolution_param {
      num_output: 276
      bias_term: false
      pad: 0
      kernel_size: 1
      stride: 1
      weight_filler {
         type: "msra"
      }
   }
}

layer {
   name: "bn1_1_3"
   type: "BatchNorm"
   bottom: "conv1_1_3"
   top: "conv1_1_3"
   param {
      lr_mult: 0
   }
   param {
      lr_mult: 0
   }
   param {
      lr_mult: 0
   }
   batch_norm_param {
      use_global_stats: true
   }
}

layer {
   name: "scale1_1_3"
   type: "Scale"
   bottom: "conv1_1_3"
   top: "conv1_1_3"
   scale_param {
      bias_term: true
   }
}

layer {
   name: "zero_conv1_1"
   type: "Convolution"
   bottom: "max1"
   top: "zero_conv1_1"
   param {
      lr_mult: 0
      decay_mult: 0
   }
   convolution_param {
      num_output: 212
      bias_term: false
      pad: 0
      kernel_size: 1
      stride: 1
      weight_filler {
         type: "constant"
         value: 0.0
      }
   }
}

layer {
   name: "zero1_1"
   type: "Concat"
   bottom: "max1"
   bottom: "zero_conv1_1"
   top: "zero1_1"
   concat_param {
      axis: 1
   }
}

layer {
   name: "res1_1"
   type: "Eltwise"
   bottom: "zero1_1"
   bottom: "conv1_1_3"
   top: "res1_1"
   eltwise_param {
      operation: SUM 
   }
}

layer {
   name: "bn1_2"
   type: "BatchNorm"
   bottom: "res1_1"
   top: "bn1_2"
   param {
      lr_mult: 0
   }
   param {
      lr_mult: 0
   }
   param {
      lr_mult: 0
   }
   batch_norm_param {
      use_global_stats: true
   }
}

layer {
   name: "scale1_2"
   type: "Scale"
   bottom: "bn1_2"
   top: "bn1_2"
   scale_param {
      bias_term: true
   }
}

layer {
   name: "conv1_2_1"
   type: "Convolution"
   bottom: "bn1_2"
   top: "conv1_2_1"
   param {
      lr_mult: 1
      decay_mult: 1
   }
   convolution_param {
      num_output: 73
      bias_term: false
      pad: 0
      kernel_size: 1
      stride: 1
      weight_filler {
         type: "msra"
      }
   }
}

layer {
   name: "bn1_2_1"
   type: "BatchNorm"
   bottom: "conv1_2_1"
   top: "conv1_2_1"
   param {
      lr_mult: 0
   }
   param {
      lr_mult: 0
   }
   param {
      lr_mult: 0
   }
   batch_norm_param {
      use_global_stats: true
   }
}

layer {
   name: "scale1_2_1"
   type: "Scale"
   bottom: "conv1_2_1"
   top: "conv1_2_1"
   scale_param {
      bias_term: true
   }
}

layer {
   name: "relu1_2_1"
   type: "ReLU"
   bottom: "conv1_2_1"
   top: "conv1_2_1"
}

layer {
   name: "conv1_2_2"
   type: "Convolution"
   bottom: "conv1_2_1"
   top: "conv1_2_2"
   param {
      lr_mult: 1
      decay_mult: 1
   }
   convolution_param {
      num_output: 73
      bias_term: false
      pad: 1
      kernel_size: 3
      stride: 1
      weight_filler {
         type: "msra"
      }
   }
}

layer {
   name: "bn1_2_2"
   type: "BatchNorm"
   bottom: "conv1_2_2"
   top: "conv1_2_2"
   param {
      lr_mult: 0
   }
   param {
      lr_mult: 0
   }
   param {
      lr_mult: 0
   }
   batch_norm_param {
      use_global_stats: true
   }
}

layer {
   name: "scale1_2_2"
   type: "Scale"
   bottom: "conv1_2_2"
   top: "conv1_2_2"
   scale_param {
      bias_term: true
   }
}

layer {
   name: "relu1_2_2"
   type: "ReLU"
   bottom: "conv1_2_2"
   top: "conv1_2_2"
}

layer {
   name: "conv1_2_3"
   type: "Convolution"
   bottom: "conv1_2_2"
   top: "conv1_2_3"
   param {
      lr_mult: 1
      decay_mult: 1
   }
   convolution_param {
      num_output: 292
      bias_term: false
      pad: 0
      kernel_size: 1
      stride: 1
      weight_filler {
         type: "msra"
      }
   }
}

layer {
   name: "bn1_2_3"
   type: "BatchNorm"
   bottom: "conv1_2_3"
   top: "conv1_2_3"
   param {
      lr_mult: 0
   }
   param {
      lr_mult: 0
   }
   param {
      lr_mult: 0
   }
   batch_norm_param {
      use_global_stats: true
   }
}

layer {
   name: "scale1_2_3"
   type: "Scale"
   bottom: "conv1_2_3"
   top: "conv1_2_3"
   scale_param {
      bias_term: true
   }
}

layer {
   name: "zero_conv1_2"
   type: "Convolution"
   bottom: "res1_1"
   top: "zero_conv1_2"
   param {
      lr_mult: 0
      decay_mult: 0
   }
   convolution_param {
      num_output: 16
      bias_term: false
      pad: 0
      kernel_size: 1
      stride: 1
      weight_filler {
         type: "constant"
         value: 0.0
      }
   }
}

layer {
   name: "zero1_2"
   type: "Concat"
   bottom: "res1_1"
   bottom: "zero_conv1_2"
   top: "zero1_2"
   concat_param {
      axis: 1
   }
}

layer {
   name: "res1_2"
   type: "Eltwise"
   bottom: "zero1_2"
   bottom: "conv1_2_3"
   top: "res1_2"
   eltwise_param {
      operation: SUM 
   }
}

layer {
   name: "bn1_3"
   type: "BatchNorm"
   bottom: "res1_2"
   top: "bn1_3"
   param {
      lr_mult: 0
   }
   param {
      lr_mult: 0
   }
   param {
      lr_mult: 0
   }
   batch_norm_param {
      use_global_stats: true
   }
}

layer {
   name: "scale1_3"
   type: "Scale"
   bottom: "bn1_3"
   top: "bn1_3"
   scale_param {
      bias_term: true
   }
}

layer {
   name: "conv1_3_1"
   type: "Convolution"
   bottom: "bn1_3"
   top: "conv1_3_1"
   param {
      lr_mult: 1
      decay_mult: 1
   }
   convolution_param {
      num_output: 78
      bias_term: false
      pad: 0
      kernel_size: 1
      stride: 1
      weight_filler {
         type: "msra"
      }
   }
}

layer {
   name: "bn1_3_1"
   type: "BatchNorm"
   bottom: "conv1_3_1"
   top: "conv1_3_1"
   param {
      lr_mult: 0
   }
   param {
      lr_mult: 0
   }
   param {
      lr_mult: 0
   }
   batch_norm_param {
      use_global_stats: true
   }
}

layer {
   name: "scale1_3_1"
   type: "Scale"
   bottom: "conv1_3_1"
   top: "conv1_3_1"
   scale_param {
      bias_term: true
   }
}

layer {
   name: "relu1_3_1"
   type: "ReLU"
   bottom: "conv1_3_1"
   top: "conv1_3_1"
}

layer {
   name: "conv1_3_2"
   type: "Convolution"
   bottom: "conv1_3_1"
   top: "conv1_3_2"
   param {
      lr_mult: 1
      decay_mult: 1
   }
   convolution_param {
      num_output: 78
      bias_term: false
      pad: 1
      kernel_size: 3
      stride: 1
      weight_filler {
         type: "msra"
      }
   }
}

layer {
   name: "bn1_3_2"
   type: "BatchNorm"
   bottom: "conv1_3_2"
   top: "conv1_3_2"
   param {
      lr_mult: 0
   }
   param {
      lr_mult: 0
   }
   param {
      lr_mult: 0
   }
   batch_norm_param {
      use_global_stats: true
   }
}

layer {
   name: "scale1_3_2"
   type: "Scale"
   bottom: "conv1_3_2"
   top: "conv1_3_2"
   scale_param {
      bias_term: true
   }
}

layer {
   name: "relu1_3_2"
   type: "ReLU"
   bottom: "conv1_3_2"
   top: "conv1_3_2"
}

layer {
   name: "conv1_3_3"
   type: "Convolution"
   bottom: "conv1_3_2"
   top: "conv1_3_3"
   param {
      lr_mult: 1
      decay_mult: 1
   }
   convolution_param {
      num_output: 312
      bias_term: false
      pad: 0
      kernel_size: 1
      stride: 1
      weight_filler {
         type: "msra"
      }
   }
}

layer {
   name: "bn1_3_3"
   type: "BatchNorm"
   bottom: "conv1_3_3"
   top: "conv1_3_3"
   param {
      lr_mult: 0
   }
   param {
      lr_mult: 0
   }
   param {
      lr_mult: 0
   }
   batch_norm_param {
      use_global_stats: true
   }
}

layer {
   name: "scale1_3_3"
   type: "Scale"
   bottom: "conv1_3_3"
   top: "conv1_3_3"
   scale_param {
      bias_term: true
   }
}

layer {
   name: "zero_conv1_3"
   type: "Convolution"
   bottom: "res1_2"
   top: "zero_conv1_3"
   param {
      lr_mult: 0
      decay_mult: 0
   }
   convolution_param {
      num_output: 20
      bias_term: false
      pad: 0
      kernel_size: 1
      stride: 1
      weight_filler {
         type: "constant"
         value: 0.0
      }
   }
}

layer {
   name: "zero1_3"
   type: "Concat"
   bottom: "res1_2"
   bottom: "zero_conv1_3"
   top: "zero1_3"
   concat_param {
      axis: 1
   }
}

layer {
   name: "res1_3"
   type: "Eltwise"
   bottom: "zero1_3"
   bottom: "conv1_3_3"
   top: "res1_3"
   eltwise_param {
      operation: SUM 
   }
}

layer {
   name: "bn2_1"
   type: "BatchNorm"
   bottom: "res1_3"
   top: "bn2_1"
   param {
      lr_mult: 0
   }
   param {
      lr_mult: 0
   }
   param {
      lr_mult: 0
   }
   batch_norm_param {
      use_global_stats: true
   }
}

layer {
   name: "scale2_1"
   type: "Scale"
   bottom: "bn2_1"
   top: "bn2_1"
   scale_param {
      bias_term: true
   }
}

layer {
   name: "conv2_1_1"
   type: "Convolution"
   bottom: "bn2_1"
   top: "conv2_1_1"
   param {
      lr_mult: 1
      decay_mult: 1
   }
   convolution_param {
      num_output: 82
      bias_term: false
      pad: 0
      kernel_size: 1
      stride: 1
      weight_filler {
         type: "msra"
      }
   }
}

layer {
   name: "bn2_1_1"
   type: "BatchNorm"
   bottom: "conv2_1_1"
   top: "conv2_1_1"
   param {
      lr_mult: 0
   }
   param {
      lr_mult: 0
   }
   param {
      lr_mult: 0
   }
   batch_norm_param {
      use_global_stats: true
   }
}

layer {
   name: "scale2_1_1"
   type: "Scale"
   bottom: "conv2_1_1"
   top: "conv2_1_1"
   scale_param {
      bias_term: true
   }
}

layer {
   name: "relu2_1_1"
   type: "ReLU"
   bottom: "conv2_1_1"
   top: "conv2_1_1"
}

layer {
   name: "conv2_1_2"
   type: "Convolution"
   bottom: "conv2_1_1"
   top: "conv2_1_2"
   param {
      lr_mult: 1
      decay_mult: 1
   }
   convolution_param {
      num_output: 82
      bias_term: false
      pad: 1
      kernel_size: 3
      stride: 2
      weight_filler {
         type: "msra"
      }
   }
}

layer {
   name: "bn2_1_2"
   type: "BatchNorm"
   bottom: "conv2_1_2"
   top: "conv2_1_2"
   param {
      lr_mult: 0
   }
   param {
      lr_mult: 0
   }
   param {
      lr_mult: 0
   }
   batch_norm_param {
      use_global_stats: true
   }
}

layer {
   name: "scale2_1_2"
   type: "Scale"
   bottom: "conv2_1_2"
   top: "conv2_1_2"
   scale_param {
      bias_term: true
   }
}

layer {
   name: "relu2_1_2"
   type: "ReLU"
   bottom: "conv2_1_2"
   top: "conv2_1_2"
}

layer {
   name: "conv2_1_3"
   type: "Convolution"
   bottom: "conv2_1_2"
   top: "conv2_1_3"
   param {
      lr_mult: 1
      decay_mult: 1
   }
   convolution_param {
      num_output: 328
      bias_term: false
      pad: 0
      kernel_size: 1
      stride: 1
      weight_filler {
         type: "msra"
      }
   }
}

layer {
   name: "bn2_1_3"
   type: "BatchNorm"
   bottom: "conv2_1_3"
   top: "conv2_1_3"
   param {
      lr_mult: 0
   }
   param {
      lr_mult: 0
   }
   param {
      lr_mult: 0
   }
   batch_norm_param {
      use_global_stats: true
   }
}

layer {
   name: "scale2_1_3"
   type: "Scale"
   bottom: "conv2_1_3"
   top: "conv2_1_3"
   scale_param {
      bias_term: true
   }
}

layer {
   name: "pool2"
   type: "Pooling"
   bottom: "res1_3"
   top: "pool2"
   pooling_param {
      pool: AVE
      kernel_size: 2
      stride: 2
   }}

layer {
   name: "zero_conv2_1"
   type: "Convolution"
   bottom: "pool2"
   top: "zero_conv2_1"
   param {
      lr_mult: 0
      decay_mult: 0
   }
   convolution_param {
      num_output: 16
      bias_term: false
      pad: 0
      kernel_size: 1
      stride: 1
      weight_filler {
         type: "constant"
         value: 0.0
      }
   }
}

layer {
   name: "zero2_1"
   type: "Concat"
   bottom: "pool2"
   bottom: "zero_conv2_1"
   top: "zero2_1"
   concat_param {
      axis: 1
   }
}

layer {
   name: "res2_1"
   type: "Eltwise"
   bottom: "zero2_1"
   bottom: "conv2_1_3"
   top: "res2_1"
   eltwise_param {
      operation: SUM 
   }
}

layer {
   name: "bn2_2"
   type: "BatchNorm"
   bottom: "res2_1"
   top: "bn2_2"
   param {
      lr_mult: 0
   }
   param {
      lr_mult: 0
   }
   param {
      lr_mult: 0
   }
   batch_norm_param {
      use_global_stats: true
   }
}

layer {
   name: "scale2_2"
   type: "Scale"
   bottom: "bn2_2"
   top: "bn2_2"
   scale_param {
      bias_term: true
   }
}

layer {
   name: "conv2_2_1"
   type: "Convolution"
   bottom: "bn2_2"
   top: "conv2_2_1"
   param {
      lr_mult: 1
      decay_mult: 1
   }
   convolution_param {
      num_output: 87
      bias_term: false
      pad: 0
      kernel_size: 1
      stride: 1
      weight_filler {
         type: "msra"
      }
   }
}

layer {
   name: "bn2_2_1"
   type: "BatchNorm"
   bottom: "conv2_2_1"
   top: "conv2_2_1"
   param {
      lr_mult: 0
   }
   param {
      lr_mult: 0
   }
   param {
      lr_mult: 0
   }
   batch_norm_param {
      use_global_stats: true
   }
}

layer {
   name: "scale2_2_1"
   type: "Scale"
   bottom: "conv2_2_1"
   top: "conv2_2_1"
   scale_param {
      bias_term: true
   }
}

layer {
   name: "relu2_2_1"
   type: "ReLU"
   bottom: "conv2_2_1"
   top: "conv2_2_1"
}

layer {
   name: "conv2_2_2"
   type: "Convolution"
   bottom: "conv2_2_1"
   top: "conv2_2_2"
   param {
      lr_mult: 1
      decay_mult: 1
   }
   convolution_param {
      num_output: 87
      bias_term: false
      pad: 1
      kernel_size: 3
      stride: 1
      weight_filler {
         type: "msra"
      }
   }
}

layer {
   name: "bn2_2_2"
   type: "BatchNorm"
   bottom: "conv2_2_2"
   top: "conv2_2_2"
   param {
      lr_mult: 0
   }
   param {
      lr_mult: 0
   }
   param {
      lr_mult: 0
   }
   batch_norm_param {
      use_global_stats: true
   }
}

layer {
   name: "scale2_2_2"
   type: "Scale"
   bottom: "conv2_2_2"
   top: "conv2_2_2"
   scale_param {
      bias_term: true
   }
}

layer {
   name: "relu2_2_2"
   type: "ReLU"
   bottom: "conv2_2_2"
   top: "conv2_2_2"
}

layer {
   name: "conv2_2_3"
   type: "Convolution"
   bottom: "conv2_2_2"
   top: "conv2_2_3"
   param {
      lr_mult: 1
      decay_mult: 1
   }
   convolution_param {
      num_output: 348
      bias_term: false
      pad: 0
      kernel_size: 1
      stride: 1
      weight_filler {
         type: "msra"
      }
   }
}

layer {
   name: "bn2_2_3"
   type: "BatchNorm"
   bottom: "conv2_2_3"
   top: "conv2_2_3"
   param {
      lr_mult: 0
   }
   param {
      lr_mult: 0
   }
   param {
      lr_mult: 0
   }
   batch_norm_param {
      use_global_stats: true
   }
}

layer {
   name: "scale2_2_3"
   type: "Scale"
   bottom: "conv2_2_3"
   top: "conv2_2_3"
   scale_param {
      bias_term: true
   }
}

layer {
   name: "zero_conv2_2"
   type: "Convolution"
   bottom: "res2_1"
   top: "zero_conv2_2"
   param {
      lr_mult: 0
      decay_mult: 0
   }
   convolution_param {
      num_output: 20
      bias_term: false
      pad: 0
      kernel_size: 1
      stride: 1
      weight_filler {
         type: "constant"
         value: 0.0
      }
   }
}

layer {
   name: "zero2_2"
   type: "Concat"
   bottom: "res2_1"
   bottom: "zero_conv2_2"
   top: "zero2_2"
   concat_param {
      axis: 1
   }
}

layer {
   name: "res2_2"
   type: "Eltwise"
   bottom: "zero2_2"
   bottom: "conv2_2_3"
   top: "res2_2"
   eltwise_param {
      operation: SUM 
   }
}

layer {
   name: "bn2_3"
   type: "BatchNorm"
   bottom: "res2_2"
   top: "bn2_3"
   param {
      lr_mult: 0
   }
   param {
      lr_mult: 0
   }
   param {
      lr_mult: 0
   }
   batch_norm_param {
      use_global_stats: true
   }
}

layer {
   name: "scale2_3"
   type: "Scale"
   bottom: "bn2_3"
   top: "bn2_3"
   scale_param {
      bias_term: true
   }
}

layer {
   name: "conv2_3_1"
   type: "Convolution"
   bottom: "bn2_3"
   top: "conv2_3_1"
   param {
      lr_mult: 1
      decay_mult: 1
   }
   convolution_param {
      num_output: 91
      bias_term: false
      pad: 0
      kernel_size: 1
      stride: 1
      weight_filler {
         type: "msra"
      }
   }
}

layer {
   name: "bn2_3_1"
   type: "BatchNorm"
   bottom: "conv2_3_1"
   top: "conv2_3_1"
   param {
      lr_mult: 0
   }
   param {
      lr_mult: 0
   }
   param {
      lr_mult: 0
   }
   batch_norm_param {
      use_global_stats: true
   }
}

layer {
   name: "scale2_3_1"
   type: "Scale"
   bottom: "conv2_3_1"
   top: "conv2_3_1"
   scale_param {
      bias_term: true
   }
}

layer {
   name: "relu2_3_1"
   type: "ReLU"
   bottom: "conv2_3_1"
   top: "conv2_3_1"
}

layer {
   name: "conv2_3_2"
   type: "Convolution"
   bottom: "conv2_3_1"
   top: "conv2_3_2"
   param {
      lr_mult: 1
      decay_mult: 1
   }
   convolution_param {
      num_output: 91
      bias_term: false
      pad: 1
      kernel_size: 3
      stride: 1
      weight_filler {
         type: "msra"
      }
   }
}

layer {
   name: "bn2_3_2"
   type: "BatchNorm"
   bottom: "conv2_3_2"
   top: "conv2_3_2"
   param {
      lr_mult: 0
   }
   param {
      lr_mult: 0
   }
   param {
      lr_mult: 0
   }
   batch_norm_param {
      use_global_stats: true
   }
}

layer {
   name: "scale2_3_2"
   type: "Scale"
   bottom: "conv2_3_2"
   top: "conv2_3_2"
   scale_param {
      bias_term: true
   }
}

layer {
   name: "relu2_3_2"
   type: "ReLU"
   bottom: "conv2_3_2"
   top: "conv2_3_2"
}

layer {
   name: "conv2_3_3"
   type: "Convolution"
   bottom: "conv2_3_2"
   top: "conv2_3_3"
   param {
      lr_mult: 1
      decay_mult: 1
   }
   convolution_param {
      num_output: 364
      bias_term: false
      pad: 0
      kernel_size: 1
      stride: 1
      weight_filler {
         type: "msra"
      }
   }
}

layer {
   name: "bn2_3_3"
   type: "BatchNorm"
   bottom: "conv2_3_3"
   top: "conv2_3_3"
   param {
      lr_mult: 0
   }
   param {
      lr_mult: 0
   }
   param {
      lr_mult: 0
   }
   batch_norm_param {
      use_global_stats: true
   }
}

layer {
   name: "scale2_3_3"
   type: "Scale"
   bottom: "conv2_3_3"
   top: "conv2_3_3"
   scale_param {
      bias_term: true
   }
}

layer {
   name: "zero_conv2_3"
   type: "Convolution"
   bottom: "res2_2"
   top: "zero_conv2_3"
   param {
      lr_mult: 0
      decay_mult: 0
   }
   convolution_param {
      num_output: 16
      bias_term: false
      pad: 0
      kernel_size: 1
      stride: 1
      weight_filler {
         type: "constant"
         value: 0.0
      }
   }
}

layer {
   name: "zero2_3"
   type: "Concat"
   bottom: "res2_2"
   bottom: "zero_conv2_3"
   top: "zero2_3"
   concat_param {
      axis: 1
   }
}

layer {
   name: "res2_3"
   type: "Eltwise"
   bottom: "zero2_3"
   bottom: "conv2_3_3"
   top: "res2_3"
   eltwise_param {
      operation: SUM 
   }
}

layer {
   name: "bn2_4"
   type: "BatchNorm"
   bottom: "res2_3"
   top: "bn2_4"
   param {
      lr_mult: 0
   }
   param {
      lr_mult: 0
   }
   param {
      lr_mult: 0
   }
   batch_norm_param {
      use_global_stats: true
   }
}

layer {
   name: "scale2_4"
   type: "Scale"
   bottom: "bn2_4"
   top: "bn2_4"
   scale_param {
      bias_term: true
   }
}

layer {
   name: "conv2_4_1"
   type: "Convolution"
   bottom: "bn2_4"
   top: "conv2_4_1"
   param {
      lr_mult: 1
      decay_mult: 1
   }
   convolution_param {
      num_output: 96
      bias_term: false
      pad: 0
      kernel_size: 1
      stride: 1
      weight_filler {
         type: "msra"
      }
   }
}

layer {
   name: "bn2_4_1"
   type: "BatchNorm"
   bottom: "conv2_4_1"
   top: "conv2_4_1"
   param {
      lr_mult: 0
   }
   param {
      lr_mult: 0
   }
   param {
      lr_mult: 0
   }
   batch_norm_param {
      use_global_stats: true
   }
}

layer {
   name: "scale2_4_1"
   type: "Scale"
   bottom: "conv2_4_1"
   top: "conv2_4_1"
   scale_param {
      bias_term: true
   }
}

layer {
   name: "relu2_4_1"
   type: "ReLU"
   bottom: "conv2_4_1"
   top: "conv2_4_1"
}

layer {
   name: "conv2_4_2"
   type: "Convolution"
   bottom: "conv2_4_1"
   top: "conv2_4_2"
   param {
      lr_mult: 1
      decay_mult: 1
   }
   convolution_param {
      num_output: 96
      bias_term: false
      pad: 1
      kernel_size: 3
      stride: 1
      weight_filler {
         type: "msra"
      }
   }
}

layer {
   name: "bn2_4_2"
   type: "BatchNorm"
   bottom: "conv2_4_2"
   top: "conv2_4_2"
   param {
      lr_mult: 0
   }
   param {
      lr_mult: 0
   }
   param {
      lr_mult: 0
   }
   batch_norm_param {
      use_global_stats: true
   }
}

layer {
   name: "scale2_4_2"
   type: "Scale"
   bottom: "conv2_4_2"
   top: "conv2_4_2"
   scale_param {
      bias_term: true
   }
}

layer {
   name: "relu2_4_2"
   type: "ReLU"
   bottom: "conv2_4_2"
   top: "conv2_4_2"
}

layer {
   name: "conv2_4_3"
   type: "Convolution"
   bottom: "conv2_4_2"
   top: "conv2_4_3"
   param {
      lr_mult: 1
      decay_mult: 1
   }
   convolution_param {
      num_output: 384
      bias_term: false
      pad: 0
      kernel_size: 1
      stride: 1
      weight_filler {
         type: "msra"
      }
   }
}

layer {
   name: "bn2_4_3"
   type: "BatchNorm"
   bottom: "conv2_4_3"
   top: "conv2_4_3"
   param {
      lr_mult: 0
   }
   param {
      lr_mult: 0
   }
   param {
      lr_mult: 0
   }
   batch_norm_param {
      use_global_stats: true
   }
}

layer {
   name: "scale2_4_3"
   type: "Scale"
   bottom: "conv2_4_3"
   top: "conv2_4_3"
   scale_param {
      bias_term: true
   }
}

layer {
   name: "zero_conv2_4"
   type: "Convolution"
   bottom: "res2_3"
   top: "zero_conv2_4"
   param {
      lr_mult: 0
      decay_mult: 0
   }
   convolution_param {
      num_output: 20
      bias_term: false
      pad: 0
      kernel_size: 1
      stride: 1
      weight_filler {
         type: "constant"
         value: 0.0
      }
   }
}

layer {
   name: "zero2_4"
   type: "Concat"
   bottom: "res2_3"
   bottom: "zero_conv2_4"
   top: "zero2_4"
   concat_param {
      axis: 1
   }
}

layer {
   name: "res2_4"
   type: "Eltwise"
   bottom: "zero2_4"
   bottom: "conv2_4_3"
   top: "res2_4"
   eltwise_param {
      operation: SUM 
   }
}

layer {
   name: "bn2_5"
   type: "BatchNorm"
   bottom: "res2_4"
   top: "bn2_5"
   param {
      lr_mult: 0
   }
   param {
      lr_mult: 0
   }
   param {
      lr_mult: 0
   }
   batch_norm_param {
      use_global_stats: true
   }
}

layer {
   name: "scale2_5"
   type: "Scale"
   bottom: "bn2_5"
   top: "bn2_5"
   scale_param {
      bias_term: true
   }
}

layer {
   name: "conv2_5_1"
   type: "Convolution"
   bottom: "bn2_5"
   top: "conv2_5_1"
   param {
      lr_mult: 1
      decay_mult: 1
   }
   convolution_param {
      num_output: 100
      bias_term: false
      pad: 0
      kernel_size: 1
      stride: 1
      weight_filler {
         type: "msra"
      }
   }
}

layer {
   name: "bn2_5_1"
   type: "BatchNorm"
   bottom: "conv2_5_1"
   top: "conv2_5_1"
   param {
      lr_mult: 0
   }
   param {
      lr_mult: 0
   }
   param {
      lr_mult: 0
   }
   batch_norm_param {
      use_global_stats: true
   }
}

layer {
   name: "scale2_5_1"
   type: "Scale"
   bottom: "conv2_5_1"
   top: "conv2_5_1"
   scale_param {
      bias_term: true
   }
}

layer {
   name: "relu2_5_1"
   type: "ReLU"
   bottom: "conv2_5_1"
   top: "conv2_5_1"
}

layer {
   name: "conv2_5_2"
   type: "Convolution"
   bottom: "conv2_5_1"
   top: "conv2_5_2"
   param {
      lr_mult: 1
      decay_mult: 1
   }
   convolution_param {
      num_output: 100
      bias_term: false
      pad: 1
      kernel_size: 3
      stride: 1
      weight_filler {
         type: "msra"
      }
   }
}

layer {
   name: "bn2_5_2"
   type: "BatchNorm"
   bottom: "conv2_5_2"
   top: "conv2_5_2"
   param {
      lr_mult: 0
   }
   param {
      lr_mult: 0
   }
   param {
      lr_mult: 0
   }
   batch_norm_param {
      use_global_stats: true
   }
}

layer {
   name: "scale2_5_2"
   type: "Scale"
   bottom: "conv2_5_2"
   top: "conv2_5_2"
   scale_param {
      bias_term: true
   }
}

layer {
   name: "relu2_5_2"
   type: "ReLU"
   bottom: "conv2_5_2"
   top: "conv2_5_2"
}

layer {
   name: "conv2_5_3"
   type: "Convolution"
   bottom: "conv2_5_2"
   top: "conv2_5_3"
   param {
      lr_mult: 1
      decay_mult: 1
   }
   convolution_param {
      num_output: 400
      bias_term: false
      pad: 0
      kernel_size: 1
      stride: 1
      weight_filler {
         type: "msra"
      }
   }
}

layer {
   name: "bn2_5_3"
   type: "BatchNorm"
   bottom: "conv2_5_3"
   top: "conv2_5_3"
   param {
      lr_mult: 0
   }
   param {
      lr_mult: 0
   }
   param {
      lr_mult: 0
   }
   batch_norm_param {
      use_global_stats: true
   }
}

layer {
   name: "scale2_5_3"
   type: "Scale"
   bottom: "conv2_5_3"
   top: "conv2_5_3"
   scale_param {
      bias_term: true
   }
}

layer {
   name: "zero_conv2_5"
   type: "Convolution"
   bottom: "res2_4"
   top: "zero_conv2_5"
   param {
      lr_mult: 0
      decay_mult: 0
   }
   convolution_param {
      num_output: 16
      bias_term: false
      pad: 0
      kernel_size: 1
      stride: 1
      weight_filler {
         type: "constant"
         value: 0.0
      }
   }
}

layer {
   name: "zero2_5"
   type: "Concat"
   bottom: "res2_4"
   bottom: "zero_conv2_5"
   top: "zero2_5"
   concat_param {
      axis: 1
   }
}

layer {
   name: "res2_5"
   type: "Eltwise"
   bottom: "zero2_5"
   bottom: "conv2_5_3"
   top: "res2_5"
   eltwise_param {
      operation: SUM 
   }
}

layer {
   name: "bn2_6"
   type: "BatchNorm"
   bottom: "res2_5"
   top: "bn2_6"
   param {
      lr_mult: 0
   }
   param {
      lr_mult: 0
   }
   param {
      lr_mult: 0
   }
   batch_norm_param {
      use_global_stats: true
   }
}

layer {
   name: "scale2_6"
   type: "Scale"
   bottom: "bn2_6"
   top: "bn2_6"
   scale_param {
      bias_term: true
   }
}

layer {
   name: "conv2_6_1"
   type: "Convolution"
   bottom: "bn2_6"
   top: "conv2_6_1"
   param {
      lr_mult: 1
      decay_mult: 1
   }
   convolution_param {
      num_output: 105
      bias_term: false
      pad: 0
      kernel_size: 1
      stride: 1
      weight_filler {
         type: "msra"
      }
   }
}

layer {
   name: "bn2_6_1"
   type: "BatchNorm"
   bottom: "conv2_6_1"
   top: "conv2_6_1"
   param {
      lr_mult: 0
   }
   param {
      lr_mult: 0
   }
   param {
      lr_mult: 0
   }
   batch_norm_param {
      use_global_stats: true
   }
}

layer {
   name: "scale2_6_1"
   type: "Scale"
   bottom: "conv2_6_1"
   top: "conv2_6_1"
   scale_param {
      bias_term: true
   }
}

layer {
   name: "relu2_6_1"
   type: "ReLU"
   bottom: "conv2_6_1"
   top: "conv2_6_1"
}

layer {
   name: "conv2_6_2"
   type: "Convolution"
   bottom: "conv2_6_1"
   top: "conv2_6_2"
   param {
      lr_mult: 1
      decay_mult: 1
   }
   convolution_param {
      num_output: 105
      bias_term: false
      pad: 1
      kernel_size: 3
      stride: 1
      weight_filler {
         type: "msra"
      }
   }
}

layer {
   name: "bn2_6_2"
   type: "BatchNorm"
   bottom: "conv2_6_2"
   top: "conv2_6_2"
   param {
      lr_mult: 0
   }
   param {
      lr_mult: 0
   }
   param {
      lr_mult: 0
   }
   batch_norm_param {
      use_global_stats: true
   }
}

layer {
   name: "scale2_6_2"
   type: "Scale"
   bottom: "conv2_6_2"
   top: "conv2_6_2"
   scale_param {
      bias_term: true
   }
}

layer {
   name: "relu2_6_2"
   type: "ReLU"
   bottom: "conv2_6_2"
   top: "conv2_6_2"
}

layer {
   name: "conv2_6_3"
   type: "Convolution"
   bottom: "conv2_6_2"
   top: "conv2_6_3"
   param {
      lr_mult: 1
      decay_mult: 1
   }
   convolution_param {
      num_output: 420
      bias_term: false
      pad: 0
      kernel_size: 1
      stride: 1
      weight_filler {
         type: "msra"
      }
   }
}

layer {
   name: "bn2_6_3"
   type: "BatchNorm"
   bottom: "conv2_6_3"
   top: "conv2_6_3"
   param {
      lr_mult: 0
   }
   param {
      lr_mult: 0
   }
   param {
      lr_mult: 0
   }
   batch_norm_param {
      use_global_stats: true
   }
}

layer {
   name: "scale2_6_3"
   type: "Scale"
   bottom: "conv2_6_3"
   top: "conv2_6_3"
   scale_param {
      bias_term: true
   }
}

layer {
   name: "zero_conv2_6"
   type: "Convolution"
   bottom: "res2_5"
   top: "zero_conv2_6"
   param {
      lr_mult: 0
      decay_mult: 0
   }
   convolution_param {
      num_output: 20
      bias_term: false
      pad: 0
      kernel_size: 1
      stride: 1
      weight_filler {
         type: "constant"
         value: 0.0
      }
   }
}

layer {
   name: "zero2_6"
   type: "Concat"
   bottom: "res2_5"
   bottom: "zero_conv2_6"
   top: "zero2_6"
   concat_param {
      axis: 1
   }
}

layer {
   name: "res2_6"
   type: "Eltwise"
   bottom: "zero2_6"
   bottom: "conv2_6_3"
   top: "res2_6"
   eltwise_param {
      operation: SUM 
   }
}

layer {
   name: "bn2_7"
   type: "BatchNorm"
   bottom: "res2_6"
   top: "bn2_7"
   param {
      lr_mult: 0
   }
   param {
      lr_mult: 0
   }
   param {
      lr_mult: 0
   }
   batch_norm_param {
      use_global_stats: true
   }
}

layer {
   name: "scale2_7"
   type: "Scale"
   bottom: "bn2_7"
   top: "bn2_7"
   scale_param {
      bias_term: true
   }
}

layer {
   name: "conv2_7_1"
   type: "Convolution"
   bottom: "bn2_7"
   top: "conv2_7_1"
   param {
      lr_mult: 1
      decay_mult: 1
   }
   convolution_param {
      num_output: 109
      bias_term: false
      pad: 0
      kernel_size: 1
      stride: 1
      weight_filler {
         type: "msra"
      }
   }
}

layer {
   name: "bn2_7_1"
   type: "BatchNorm"
   bottom: "conv2_7_1"
   top: "conv2_7_1"
   param {
      lr_mult: 0
   }
   param {
      lr_mult: 0
   }
   param {
      lr_mult: 0
   }
   batch_norm_param {
      use_global_stats: true
   }
}

layer {
   name: "scale2_7_1"
   type: "Scale"
   bottom: "conv2_7_1"
   top: "conv2_7_1"
   scale_param {
      bias_term: true
   }
}

layer {
   name: "relu2_7_1"
   type: "ReLU"
   bottom: "conv2_7_1"
   top: "conv2_7_1"
}

layer {
   name: "conv2_7_2"
   type: "Convolution"
   bottom: "conv2_7_1"
   top: "conv2_7_2"
   param {
      lr_mult: 1
      decay_mult: 1
   }
   convolution_param {
      num_output: 109
      bias_term: false
      pad: 1
      kernel_size: 3
      stride: 1
      weight_filler {
         type: "msra"
      }
   }
}

layer {
   name: "bn2_7_2"
   type: "BatchNorm"
   bottom: "conv2_7_2"
   top: "conv2_7_2"
   param {
      lr_mult: 0
   }
   param {
      lr_mult: 0
   }
   param {
      lr_mult: 0
   }
   batch_norm_param {
      use_global_stats: true
   }
}

layer {
   name: "scale2_7_2"
   type: "Scale"
   bottom: "conv2_7_2"
   top: "conv2_7_2"
   scale_param {
      bias_term: true
   }
}

layer {
   name: "relu2_7_2"
   type: "ReLU"
   bottom: "conv2_7_2"
   top: "conv2_7_2"
}

layer {
   name: "conv2_7_3"
   type: "Convolution"
   bottom: "conv2_7_2"
   top: "conv2_7_3"
   param {
      lr_mult: 1
      decay_mult: 1
   }
   convolution_param {
      num_output: 436
      bias_term: false
      pad: 0
      kernel_size: 1
      stride: 1
      weight_filler {
         type: "msra"
      }
   }
}

layer {
   name: "bn2_7_3"
   type: "BatchNorm"
   bottom: "conv2_7_3"
   top: "conv2_7_3"
   param {
      lr_mult: 0
   }
   param {
      lr_mult: 0
   }
   param {
      lr_mult: 0
   }
   batch_norm_param {
      use_global_stats: true
   }
}

layer {
   name: "scale2_7_3"
   type: "Scale"
   bottom: "conv2_7_3"
   top: "conv2_7_3"
   scale_param {
      bias_term: true
   }
}

layer {
   name: "zero_conv2_7"
   type: "Convolution"
   bottom: "res2_6"
   top: "zero_conv2_7"
   param {
      lr_mult: 0
      decay_mult: 0
   }
   convolution_param {
      num_output: 16
      bias_term: false
      pad: 0
      kernel_size: 1
      stride: 1
      weight_filler {
         type: "constant"
         value: 0.0
      }
   }
}

layer {
   name: "zero2_7"
   type: "Concat"
   bottom: "res2_6"
   bottom: "zero_conv2_7"
   top: "zero2_7"
   concat_param {
      axis: 1
   }
}

layer {
   name: "res2_7"
   type: "Eltwise"
   bottom: "zero2_7"
   bottom: "conv2_7_3"
   top: "res2_7"
   eltwise_param {
      operation: SUM 
   }
}

layer {
   name: "bn2_8"
   type: "BatchNorm"
   bottom: "res2_7"
   top: "bn2_8"
   param {
      lr_mult: 0
   }
   param {
      lr_mult: 0
   }
   param {
      lr_mult: 0
   }
   batch_norm_param {
      use_global_stats: true
   }
}

layer {
   name: "scale2_8"
   type: "Scale"
   bottom: "bn2_8"
   top: "bn2_8"
   scale_param {
      bias_term: true
   }
}

layer {
   name: "conv2_8_1"
   type: "Convolution"
   bottom: "bn2_8"
   top: "conv2_8_1"
   param {
      lr_mult: 1
      decay_mult: 1
   }
   convolution_param {
      num_output: 114
      bias_term: false
      pad: 0
      kernel_size: 1
      stride: 1
      weight_filler {
         type: "msra"
      }
   }
}

layer {
   name: "bn2_8_1"
   type: "BatchNorm"
   bottom: "conv2_8_1"
   top: "conv2_8_1"
   param {
      lr_mult: 0
   }
   param {
      lr_mult: 0
   }
   param {
      lr_mult: 0
   }
   batch_norm_param {
      use_global_stats: true
   }
}

layer {
   name: "scale2_8_1"
   type: "Scale"
   bottom: "conv2_8_1"
   top: "conv2_8_1"
   scale_param {
      bias_term: true
   }
}

layer {
   name: "relu2_8_1"
   type: "ReLU"
   bottom: "conv2_8_1"
   top: "conv2_8_1"
}

layer {
   name: "conv2_8_2"
   type: "Convolution"
   bottom: "conv2_8_1"
   top: "conv2_8_2"
   param {
      lr_mult: 1
      decay_mult: 1
   }
   convolution_param {
      num_output: 114
      bias_term: false
      pad: 1
      kernel_size: 3
      stride: 1
      weight_filler {
         type: "msra"
      }
   }
}

layer {
   name: "bn2_8_2"
   type: "BatchNorm"
   bottom: "conv2_8_2"
   top: "conv2_8_2"
   param {
      lr_mult: 0
   }
   param {
      lr_mult: 0
   }
   param {
      lr_mult: 0
   }
   batch_norm_param {
      use_global_stats: true
   }
}

layer {
   name: "scale2_8_2"
   type: "Scale"
   bottom: "conv2_8_2"
   top: "conv2_8_2"
   scale_param {
      bias_term: true
   }
}

layer {
   name: "relu2_8_2"
   type: "ReLU"
   bottom: "conv2_8_2"
   top: "conv2_8_2"
}

layer {
   name: "conv2_8_3"
   type: "Convolution"
   bottom: "conv2_8_2"
   top: "conv2_8_3"
   param {
      lr_mult: 1
      decay_mult: 1
   }
   convolution_param {
      num_output: 456
      bias_term: false
      pad: 0
      kernel_size: 1
      stride: 1
      weight_filler {
         type: "msra"
      }
   }
}

layer {
   name: "bn2_8_3"
   type: "BatchNorm"
   bottom: "conv2_8_3"
   top: "conv2_8_3"
   param {
      lr_mult: 0
   }
   param {
      lr_mult: 0
   }
   param {
      lr_mult: 0
   }
   batch_norm_param {
      use_global_stats: true
   }
}

layer {
   name: "scale2_8_3"
   type: "Scale"
   bottom: "conv2_8_3"
   top: "conv2_8_3"
   scale_param {
      bias_term: true
   }
}

layer {
   name: "zero_conv2_8"
   type: "Convolution"
   bottom: "res2_7"
   top: "zero_conv2_8"
   param {
      lr_mult: 0
      decay_mult: 0
   }
   convolution_param {
      num_output: 20
      bias_term: false
      pad: 0
      kernel_size: 1
      stride: 1
      weight_filler {
         type: "constant"
         value: 0.0
      }
   }
}

layer {
   name: "zero2_8"
   type: "Concat"
   bottom: "res2_7"
   bottom: "zero_conv2_8"
   top: "zero2_8"
   concat_param {
      axis: 1
   }
}

layer {
   name: "res2_8"
   type: "Eltwise"
   bottom: "zero2_8"
   bottom: "conv2_8_3"
   top: "res2_8"
   eltwise_param {
      operation: SUM 
   }
}

layer {
   name: "bn2_9"
   type: "BatchNorm"
   bottom: "res2_8"
   top: "bn2_9"
   param {
      lr_mult: 0
   }
   param {
      lr_mult: 0
   }
   param {
      lr_mult: 0
   }
   batch_norm_param {
      use_global_stats: true
   }
}

layer {
   name: "scale2_9"
   type: "Scale"
   bottom: "bn2_9"
   top: "bn2_9"
   scale_param {
      bias_term: true
   }
}

layer {
   name: "conv2_9_1"
   type: "Convolution"
   bottom: "bn2_9"
   top: "conv2_9_1"
   param {
      lr_mult: 1
      decay_mult: 1
   }
   convolution_param {
      num_output: 119
      bias_term: false
      pad: 0
      kernel_size: 1
      stride: 1
      weight_filler {
         type: "msra"
      }
   }
}

layer {
   name: "bn2_9_1"
   type: "BatchNorm"
   bottom: "conv2_9_1"
   top: "conv2_9_1"
   param {
      lr_mult: 0
   }
   param {
      lr_mult: 0
   }
   param {
      lr_mult: 0
   }
   batch_norm_param {
      use_global_stats: true
   }
}

layer {
   name: "scale2_9_1"
   type: "Scale"
   bottom: "conv2_9_1"
   top: "conv2_9_1"
   scale_param {
      bias_term: true
   }
}

layer {
   name: "relu2_9_1"
   type: "ReLU"
   bottom: "conv2_9_1"
   top: "conv2_9_1"
}

layer {
   name: "conv2_9_2"
   type: "Convolution"
   bottom: "conv2_9_1"
   top: "conv2_9_2"
   param {
      lr_mult: 1
      decay_mult: 1
   }
   convolution_param {
      num_output: 119
      bias_term: false
      pad: 1
      kernel_size: 3
      stride: 1
      weight_filler {
         type: "msra"
      }
   }
}

layer {
   name: "bn2_9_2"
   type: "BatchNorm"
   bottom: "conv2_9_2"
   top: "conv2_9_2"
   param {
      lr_mult: 0
   }
   param {
      lr_mult: 0
   }
   param {
      lr_mult: 0
   }
   batch_norm_param {
      use_global_stats: true
   }
}

layer {
   name: "scale2_9_2"
   type: "Scale"
   bottom: "conv2_9_2"
   top: "conv2_9_2"
   scale_param {
      bias_term: true
   }
}

layer {
   name: "relu2_9_2"
   type: "ReLU"
   bottom: "conv2_9_2"
   top: "conv2_9_2"
}

layer {
   name: "conv2_9_3"
   type: "Convolution"
   bottom: "conv2_9_2"
   top: "conv2_9_3"
   param {
      lr_mult: 1
      decay_mult: 1
   }
   convolution_param {
      num_output: 476
      bias_term: false
      pad: 0
      kernel_size: 1
      stride: 1
      weight_filler {
         type: "msra"
      }
   }
}

layer {
   name: "bn2_9_3"
   type: "BatchNorm"
   bottom: "conv2_9_3"
   top: "conv2_9_3"
   param {
      lr_mult: 0
   }
   param {
      lr_mult: 0
   }
   param {
      lr_mult: 0
   }
   batch_norm_param {
      use_global_stats: true
   }
}

layer {
   name: "scale2_9_3"
   type: "Scale"
   bottom: "conv2_9_3"
   top: "conv2_9_3"
   scale_param {
      bias_term: true
   }
}

layer {
   name: "zero_conv2_9"
   type: "Convolution"
   bottom: "res2_8"
   top: "zero_conv2_9"
   param {
      lr_mult: 0
      decay_mult: 0
   }
   convolution_param {
      num_output: 20
      bias_term: false
      pad: 0
      kernel_size: 1
      stride: 1
      weight_filler {
         type: "constant"
         value: 0.0
      }
   }
}

layer {
   name: "zero2_9"
   type: "Concat"
   bottom: "res2_8"
   bottom: "zero_conv2_9"
   top: "zero2_9"
   concat_param {
      axis: 1
   }
}

layer {
   name: "res2_9"
   type: "Eltwise"
   bottom: "zero2_9"
   bottom: "conv2_9_3"
   top: "res2_9"
   eltwise_param {
      operation: SUM 
   }
}

layer {
   name: "bn2_10"
   type: "BatchNorm"
   bottom: "res2_9"
   top: "bn2_10"
   param {
      lr_mult: 0
   }
   param {
      lr_mult: 0
   }
   param {
      lr_mult: 0
   }
   batch_norm_param {
      use_global_stats: true
   }
}

layer {
   name: "scale2_10"
   type: "Scale"
   bottom: "bn2_10"
   top: "bn2_10"
   scale_param {
      bias_term: true
   }
}

layer {
   name: "conv2_10_1"
   type: "Convolution"
   bottom: "bn2_10"
   top: "conv2_10_1"
   param {
      lr_mult: 1
      decay_mult: 1
   }
   convolution_param {
      num_output: 123
      bias_term: false
      pad: 0
      kernel_size: 1
      stride: 1
      weight_filler {
         type: "msra"
      }
   }
}

layer {
   name: "bn2_10_1"
   type: "BatchNorm"
   bottom: "conv2_10_1"
   top: "conv2_10_1"
   param {
      lr_mult: 0
   }
   param {
      lr_mult: 0
   }
   param {
      lr_mult: 0
   }
   batch_norm_param {
      use_global_stats: true
   }
}

layer {
   name: "scale2_10_1"
   type: "Scale"
   bottom: "conv2_10_1"
   top: "conv2_10_1"
   scale_param {
      bias_term: true
   }
}

layer {
   name: "relu2_10_1"
   type: "ReLU"
   bottom: "conv2_10_1"
   top: "conv2_10_1"
}

layer {
   name: "conv2_10_2"
   type: "Convolution"
   bottom: "conv2_10_1"
   top: "conv2_10_2"
   param {
      lr_mult: 1
      decay_mult: 1
   }
   convolution_param {
      num_output: 123
      bias_term: false
      pad: 1
      kernel_size: 3
      stride: 1
      weight_filler {
         type: "msra"
      }
   }
}

layer {
   name: "bn2_10_2"
   type: "BatchNorm"
   bottom: "conv2_10_2"
   top: "conv2_10_2"
   param {
      lr_mult: 0
   }
   param {
      lr_mult: 0
   }
   param {
      lr_mult: 0
   }
   batch_norm_param {
      use_global_stats: true
   }
}

layer {
   name: "scale2_10_2"
   type: "Scale"
   bottom: "conv2_10_2"
   top: "conv2_10_2"
   scale_param {
      bias_term: true
   }
}

layer {
   name: "relu2_10_2"
   type: "ReLU"
   bottom: "conv2_10_2"
   top: "conv2_10_2"
}

layer {
   name: "conv2_10_3"
   type: "Convolution"
   bottom: "conv2_10_2"
   top: "conv2_10_3"
   param {
      lr_mult: 1
      decay_mult: 1
   }
   convolution_param {
      num_output: 492
      bias_term: false
      pad: 0
      kernel_size: 1
      stride: 1
      weight_filler {
         type: "msra"
      }
   }
}

layer {
   name: "bn2_10_3"
   type: "BatchNorm"
   bottom: "conv2_10_3"
   top: "conv2_10_3"
   param {
      lr_mult: 0
   }
   param {
      lr_mult: 0
   }
   param {
      lr_mult: 0
   }
   batch_norm_param {
      use_global_stats: true
   }
}

layer {
   name: "scale2_10_3"
   type: "Scale"
   bottom: "conv2_10_3"
   top: "conv2_10_3"
   scale_param {
      bias_term: true
   }
}

layer {
   name: "zero_conv2_10"
   type: "Convolution"
   bottom: "res2_9"
   top: "zero_conv2_10"
   param {
      lr_mult: 0
      decay_mult: 0
   }
   convolution_param {
      num_output: 16
      bias_term: false
      pad: 0
      kernel_size: 1
      stride: 1
      weight_filler {
         type: "constant"
         value: 0.0
      }
   }
}

layer {
   name: "zero2_10"
   type: "Concat"
   bottom: "res2_9"
   bottom: "zero_conv2_10"
   top: "zero2_10"
   concat_param {
      axis: 1
   }
}

layer {
   name: "res2_10"
   type: "Eltwise"
   bottom: "zero2_10"
   bottom: "conv2_10_3"
   top: "res2_10"
   eltwise_param {
      operation: SUM 
   }
}

layer {
   name: "bn2_11"
   type: "BatchNorm"
   bottom: "res2_10"
   top: "bn2_11"
   param {
      lr_mult: 0
   }
   param {
      lr_mult: 0
   }
   param {
      lr_mult: 0
   }
   batch_norm_param {
      use_global_stats: true
   }
}

layer {
   name: "scale2_11"
   type: "Scale"
   bottom: "bn2_11"
   top: "bn2_11"
   scale_param {
      bias_term: true
   }
}

layer {
   name: "conv2_11_1"
   type: "Convolution"
   bottom: "bn2_11"
   top: "conv2_11_1"
   param {
      lr_mult: 1
      decay_mult: 1
   }
   convolution_param {
      num_output: 128
      bias_term: false
      pad: 0
      kernel_size: 1
      stride: 1
      weight_filler {
         type: "msra"
      }
   }
}

layer {
   name: "bn2_11_1"
   type: "BatchNorm"
   bottom: "conv2_11_1"
   top: "conv2_11_1"
   param {
      lr_mult: 0
   }
   param {
      lr_mult: 0
   }
   param {
      lr_mult: 0
   }
   batch_norm_param {
      use_global_stats: true
   }
}

layer {
   name: "scale2_11_1"
   type: "Scale"
   bottom: "conv2_11_1"
   top: "conv2_11_1"
   scale_param {
      bias_term: true
   }
}

layer {
   name: "relu2_11_1"
   type: "ReLU"
   bottom: "conv2_11_1"
   top: "conv2_11_1"
}

layer {
   name: "conv2_11_2"
   type: "Convolution"
   bottom: "conv2_11_1"
   top: "conv2_11_2"
   param {
      lr_mult: 1
      decay_mult: 1
   }
   convolution_param {
      num_output: 128
      bias_term: false
      pad: 1
      kernel_size: 3
      stride: 1
      weight_filler {
         type: "msra"
      }
   }
}

layer {
   name: "bn2_11_2"
   type: "BatchNorm"
   bottom: "conv2_11_2"
   top: "conv2_11_2"
   param {
      lr_mult: 0
   }
   param {
      lr_mult: 0
   }
   param {
      lr_mult: 0
   }
   batch_norm_param {
      use_global_stats: true
   }
}

layer {
   name: "scale2_11_2"
   type: "Scale"
   bottom: "conv2_11_2"
   top: "conv2_11_2"
   scale_param {
      bias_term: true
   }
}

layer {
   name: "relu2_11_2"
   type: "ReLU"
   bottom: "conv2_11_2"
   top: "conv2_11_2"
}

layer {
   name: "conv2_11_3"
   type: "Convolution"
   bottom: "conv2_11_2"
   top: "conv2_11_3"
   param {
      lr_mult: 1
      decay_mult: 1
   }
   convolution_param {
      num_output: 512
      bias_term: false
      pad: 0
      kernel_size: 1
      stride: 1
      weight_filler {
         type: "msra"
      }
   }
}

layer {
   name: "bn2_11_3"
   type: "BatchNorm"
   bottom: "conv2_11_3"
   top: "conv2_11_3"
   param {
      lr_mult: 0
   }
   param {
      lr_mult: 0
   }
   param {
      lr_mult: 0
   }
   batch_norm_param {
      use_global_stats: true
   }
}

layer {
   name: "scale2_11_3"
   type: "Scale"
   bottom: "conv2_11_3"
   top: "conv2_11_3"
   scale_param {
      bias_term: true
   }
}

layer {
   name: "zero_conv2_11"
   type: "Convolution"
   bottom: "res2_10"
   top: "zero_conv2_11"
   param {
      lr_mult: 0
      decay_mult: 0
   }
   convolution_param {
      num_output: 20
      bias_term: false
      pad: 0
      kernel_size: 1
      stride: 1
      weight_filler {
         type: "constant"
         value: 0.0
      }
   }
}

layer {
   name: "zero2_11"
   type: "Concat"
   bottom: "res2_10"
   bottom: "zero_conv2_11"
   top: "zero2_11"
   concat_param {
      axis: 1
   }
}

layer {
   name: "res2_11"
   type: "Eltwise"
   bottom: "zero2_11"
   bottom: "conv2_11_3"
   top: "res2_11"
   eltwise_param {
      operation: SUM 
   }
}

layer {
   name: "bn2_12"
   type: "BatchNorm"
   bottom: "res2_11"
   top: "bn2_12"
   param {
      lr_mult: 0
   }
   param {
      lr_mult: 0
   }
   param {
      lr_mult: 0
   }
   batch_norm_param {
      use_global_stats: true
   }
}

layer {
   name: "scale2_12"
   type: "Scale"
   bottom: "bn2_12"
   top: "bn2_12"
   scale_param {
      bias_term: true
   }
}

layer {
   name: "conv2_12_1"
   type: "Convolution"
   bottom: "bn2_12"
   top: "conv2_12_1"
   param {
      lr_mult: 1
      decay_mult: 1
   }
   convolution_param {
      num_output: 132
      bias_term: false
      pad: 0
      kernel_size: 1
      stride: 1
      weight_filler {
         type: "msra"
      }
   }
}

layer {
   name: "bn2_12_1"
   type: "BatchNorm"
   bottom: "conv2_12_1"
   top: "conv2_12_1"
   param {
      lr_mult: 0
   }
   param {
      lr_mult: 0
   }
   param {
      lr_mult: 0
   }
   batch_norm_param {
      use_global_stats: true
   }
}

layer {
   name: "scale2_12_1"
   type: "Scale"
   bottom: "conv2_12_1"
   top: "conv2_12_1"
   scale_param {
      bias_term: true
   }
}

layer {
   name: "relu2_12_1"
   type: "ReLU"
   bottom: "conv2_12_1"
   top: "conv2_12_1"
}

layer {
   name: "conv2_12_2"
   type: "Convolution"
   bottom: "conv2_12_1"
   top: "conv2_12_2"
   param {
      lr_mult: 1
      decay_mult: 1
   }
   convolution_param {
      num_output: 132
      bias_term: false
      pad: 1
      kernel_size: 3
      stride: 1
      weight_filler {
         type: "msra"
      }
   }
}

layer {
   name: "bn2_12_2"
   type: "BatchNorm"
   bottom: "conv2_12_2"
   top: "conv2_12_2"
   param {
      lr_mult: 0
   }
   param {
      lr_mult: 0
   }
   param {
      lr_mult: 0
   }
   batch_norm_param {
      use_global_stats: true
   }
}

layer {
   name: "scale2_12_2"
   type: "Scale"
   bottom: "conv2_12_2"
   top: "conv2_12_2"
   scale_param {
      bias_term: true
   }
}

layer {
   name: "relu2_12_2"
   type: "ReLU"
   bottom: "conv2_12_2"
   top: "conv2_12_2"
}

layer {
   name: "conv2_12_3"
   type: "Convolution"
   bottom: "conv2_12_2"
   top: "conv2_12_3"
   param {
      lr_mult: 1
      decay_mult: 1
   }
   convolution_param {
      num_output: 528
      bias_term: false
      pad: 0
      kernel_size: 1
      stride: 1
      weight_filler {
         type: "msra"
      }
   }
}

layer {
   name: "bn2_12_3"
   type: "BatchNorm"
   bottom: "conv2_12_3"
   top: "conv2_12_3"
   param {
      lr_mult: 0
   }
   param {
      lr_mult: 0
   }
   param {
      lr_mult: 0
   }
   batch_norm_param {
      use_global_stats: true
   }
}

layer {
   name: "scale2_12_3"
   type: "Scale"
   bottom: "conv2_12_3"
   top: "conv2_12_3"
   scale_param {
      bias_term: true
   }
}

layer {
   name: "zero_conv2_12"
   type: "Convolution"
   bottom: "res2_11"
   top: "zero_conv2_12"
   param {
      lr_mult: 0
      decay_mult: 0
   }
   convolution_param {
      num_output: 16
      bias_term: false
      pad: 0
      kernel_size: 1
      stride: 1
      weight_filler {
         type: "constant"
         value: 0.0
      }
   }
}

layer {
   name: "zero2_12"
   type: "Concat"
   bottom: "res2_11"
   bottom: "zero_conv2_12"
   top: "zero2_12"
   concat_param {
      axis: 1
   }
}

layer {
   name: "res2_12"
   type: "Eltwise"
   bottom: "zero2_12"
   bottom: "conv2_12_3"
   top: "res2_12"
   eltwise_param {
      operation: SUM 
   }
}

layer {
   name: "bn2_13"
   type: "BatchNorm"
   bottom: "res2_12"
   top: "bn2_13"
   param {
      lr_mult: 0
   }
   param {
      lr_mult: 0
   }
   param {
      lr_mult: 0
   }
   batch_norm_param {
      use_global_stats: true
   }
}

layer {
   name: "scale2_13"
   type: "Scale"
   bottom: "bn2_13"
   top: "bn2_13"
   scale_param {
      bias_term: true
   }
}

layer {
   name: "conv2_13_1"
   type: "Convolution"
   bottom: "bn2_13"
   top: "conv2_13_1"
   param {
      lr_mult: 1
      decay_mult: 1
   }
   convolution_param {
      num_output: 137
      bias_term: false
      pad: 0
      kernel_size: 1
      stride: 1
      weight_filler {
         type: "msra"
      }
   }
}

layer {
   name: "bn2_13_1"
   type: "BatchNorm"
   bottom: "conv2_13_1"
   top: "conv2_13_1"
   param {
      lr_mult: 0
   }
   param {
      lr_mult: 0
   }
   param {
      lr_mult: 0
   }
   batch_norm_param {
      use_global_stats: true
   }
}

layer {
   name: "scale2_13_1"
   type: "Scale"
   bottom: "conv2_13_1"
   top: "conv2_13_1"
   scale_param {
      bias_term: true
   }
}

layer {
   name: "relu2_13_1"
   type: "ReLU"
   bottom: "conv2_13_1"
   top: "conv2_13_1"
}

layer {
   name: "conv2_13_2"
   type: "Convolution"
   bottom: "conv2_13_1"
   top: "conv2_13_2"
   param {
      lr_mult: 1
      decay_mult: 1
   }
   convolution_param {
      num_output: 137
      bias_term: false
      pad: 1
      kernel_size: 3
      stride: 1
      weight_filler {
         type: "msra"
      }
   }
}

layer {
   name: "bn2_13_2"
   type: "BatchNorm"
   bottom: "conv2_13_2"
   top: "conv2_13_2"
   param {
      lr_mult: 0
   }
   param {
      lr_mult: 0
   }
   param {
      lr_mult: 0
   }
   batch_norm_param {
      use_global_stats: true
   }
}

layer {
   name: "scale2_13_2"
   type: "Scale"
   bottom: "conv2_13_2"
   top: "conv2_13_2"
   scale_param {
      bias_term: true
   }
}

layer {
   name: "relu2_13_2"
   type: "ReLU"
   bottom: "conv2_13_2"
   top: "conv2_13_2"
}

layer {
   name: "conv2_13_3"
   type: "Convolution"
   bottom: "conv2_13_2"
   top: "conv2_13_3"
   param {
      lr_mult: 1
      decay_mult: 1
   }
   convolution_param {
      num_output: 548
      bias_term: false
      pad: 0
      kernel_size: 1
      stride: 1
      weight_filler {
         type: "msra"
      }
   }
}

layer {
   name: "bn2_13_3"
   type: "BatchNorm"
   bottom: "conv2_13_3"
   top: "conv2_13_3"
   param {
      lr_mult: 0
   }
   param {
      lr_mult: 0
   }
   param {
      lr_mult: 0
   }
   batch_norm_param {
      use_global_stats: true
   }
}

layer {
   name: "scale2_13_3"
   type: "Scale"
   bottom: "conv2_13_3"
   top: "conv2_13_3"
   scale_param {
      bias_term: true
   }
}

layer {
   name: "zero_conv2_13"
   type: "Convolution"
   bottom: "res2_12"
   top: "zero_conv2_13"
   param {
      lr_mult: 0
      decay_mult: 0
   }
   convolution_param {
      num_output: 20
      bias_term: false
      pad: 0
      kernel_size: 1
      stride: 1
      weight_filler {
         type: "constant"
         value: 0.0
      }
   }
}

layer {
   name: "zero2_13"
   type: "Concat"
   bottom: "res2_12"
   bottom: "zero_conv2_13"
   top: "zero2_13"
   concat_param {
      axis: 1
   }
}

layer {
   name: "res2_13"
   type: "Eltwise"
   bottom: "zero2_13"
   bottom: "conv2_13_3"
   top: "res2_13"
   eltwise_param {
      operation: SUM 
   }
}

layer {
   name: "bn2_14"
   type: "BatchNorm"
   bottom: "res2_13"
   top: "bn2_14"
   param {
      lr_mult: 0
   }
   param {
      lr_mult: 0
   }
   param {
      lr_mult: 0
   }
   batch_norm_param {
      use_global_stats: true
   }
}

layer {
   name: "scale2_14"
   type: "Scale"
   bottom: "bn2_14"
   top: "bn2_14"
   scale_param {
      bias_term: true
   }
}

layer {
   name: "conv2_14_1"
   type: "Convolution"
   bottom: "bn2_14"
   top: "conv2_14_1"
   param {
      lr_mult: 1
      decay_mult: 1
   }
   convolution_param {
      num_output: 141
      bias_term: false
      pad: 0
      kernel_size: 1
      stride: 1
      weight_filler {
         type: "msra"
      }
   }
}

layer {
   name: "bn2_14_1"
   type: "BatchNorm"
   bottom: "conv2_14_1"
   top: "conv2_14_1"
   param {
      lr_mult: 0
   }
   param {
      lr_mult: 0
   }
   param {
      lr_mult: 0
   }
   batch_norm_param {
      use_global_stats: true
   }
}

layer {
   name: "scale2_14_1"
   type: "Scale"
   bottom: "conv2_14_1"
   top: "conv2_14_1"
   scale_param {
      bias_term: true
   }
}

layer {
   name: "relu2_14_1"
   type: "ReLU"
   bottom: "conv2_14_1"
   top: "conv2_14_1"
}

layer {
   name: "conv2_14_2"
   type: "Convolution"
   bottom: "conv2_14_1"
   top: "conv2_14_2"
   param {
      lr_mult: 1
      decay_mult: 1
   }
   convolution_param {
      num_output: 141
      bias_term: false
      pad: 1
      kernel_size: 3
      stride: 1
      weight_filler {
         type: "msra"
      }
   }
}

layer {
   name: "bn2_14_2"
   type: "BatchNorm"
   bottom: "conv2_14_2"
   top: "conv2_14_2"
   param {
      lr_mult: 0
   }
   param {
      lr_mult: 0
   }
   param {
      lr_mult: 0
   }
   batch_norm_param {
      use_global_stats: true
   }
}

layer {
   name: "scale2_14_2"
   type: "Scale"
   bottom: "conv2_14_2"
   top: "conv2_14_2"
   scale_param {
      bias_term: true
   }
}

layer {
   name: "relu2_14_2"
   type: "ReLU"
   bottom: "conv2_14_2"
   top: "conv2_14_2"
}

layer {
   name: "conv2_14_3"
   type: "Convolution"
   bottom: "conv2_14_2"
   top: "conv2_14_3"
   param {
      lr_mult: 1
      decay_mult: 1
   }
   convolution_param {
      num_output: 564
      bias_term: false
      pad: 0
      kernel_size: 1
      stride: 1
      weight_filler {
         type: "msra"
      }
   }
}

layer {
   name: "bn2_14_3"
   type: "BatchNorm"
   bottom: "conv2_14_3"
   top: "conv2_14_3"
   param {
      lr_mult: 0
   }
   param {
      lr_mult: 0
   }
   param {
      lr_mult: 0
   }
   batch_norm_param {
      use_global_stats: true
   }
}

layer {
   name: "scale2_14_3"
   type: "Scale"
   bottom: "conv2_14_3"
   top: "conv2_14_3"
   scale_param {
      bias_term: true
   }
}

layer {
   name: "zero_conv2_14"
   type: "Convolution"
   bottom: "res2_13"
   top: "zero_conv2_14"
   param {
      lr_mult: 0
      decay_mult: 0
   }
   convolution_param {
      num_output: 16
      bias_term: false
      pad: 0
      kernel_size: 1
      stride: 1
      weight_filler {
         type: "constant"
         value: 0.0
      }
   }
}

layer {
   name: "zero2_14"
   type: "Concat"
   bottom: "res2_13"
   bottom: "zero_conv2_14"
   top: "zero2_14"
   concat_param {
      axis: 1
   }
}

layer {
   name: "res2_14"
   type: "Eltwise"
   bottom: "zero2_14"
   bottom: "conv2_14_3"
   top: "res2_14"
   eltwise_param {
      operation: SUM 
   }
}

layer {
   name: "bn2_15"
   type: "BatchNorm"
   bottom: "res2_14"
   top: "bn2_15"
   param {
      lr_mult: 0
   }
   param {
      lr_mult: 0
   }
   param {
      lr_mult: 0
   }
   batch_norm_param {
      use_global_stats: true
   }
}

layer {
   name: "scale2_15"
   type: "Scale"
   bottom: "bn2_15"
   top: "bn2_15"
   scale_param {
      bias_term: true
   }
}

layer {
   name: "conv2_15_1"
   type: "Convolution"
   bottom: "bn2_15"
   top: "conv2_15_1"
   param {
      lr_mult: 1
      decay_mult: 1
   }
   convolution_param {
      num_output: 146
      bias_term: false
      pad: 0
      kernel_size: 1
      stride: 1
      weight_filler {
         type: "msra"
      }
   }
}

layer {
   name: "bn2_15_1"
   type: "BatchNorm"
   bottom: "conv2_15_1"
   top: "conv2_15_1"
   param {
      lr_mult: 0
   }
   param {
      lr_mult: 0
   }
   param {
      lr_mult: 0
   }
   batch_norm_param {
      use_global_stats: true
   }
}

layer {
   name: "scale2_15_1"
   type: "Scale"
   bottom: "conv2_15_1"
   top: "conv2_15_1"
   scale_param {
      bias_term: true
   }
}

layer {
   name: "relu2_15_1"
   type: "ReLU"
   bottom: "conv2_15_1"
   top: "conv2_15_1"
}

layer {
   name: "conv2_15_2"
   type: "Convolution"
   bottom: "conv2_15_1"
   top: "conv2_15_2"
   param {
      lr_mult: 1
      decay_mult: 1
   }
   convolution_param {
      num_output: 146
      bias_term: false
      pad: 1
      kernel_size: 3
      stride: 1
      weight_filler {
         type: "msra"
      }
   }
}

layer {
   name: "bn2_15_2"
   type: "BatchNorm"
   bottom: "conv2_15_2"
   top: "conv2_15_2"
   param {
      lr_mult: 0
   }
   param {
      lr_mult: 0
   }
   param {
      lr_mult: 0
   }
   batch_norm_param {
      use_global_stats: true
   }
}

layer {
   name: "scale2_15_2"
   type: "Scale"
   bottom: "conv2_15_2"
   top: "conv2_15_2"
   scale_param {
      bias_term: true
   }
}

layer {
   name: "relu2_15_2"
   type: "ReLU"
   bottom: "conv2_15_2"
   top: "conv2_15_2"
}

layer {
   name: "conv2_15_3"
   type: "Convolution"
   bottom: "conv2_15_2"
   top: "conv2_15_3"
   param {
      lr_mult: 1
      decay_mult: 1
   }
   convolution_param {
      num_output: 584
      bias_term: false
      pad: 0
      kernel_size: 1
      stride: 1
      weight_filler {
         type: "msra"
      }
   }
}

layer {
   name: "bn2_15_3"
   type: "BatchNorm"
   bottom: "conv2_15_3"
   top: "conv2_15_3"
   param {
      lr_mult: 0
   }
   param {
      lr_mult: 0
   }
   param {
      lr_mult: 0
   }
   batch_norm_param {
      use_global_stats: true
   }
}

layer {
   name: "scale2_15_3"
   type: "Scale"
   bottom: "conv2_15_3"
   top: "conv2_15_3"
   scale_param {
      bias_term: true
   }
}

layer {
   name: "zero_conv2_15"
   type: "Convolution"
   bottom: "res2_14"
   top: "zero_conv2_15"
   param {
      lr_mult: 0
      decay_mult: 0
   }
   convolution_param {
      num_output: 20
      bias_term: false
      pad: 0
      kernel_size: 1
      stride: 1
      weight_filler {
         type: "constant"
         value: 0.0
      }
   }
}

layer {
   name: "zero2_15"
   type: "Concat"
   bottom: "res2_14"
   bottom: "zero_conv2_15"
   top: "zero2_15"
   concat_param {
      axis: 1
   }
}

layer {
   name: "res2_15"
   type: "Eltwise"
   bottom: "zero2_15"
   bottom: "conv2_15_3"
   top: "res2_15"
   eltwise_param {
      operation: SUM 
   }
}

layer {
   name: "bn2_16"
   type: "BatchNorm"
   bottom: "res2_15"
   top: "bn2_16"
   param {
      lr_mult: 0
   }
   param {
      lr_mult: 0
   }
   param {
      lr_mult: 0
   }
   batch_norm_param {
      use_global_stats: true
   }
}

layer {
   name: "scale2_16"
   type: "Scale"
   bottom: "bn2_16"
   top: "bn2_16"
   scale_param {
      bias_term: true
   }
}

layer {
   name: "conv2_16_1"
   type: "Convolution"
   bottom: "bn2_16"
   top: "conv2_16_1"
   param {
      lr_mult: 1
      decay_mult: 1
   }
   convolution_param {
      num_output: 150
      bias_term: false
      pad: 0
      kernel_size: 1
      stride: 1
      weight_filler {
         type: "msra"
      }
   }
}

layer {
   name: "bn2_16_1"
   type: "BatchNorm"
   bottom: "conv2_16_1"
   top: "conv2_16_1"
   param {
      lr_mult: 0
   }
   param {
      lr_mult: 0
   }
   param {
      lr_mult: 0
   }
   batch_norm_param {
      use_global_stats: true
   }
}

layer {
   name: "scale2_16_1"
   type: "Scale"
   bottom: "conv2_16_1"
   top: "conv2_16_1"
   scale_param {
      bias_term: true
   }
}

layer {
   name: "relu2_16_1"
   type: "ReLU"
   bottom: "conv2_16_1"
   top: "conv2_16_1"
}

layer {
   name: "conv2_16_2"
   type: "Convolution"
   bottom: "conv2_16_1"
   top: "conv2_16_2"
   param {
      lr_mult: 1
      decay_mult: 1
   }
   convolution_param {
      num_output: 150
      bias_term: false
      pad: 1
      kernel_size: 3
      stride: 1
      weight_filler {
         type: "msra"
      }
   }
}

layer {
   name: "bn2_16_2"
   type: "BatchNorm"
   bottom: "conv2_16_2"
   top: "conv2_16_2"
   param {
      lr_mult: 0
   }
   param {
      lr_mult: 0
   }
   param {
      lr_mult: 0
   }
   batch_norm_param {
      use_global_stats: true
   }
}

layer {
   name: "scale2_16_2"
   type: "Scale"
   bottom: "conv2_16_2"
   top: "conv2_16_2"
   scale_param {
      bias_term: true
   }
}

layer {
   name: "relu2_16_2"
   type: "ReLU"
   bottom: "conv2_16_2"
   top: "conv2_16_2"
}

layer {
   name: "conv2_16_3"
   type: "Convolution"
   bottom: "conv2_16_2"
   top: "conv2_16_3"
   param {
      lr_mult: 1
      decay_mult: 1
   }
   convolution_param {
      num_output: 600
      bias_term: false
      pad: 0
      kernel_size: 1
      stride: 1
      weight_filler {
         type: "msra"
      }
   }
}

layer {
   name: "bn2_16_3"
   type: "BatchNorm"
   bottom: "conv2_16_3"
   top: "conv2_16_3"
   param {
      lr_mult: 0
   }
   param {
      lr_mult: 0
   }
   param {
      lr_mult: 0
   }
   batch_norm_param {
      use_global_stats: true
   }
}

layer {
   name: "scale2_16_3"
   type: "Scale"
   bottom: "conv2_16_3"
   top: "conv2_16_3"
   scale_param {
      bias_term: true
   }
}

layer {
   name: "zero_conv2_16"
   type: "Convolution"
   bottom: "res2_15"
   top: "zero_conv2_16"
   param {
      lr_mult: 0
      decay_mult: 0
   }
   convolution_param {
      num_output: 16
      bias_term: false
      pad: 0
      kernel_size: 1
      stride: 1
      weight_filler {
         type: "constant"
         value: 0.0
      }
   }
}

layer {
   name: "zero2_16"
   type: "Concat"
   bottom: "res2_15"
   bottom: "zero_conv2_16"
   top: "zero2_16"
   concat_param {
      axis: 1
   }
}

layer {
   name: "res2_16"
   type: "Eltwise"
   bottom: "zero2_16"
   bottom: "conv2_16_3"
   top: "res2_16"
   eltwise_param {
      operation: SUM 
   }
}

layer {
   name: "bn2_17"
   type: "BatchNorm"
   bottom: "res2_16"
   top: "bn2_17"
   param {
      lr_mult: 0
   }
   param {
      lr_mult: 0
   }
   param {
      lr_mult: 0
   }
   batch_norm_param {
      use_global_stats: true
   }
}

layer {
   name: "scale2_17"
   type: "Scale"
   bottom: "bn2_17"
   top: "bn2_17"
   scale_param {
      bias_term: true
   }
}

layer {
   name: "conv2_17_1"
   type: "Convolution"
   bottom: "bn2_17"
   top: "conv2_17_1"
   param {
      lr_mult: 1
      decay_mult: 1
   }
   convolution_param {
      num_output: 155
      bias_term: false
      pad: 0
      kernel_size: 1
      stride: 1
      weight_filler {
         type: "msra"
      }
   }
}

layer {
   name: "bn2_17_1"
   type: "BatchNorm"
   bottom: "conv2_17_1"
   top: "conv2_17_1"
   param {
      lr_mult: 0
   }
   param {
      lr_mult: 0
   }
   param {
      lr_mult: 0
   }
   batch_norm_param {
      use_global_stats: true
   }
}

layer {
   name: "scale2_17_1"
   type: "Scale"
   bottom: "conv2_17_1"
   top: "conv2_17_1"
   scale_param {
      bias_term: true
   }
}

layer {
   name: "relu2_17_1"
   type: "ReLU"
   bottom: "conv2_17_1"
   top: "conv2_17_1"
}

layer {
   name: "conv2_17_2"
   type: "Convolution"
   bottom: "conv2_17_1"
   top: "conv2_17_2"
   param {
      lr_mult: 1
      decay_mult: 1
   }
   convolution_param {
      num_output: 155
      bias_term: false
      pad: 1
      kernel_size: 3
      stride: 1
      weight_filler {
         type: "msra"
      }
   }
}

layer {
   name: "bn2_17_2"
   type: "BatchNorm"
   bottom: "conv2_17_2"
   top: "conv2_17_2"
   param {
      lr_mult: 0
   }
   param {
      lr_mult: 0
   }
   param {
      lr_mult: 0
   }
   batch_norm_param {
      use_global_stats: true
   }
}

layer {
   name: "scale2_17_2"
   type: "Scale"
   bottom: "conv2_17_2"
   top: "conv2_17_2"
   scale_param {
      bias_term: true
   }
}

layer {
   name: "relu2_17_2"
   type: "ReLU"
   bottom: "conv2_17_2"
   top: "conv2_17_2"
}

layer {
   name: "conv2_17_3"
   type: "Convolution"
   bottom: "conv2_17_2"
   top: "conv2_17_3"
   param {
      lr_mult: 1
      decay_mult: 1
   }
   convolution_param {
      num_output: 620
      bias_term: false
      pad: 0
      kernel_size: 1
      stride: 1
      weight_filler {
         type: "msra"
      }
   }
}

layer {
   name: "bn2_17_3"
   type: "BatchNorm"
   bottom: "conv2_17_3"
   top: "conv2_17_3"
   param {
      lr_mult: 0
   }
   param {
      lr_mult: 0
   }
   param {
      lr_mult: 0
   }
   batch_norm_param {
      use_global_stats: true
   }
}

layer {
   name: "scale2_17_3"
   type: "Scale"
   bottom: "conv2_17_3"
   top: "conv2_17_3"
   scale_param {
      bias_term: true
   }
}

layer {
   name: "zero_conv2_17"
   type: "Convolution"
   bottom: "res2_16"
   top: "zero_conv2_17"
   param {
      lr_mult: 0
      decay_mult: 0
   }
   convolution_param {
      num_output: 20
      bias_term: false
      pad: 0
      kernel_size: 1
      stride: 1
      weight_filler {
         type: "constant"
         value: 0.0
      }
   }
}

layer {
   name: "zero2_17"
   type: "Concat"
   bottom: "res2_16"
   bottom: "zero_conv2_17"
   top: "zero2_17"
   concat_param {
      axis: 1
   }
}

layer {
   name: "res2_17"
   type: "Eltwise"
   bottom: "zero2_17"
   bottom: "conv2_17_3"
   top: "res2_17"
   eltwise_param {
      operation: SUM 
   }
}

layer {
   name: "bn2_18"
   type: "BatchNorm"
   bottom: "res2_17"
   top: "bn2_18"
   param {
      lr_mult: 0
   }
   param {
      lr_mult: 0
   }
   param {
      lr_mult: 0
   }
   batch_norm_param {
      use_global_stats: true
   }
}

layer {
   name: "scale2_18"
   type: "Scale"
   bottom: "bn2_18"
   top: "bn2_18"
   scale_param {
      bias_term: true
   }
}

layer {
   name: "conv2_18_1"
   type: "Convolution"
   bottom: "bn2_18"
   top: "conv2_18_1"
   param {
      lr_mult: 1
      decay_mult: 1
   }
   convolution_param {
      num_output: 159
      bias_term: false
      pad: 0
      kernel_size: 1
      stride: 1
      weight_filler {
         type: "msra"
      }
   }
}

layer {
   name: "bn2_18_1"
   type: "BatchNorm"
   bottom: "conv2_18_1"
   top: "conv2_18_1"
   param {
      lr_mult: 0
   }
   param {
      lr_mult: 0
   }
   param {
      lr_mult: 0
   }
   batch_norm_param {
      use_global_stats: true
   }
}

layer {
   name: "scale2_18_1"
   type: "Scale"
   bottom: "conv2_18_1"
   top: "conv2_18_1"
   scale_param {
      bias_term: true
   }
}

layer {
   name: "relu2_18_1"
   type: "ReLU"
   bottom: "conv2_18_1"
   top: "conv2_18_1"
}

layer {
   name: "conv2_18_2"
   type: "Convolution"
   bottom: "conv2_18_1"
   top: "conv2_18_2"
   param {
      lr_mult: 1
      decay_mult: 1
   }
   convolution_param {
      num_output: 159
      bias_term: false
      pad: 1
      kernel_size: 3
      stride: 1
      weight_filler {
         type: "msra"
      }
   }
}

layer {
   name: "bn2_18_2"
   type: "BatchNorm"
   bottom: "conv2_18_2"
   top: "conv2_18_2"
   param {
      lr_mult: 0
   }
   param {
      lr_mult: 0
   }
   param {
      lr_mult: 0
   }
   batch_norm_param {
      use_global_stats: true
   }
}

layer {
   name: "scale2_18_2"
   type: "Scale"
   bottom: "conv2_18_2"
   top: "conv2_18_2"
   scale_param {
      bias_term: true
   }
}

layer {
   name: "relu2_18_2"
   type: "ReLU"
   bottom: "conv2_18_2"
   top: "conv2_18_2"
}

layer {
   name: "conv2_18_3"
   type: "Convolution"
   bottom: "conv2_18_2"
   top: "conv2_18_3"
   param {
      lr_mult: 1
      decay_mult: 1
   }
   convolution_param {
      num_output: 636
      bias_term: false
      pad: 0
      kernel_size: 1
      stride: 1
      weight_filler {
         type: "msra"
      }
   }
}

layer {
   name: "bn2_18_3"
   type: "BatchNorm"
   bottom: "conv2_18_3"
   top: "conv2_18_3"
   param {
      lr_mult: 0
   }
   param {
      lr_mult: 0
   }
   param {
      lr_mult: 0
   }
   batch_norm_param {
      use_global_stats: true
   }
}

layer {
   name: "scale2_18_3"
   type: "Scale"
   bottom: "conv2_18_3"
   top: "conv2_18_3"
   scale_param {
      bias_term: true
   }
}

layer {
   name: "zero_conv2_18"
   type: "Convolution"
   bottom: "res2_17"
   top: "zero_conv2_18"
   param {
      lr_mult: 0
      decay_mult: 0
   }
   convolution_param {
      num_output: 16
      bias_term: false
      pad: 0
      kernel_size: 1
      stride: 1
      weight_filler {
         type: "constant"
         value: 0.0
      }
   }
}

layer {
   name: "zero2_18"
   type: "Concat"
   bottom: "res2_17"
   bottom: "zero_conv2_18"
   top: "zero2_18"
   concat_param {
      axis: 1
   }
}

layer {
   name: "res2_18"
   type: "Eltwise"
   bottom: "zero2_18"
   bottom: "conv2_18_3"
   top: "res2_18"
   eltwise_param {
      operation: SUM 
   }
}

layer {
   name: "bn2_19"
   type: "BatchNorm"
   bottom: "res2_18"
   top: "bn2_19"
   param {
      lr_mult: 0
   }
   param {
      lr_mult: 0
   }
   param {
      lr_mult: 0
   }
   batch_norm_param {
      use_global_stats: true
   }
}

layer {
   name: "scale2_19"
   type: "Scale"
   bottom: "bn2_19"
   top: "bn2_19"
   scale_param {
      bias_term: true
   }
}

layer {
   name: "conv2_19_1"
   type: "Convolution"
   bottom: "bn2_19"
   top: "conv2_19_1"
   param {
      lr_mult: 1
      decay_mult: 1
   }
   convolution_param {
      num_output: 164
      bias_term: false
      pad: 0
      kernel_size: 1
      stride: 1
      weight_filler {
         type: "msra"
      }
   }
}

layer {
   name: "bn2_19_1"
   type: "BatchNorm"
   bottom: "conv2_19_1"
   top: "conv2_19_1"
   param {
      lr_mult: 0
   }
   param {
      lr_mult: 0
   }
   param {
      lr_mult: 0
   }
   batch_norm_param {
      use_global_stats: true
   }
}

layer {
   name: "scale2_19_1"
   type: "Scale"
   bottom: "conv2_19_1"
   top: "conv2_19_1"
   scale_param {
      bias_term: true
   }
}

layer {
   name: "relu2_19_1"
   type: "ReLU"
   bottom: "conv2_19_1"
   top: "conv2_19_1"
}

layer {
   name: "conv2_19_2"
   type: "Convolution"
   bottom: "conv2_19_1"
   top: "conv2_19_2"
   param {
      lr_mult: 1
      decay_mult: 1
   }
   convolution_param {
      num_output: 164
      bias_term: false
      pad: 1
      kernel_size: 3
      stride: 1
      weight_filler {
         type: "msra"
      }
   }
}

layer {
   name: "bn2_19_2"
   type: "BatchNorm"
   bottom: "conv2_19_2"
   top: "conv2_19_2"
   param {
      lr_mult: 0
   }
   param {
      lr_mult: 0
   }
   param {
      lr_mult: 0
   }
   batch_norm_param {
      use_global_stats: true
   }
}

layer {
   name: "scale2_19_2"
   type: "Scale"
   bottom: "conv2_19_2"
   top: "conv2_19_2"
   scale_param {
      bias_term: true
   }
}

layer {
   name: "relu2_19_2"
   type: "ReLU"
   bottom: "conv2_19_2"
   top: "conv2_19_2"
}

layer {
   name: "conv2_19_3"
   type: "Convolution"
   bottom: "conv2_19_2"
   top: "conv2_19_3"
   param {
      lr_mult: 1
      decay_mult: 1
   }
   convolution_param {
      num_output: 656
      bias_term: false
      pad: 0
      kernel_size: 1
      stride: 1
      weight_filler {
         type: "msra"
      }
   }
}

layer {
   name: "bn2_19_3"
   type: "BatchNorm"
   bottom: "conv2_19_3"
   top: "conv2_19_3"
   param {
      lr_mult: 0
   }
   param {
      lr_mult: 0
   }
   param {
      lr_mult: 0
   }
   batch_norm_param {
      use_global_stats: true
   }
}

layer {
   name: "scale2_19_3"
   type: "Scale"
   bottom: "conv2_19_3"
   top: "conv2_19_3"
   scale_param {
      bias_term: true
   }
}

layer {
   name: "zero_conv2_19"
   type: "Convolution"
   bottom: "res2_18"
   top: "zero_conv2_19"
   param {
      lr_mult: 0
      decay_mult: 0
   }
   convolution_param {
      num_output: 20
      bias_term: false
      pad: 0
      kernel_size: 1
      stride: 1
      weight_filler {
         type: "constant"
         value: 0.0
      }
   }
}

layer {
   name: "zero2_19"
   type: "Concat"
   bottom: "res2_18"
   bottom: "zero_conv2_19"
   top: "zero2_19"
   concat_param {
      axis: 1
   }
}

layer {
   name: "res2_19"
   type: "Eltwise"
   bottom: "zero2_19"
   bottom: "conv2_19_3"
   top: "res2_19"
   eltwise_param {
      operation: SUM 
   }
}

layer {
   name: "bn2_20"
   type: "BatchNorm"
   bottom: "res2_19"
   top: "bn2_20"
   param {
      lr_mult: 0
   }
   param {
      lr_mult: 0
   }
   param {
      lr_mult: 0
   }
   batch_norm_param {
      use_global_stats: true
   }
}

layer {
   name: "scale2_20"
   type: "Scale"
   bottom: "bn2_20"
   top: "bn2_20"
   scale_param {
      bias_term: true
   }
}

layer {
   name: "conv2_20_1"
   type: "Convolution"
   bottom: "bn2_20"
   top: "conv2_20_1"
   param {
      lr_mult: 1
      decay_mult: 1
   }
   convolution_param {
      num_output: 169
      bias_term: false
      pad: 0
      kernel_size: 1
      stride: 1
      weight_filler {
         type: "msra"
      }
   }
}

layer {
   name: "bn2_20_1"
   type: "BatchNorm"
   bottom: "conv2_20_1"
   top: "conv2_20_1"
   param {
      lr_mult: 0
   }
   param {
      lr_mult: 0
   }
   param {
      lr_mult: 0
   }
   batch_norm_param {
      use_global_stats: true
   }
}

layer {
   name: "scale2_20_1"
   type: "Scale"
   bottom: "conv2_20_1"
   top: "conv2_20_1"
   scale_param {
      bias_term: true
   }
}

layer {
   name: "relu2_20_1"
   type: "ReLU"
   bottom: "conv2_20_1"
   top: "conv2_20_1"
}

layer {
   name: "conv2_20_2"
   type: "Convolution"
   bottom: "conv2_20_1"
   top: "conv2_20_2"
   param {
      lr_mult: 1
      decay_mult: 1
   }
   convolution_param {
      num_output: 169
      bias_term: false
      pad: 1
      kernel_size: 3
      stride: 1
      weight_filler {
         type: "msra"
      }
   }
}

layer {
   name: "bn2_20_2"
   type: "BatchNorm"
   bottom: "conv2_20_2"
   top: "conv2_20_2"
   param {
      lr_mult: 0
   }
   param {
      lr_mult: 0
   }
   param {
      lr_mult: 0
   }
   batch_norm_param {
      use_global_stats: true
   }
}

layer {
   name: "scale2_20_2"
   type: "Scale"
   bottom: "conv2_20_2"
   top: "conv2_20_2"
   scale_param {
      bias_term: true
   }
}

layer {
   name: "relu2_20_2"
   type: "ReLU"
   bottom: "conv2_20_2"
   top: "conv2_20_2"
}

layer {
   name: "conv2_20_3"
   type: "Convolution"
   bottom: "conv2_20_2"
   top: "conv2_20_3"
   param {
      lr_mult: 1
      decay_mult: 1
   }
   convolution_param {
      num_output: 676
      bias_term: false
      pad: 0
      kernel_size: 1
      stride: 1
      weight_filler {
         type: "msra"
      }
   }
}

layer {
   name: "bn2_20_3"
   type: "BatchNorm"
   bottom: "conv2_20_3"
   top: "conv2_20_3"
   param {
      lr_mult: 0
   }
   param {
      lr_mult: 0
   }
   param {
      lr_mult: 0
   }
   batch_norm_param {
      use_global_stats: true
   }
}

layer {
   name: "scale2_20_3"
   type: "Scale"
   bottom: "conv2_20_3"
   top: "conv2_20_3"
   scale_param {
      bias_term: true
   }
}

layer {
   name: "zero_conv2_20"
   type: "Convolution"
   bottom: "res2_19"
   top: "zero_conv2_20"
   param {
      lr_mult: 0
      decay_mult: 0
   }
   convolution_param {
      num_output: 20
      bias_term: false
      pad: 0
      kernel_size: 1
      stride: 1
      weight_filler {
         type: "constant"
         value: 0.0
      }
   }
}

layer {
   name: "zero2_20"
   type: "Concat"
   bottom: "res2_19"
   bottom: "zero_conv2_20"
   top: "zero2_20"
   concat_param {
      axis: 1
   }
}

layer {
   name: "res2_20"
   type: "Eltwise"
   bottom: "zero2_20"
   bottom: "conv2_20_3"
   top: "res2_20"
   eltwise_param {
      operation: SUM 
   }
}

layer {
   name: "bn2_21"
   type: "BatchNorm"
   bottom: "res2_20"
   top: "bn2_21"
   param {
      lr_mult: 0
   }
   param {
      lr_mult: 0
   }
   param {
      lr_mult: 0
   }
   batch_norm_param {
      use_global_stats: true
   }
}

layer {
   name: "scale2_21"
   type: "Scale"
   bottom: "bn2_21"
   top: "bn2_21"
   scale_param {
      bias_term: true
   }
}

layer {
   name: "conv2_21_1"
   type: "Convolution"
   bottom: "bn2_21"
   top: "conv2_21_1"
   param {
      lr_mult: 1
      decay_mult: 1
   }
   convolution_param {
      num_output: 173
      bias_term: false
      pad: 0
      kernel_size: 1
      stride: 1
      weight_filler {
         type: "msra"
      }
   }
}

layer {
   name: "bn2_21_1"
   type: "BatchNorm"
   bottom: "conv2_21_1"
   top: "conv2_21_1"
   param {
      lr_mult: 0
   }
   param {
      lr_mult: 0
   }
   param {
      lr_mult: 0
   }
   batch_norm_param {
      use_global_stats: true
   }
}

layer {
   name: "scale2_21_1"
   type: "Scale"
   bottom: "conv2_21_1"
   top: "conv2_21_1"
   scale_param {
      bias_term: true
   }
}

layer {
   name: "relu2_21_1"
   type: "ReLU"
   bottom: "conv2_21_1"
   top: "conv2_21_1"
}

layer {
   name: "conv2_21_2"
   type: "Convolution"
   bottom: "conv2_21_1"
   top: "conv2_21_2"
   param {
      lr_mult: 1
      decay_mult: 1
   }
   convolution_param {
      num_output: 173
      bias_term: false
      pad: 1
      kernel_size: 3
      stride: 1
      weight_filler {
         type: "msra"
      }
   }
}

layer {
   name: "bn2_21_2"
   type: "BatchNorm"
   bottom: "conv2_21_2"
   top: "conv2_21_2"
   param {
      lr_mult: 0
   }
   param {
      lr_mult: 0
   }
   param {
      lr_mult: 0
   }
   batch_norm_param {
      use_global_stats: true
   }
}

layer {
   name: "scale2_21_2"
   type: "Scale"
   bottom: "conv2_21_2"
   top: "conv2_21_2"
   scale_param {
      bias_term: true
   }
}

layer {
   name: "relu2_21_2"
   type: "ReLU"
   bottom: "conv2_21_2"
   top: "conv2_21_2"
}

layer {
   name: "conv2_21_3"
   type: "Convolution"
   bottom: "conv2_21_2"
   top: "conv2_21_3"
   param {
      lr_mult: 1
      decay_mult: 1
   }
   convolution_param {
      num_output: 692
      bias_term: false
      pad: 0
      kernel_size: 1
      stride: 1
      weight_filler {
         type: "msra"
      }
   }
}

layer {
   name: "bn2_21_3"
   type: "BatchNorm"
   bottom: "conv2_21_3"
   top: "conv2_21_3"
   param {
      lr_mult: 0
   }
   param {
      lr_mult: 0
   }
   param {
      lr_mult: 0
   }
   batch_norm_param {
      use_global_stats: true
   }
}

layer {
   name: "scale2_21_3"
   type: "Scale"
   bottom: "conv2_21_3"
   top: "conv2_21_3"
   scale_param {
      bias_term: true
   }
}

layer {
   name: "zero_conv2_21"
   type: "Convolution"
   bottom: "res2_20"
   top: "zero_conv2_21"
   param {
      lr_mult: 0
      decay_mult: 0
   }
   convolution_param {
      num_output: 16
      bias_term: false
      pad: 0
      kernel_size: 1
      stride: 1
      weight_filler {
         type: "constant"
         value: 0.0
      }
   }
}

layer {
   name: "zero2_21"
   type: "Concat"
   bottom: "res2_20"
   bottom: "zero_conv2_21"
   top: "zero2_21"
   concat_param {
      axis: 1
   }
}

layer {
   name: "res2_21"
   type: "Eltwise"
   bottom: "zero2_21"
   bottom: "conv2_21_3"
   top: "res2_21"
   eltwise_param {
      operation: SUM 
   }
}

layer {
   name: "bn2_22"
   type: "BatchNorm"
   bottom: "res2_21"
   top: "bn2_22"
   param {
      lr_mult: 0
   }
   param {
      lr_mult: 0
   }
   param {
      lr_mult: 0
   }
   batch_norm_param {
      use_global_stats: true
   }
}

layer {
   name: "scale2_22"
   type: "Scale"
   bottom: "bn2_22"
   top: "bn2_22"
   scale_param {
      bias_term: true
   }
}

layer {
   name: "conv2_22_1"
   type: "Convolution"
   bottom: "bn2_22"
   top: "conv2_22_1"
   param {
      lr_mult: 1
      decay_mult: 1
   }
   convolution_param {
      num_output: 178
      bias_term: false
      pad: 0
      kernel_size: 1
      stride: 1
      weight_filler {
         type: "msra"
      }
   }
}

layer {
   name: "bn2_22_1"
   type: "BatchNorm"
   bottom: "conv2_22_1"
   top: "conv2_22_1"
   param {
      lr_mult: 0
   }
   param {
      lr_mult: 0
   }
   param {
      lr_mult: 0
   }
   batch_norm_param {
      use_global_stats: true
   }
}

layer {
   name: "scale2_22_1"
   type: "Scale"
   bottom: "conv2_22_1"
   top: "conv2_22_1"
   scale_param {
      bias_term: true
   }
}

layer {
   name: "relu2_22_1"
   type: "ReLU"
   bottom: "conv2_22_1"
   top: "conv2_22_1"
}

layer {
   name: "conv2_22_2"
   type: "Convolution"
   bottom: "conv2_22_1"
   top: "conv2_22_2"
   param {
      lr_mult: 1
      decay_mult: 1
   }
   convolution_param {
      num_output: 178
      bias_term: false
      pad: 1
      kernel_size: 3
      stride: 1
      weight_filler {
         type: "msra"
      }
   }
}

layer {
   name: "bn2_22_2"
   type: "BatchNorm"
   bottom: "conv2_22_2"
   top: "conv2_22_2"
   param {
      lr_mult: 0
   }
   param {
      lr_mult: 0
   }
   param {
      lr_mult: 0
   }
   batch_norm_param {
      use_global_stats: true
   }
}

layer {
   name: "scale2_22_2"
   type: "Scale"
   bottom: "conv2_22_2"
   top: "conv2_22_2"
   scale_param {
      bias_term: true
   }
}

layer {
   name: "relu2_22_2"
   type: "ReLU"
   bottom: "conv2_22_2"
   top: "conv2_22_2"
}

layer {
   name: "conv2_22_3"
   type: "Convolution"
   bottom: "conv2_22_2"
   top: "conv2_22_3"
   param {
      lr_mult: 1
      decay_mult: 1
   }
   convolution_param {
      num_output: 712
      bias_term: false
      pad: 0
      kernel_size: 1
      stride: 1
      weight_filler {
         type: "msra"
      }
   }
}

layer {
   name: "bn2_22_3"
   type: "BatchNorm"
   bottom: "conv2_22_3"
   top: "conv2_22_3"
   param {
      lr_mult: 0
   }
   param {
      lr_mult: 0
   }
   param {
      lr_mult: 0
   }
   batch_norm_param {
      use_global_stats: true
   }
}

layer {
   name: "scale2_22_3"
   type: "Scale"
   bottom: "conv2_22_3"
   top: "conv2_22_3"
   scale_param {
      bias_term: true
   }
}

layer {
   name: "zero_conv2_22"
   type: "Convolution"
   bottom: "res2_21"
   top: "zero_conv2_22"
   param {
      lr_mult: 0
      decay_mult: 0
   }
   convolution_param {
      num_output: 20
      bias_term: false
      pad: 0
      kernel_size: 1
      stride: 1
      weight_filler {
         type: "constant"
         value: 0.0
      }
   }
}

layer {
   name: "zero2_22"
   type: "Concat"
   bottom: "res2_21"
   bottom: "zero_conv2_22"
   top: "zero2_22"
   concat_param {
      axis: 1
   }
}

layer {
   name: "res2_22"
   type: "Eltwise"
   bottom: "zero2_22"
   bottom: "conv2_22_3"
   top: "res2_22"
   eltwise_param {
      operation: SUM 
   }
}

layer {
   name: "bn2_23"
   type: "BatchNorm"
   bottom: "res2_22"
   top: "bn2_23"
   param {
      lr_mult: 0
   }
   param {
      lr_mult: 0
   }
   param {
      lr_mult: 0
   }
   batch_norm_param {
      use_global_stats: true
   }
}

layer {
   name: "scale2_23"
   type: "Scale"
   bottom: "bn2_23"
   top: "bn2_23"
   scale_param {
      bias_term: true
   }
}

layer {
   name: "conv2_23_1"
   type: "Convolution"
   bottom: "bn2_23"
   top: "conv2_23_1"
   param {
      lr_mult: 1
      decay_mult: 1
   }
   convolution_param {
      num_output: 182
      bias_term: false
      pad: 0
      kernel_size: 1
      stride: 1
      weight_filler {
         type: "msra"
      }
   }
}

layer {
   name: "bn2_23_1"
   type: "BatchNorm"
   bottom: "conv2_23_1"
   top: "conv2_23_1"
   param {
      lr_mult: 0
   }
   param {
      lr_mult: 0
   }
   param {
      lr_mult: 0
   }
   batch_norm_param {
      use_global_stats: true
   }
}

layer {
   name: "scale2_23_1"
   type: "Scale"
   bottom: "conv2_23_1"
   top: "conv2_23_1"
   scale_param {
      bias_term: true
   }
}

layer {
   name: "relu2_23_1"
   type: "ReLU"
   bottom: "conv2_23_1"
   top: "conv2_23_1"
}

layer {
   name: "conv2_23_2"
   type: "Convolution"
   bottom: "conv2_23_1"
   top: "conv2_23_2"
   param {
      lr_mult: 1
      decay_mult: 1
   }
   convolution_param {
      num_output: 182
      bias_term: false
      pad: 1
      kernel_size: 3
      stride: 1
      weight_filler {
         type: "msra"
      }
   }
}

layer {
   name: "bn2_23_2"
   type: "BatchNorm"
   bottom: "conv2_23_2"
   top: "conv2_23_2"
   param {
      lr_mult: 0
   }
   param {
      lr_mult: 0
   }
   param {
      lr_mult: 0
   }
   batch_norm_param {
      use_global_stats: true
   }
}

layer {
   name: "scale2_23_2"
   type: "Scale"
   bottom: "conv2_23_2"
   top: "conv2_23_2"
   scale_param {
      bias_term: true
   }
}

layer {
   name: "relu2_23_2"
   type: "ReLU"
   bottom: "conv2_23_2"
   top: "conv2_23_2"
}

layer {
   name: "conv2_23_3"
   type: "Convolution"
   bottom: "conv2_23_2"
   top: "conv2_23_3"
   param {
      lr_mult: 1
      decay_mult: 1
   }
   convolution_param {
      num_output: 728
      bias_term: false
      pad: 0
      kernel_size: 1
      stride: 1
      weight_filler {
         type: "msra"
      }
   }
}

layer {
   name: "bn2_23_3"
   type: "BatchNorm"
   bottom: "conv2_23_3"
   top: "conv2_23_3"
   param {
      lr_mult: 0
   }
   param {
      lr_mult: 0
   }
   param {
      lr_mult: 0
   }
   batch_norm_param {
      use_global_stats: true
   }
}

layer {
   name: "scale2_23_3"
   type: "Scale"
   bottom: "conv2_23_3"
   top: "conv2_23_3"
   scale_param {
      bias_term: true
   }
}

layer {
   name: "zero_conv2_23"
   type: "Convolution"
   bottom: "res2_22"
   top: "zero_conv2_23"
   param {
      lr_mult: 0
      decay_mult: 0
   }
   convolution_param {
      num_output: 16
      bias_term: false
      pad: 0
      kernel_size: 1
      stride: 1
      weight_filler {
         type: "constant"
         value: 0.0
      }
   }
}

layer {
   name: "zero2_23"
   type: "Concat"
   bottom: "res2_22"
   bottom: "zero_conv2_23"
   top: "zero2_23"
   concat_param {
      axis: 1
   }
}

layer {
   name: "res2_23"
   type: "Eltwise"
   bottom: "zero2_23"
   bottom: "conv2_23_3"
   top: "res2_23"
   eltwise_param {
      operation: SUM 
   }
}

layer {
   name: "bn2_24"
   type: "BatchNorm"
   bottom: "res2_23"
   top: "bn2_24"
   param {
      lr_mult: 0
   }
   param {
      lr_mult: 0
   }
   param {
      lr_mult: 0
   }
   batch_norm_param {
      use_global_stats: true
   }
}

layer {
   name: "scale2_24"
   type: "Scale"
   bottom: "bn2_24"
   top: "bn2_24"
   scale_param {
      bias_term: true
   }
}

layer {
   name: "conv2_24_1"
   type: "Convolution"
   bottom: "bn2_24"
   top: "conv2_24_1"
   param {
      lr_mult: 1
      decay_mult: 1
   }
   convolution_param {
      num_output: 187
      bias_term: false
      pad: 0
      kernel_size: 1
      stride: 1
      weight_filler {
         type: "msra"
      }
   }
}

layer {
   name: "bn2_24_1"
   type: "BatchNorm"
   bottom: "conv2_24_1"
   top: "conv2_24_1"
   param {
      lr_mult: 0
   }
   param {
      lr_mult: 0
   }
   param {
      lr_mult: 0
   }
   batch_norm_param {
      use_global_stats: true
   }
}

layer {
   name: "scale2_24_1"
   type: "Scale"
   bottom: "conv2_24_1"
   top: "conv2_24_1"
   scale_param {
      bias_term: true
   }
}

layer {
   name: "relu2_24_1"
   type: "ReLU"
   bottom: "conv2_24_1"
   top: "conv2_24_1"
}

layer {
   name: "conv2_24_2"
   type: "Convolution"
   bottom: "conv2_24_1"
   top: "conv2_24_2"
   param {
      lr_mult: 1
      decay_mult: 1
   }
   convolution_param {
      num_output: 187
      bias_term: false
      pad: 1
      kernel_size: 3
      stride: 1
      weight_filler {
         type: "msra"
      }
   }
}

layer {
   name: "bn2_24_2"
   type: "BatchNorm"
   bottom: "conv2_24_2"
   top: "conv2_24_2"
   param {
      lr_mult: 0
   }
   param {
      lr_mult: 0
   }
   param {
      lr_mult: 0
   }
   batch_norm_param {
      use_global_stats: true
   }
}

layer {
   name: "scale2_24_2"
   type: "Scale"
   bottom: "conv2_24_2"
   top: "conv2_24_2"
   scale_param {
      bias_term: true
   }
}

layer {
   name: "relu2_24_2"
   type: "ReLU"
   bottom: "conv2_24_2"
   top: "conv2_24_2"
}

layer {
   name: "conv2_24_3"
   type: "Convolution"
   bottom: "conv2_24_2"
   top: "conv2_24_3"
   param {
      lr_mult: 1
      decay_mult: 1
   }
   convolution_param {
      num_output: 748
      bias_term: false
      pad: 0
      kernel_size: 1
      stride: 1
      weight_filler {
         type: "msra"
      }
   }
}

layer {
   name: "bn2_24_3"
   type: "BatchNorm"
   bottom: "conv2_24_3"
   top: "conv2_24_3"
   param {
      lr_mult: 0
   }
   param {
      lr_mult: 0
   }
   param {
      lr_mult: 0
   }
   batch_norm_param {
      use_global_stats: true
   }
}

layer {
   name: "scale2_24_3"
   type: "Scale"
   bottom: "conv2_24_3"
   top: "conv2_24_3"
   scale_param {
      bias_term: true
   }
}

layer {
   name: "zero_conv2_24"
   type: "Convolution"
   bottom: "res2_23"
   top: "zero_conv2_24"
   param {
      lr_mult: 0
      decay_mult: 0
   }
   convolution_param {
      num_output: 20
      bias_term: false
      pad: 0
      kernel_size: 1
      stride: 1
      weight_filler {
         type: "constant"
         value: 0.0
      }
   }
}

layer {
   name: "zero2_24"
   type: "Concat"
   bottom: "res2_23"
   bottom: "zero_conv2_24"
   top: "zero2_24"
   concat_param {
      axis: 1
   }
}

layer {
   name: "res2_24"
   type: "Eltwise"
   bottom: "zero2_24"
   bottom: "conv2_24_3"
   top: "res2_24"
   eltwise_param {
      operation: SUM 
   }
}

layer {
   name: "bn3_1"
   type: "BatchNorm"
   bottom: "res2_24"
   top: "bn3_1"
   param {
      lr_mult: 0
   }
   param {
      lr_mult: 0
   }
   param {
      lr_mult: 0
   }
   batch_norm_param {
      use_global_stats: true
   }
}

layer {
   name: "scale3_1"
   type: "Scale"
   bottom: "bn3_1"
   top: "bn3_1"
   scale_param {
      bias_term: true
   }
}

layer {
   name: "conv3_1_1"
   type: "Convolution"
   bottom: "bn3_1"
   top: "conv3_1_1"
   param {
      lr_mult: 1
      decay_mult: 1
   }
   convolution_param {
      num_output: 191
      bias_term: false
      pad: 0
      kernel_size: 1
      stride: 1
      weight_filler {
         type: "msra"
      }
   }
}

layer {
   name: "bn3_1_1"
   type: "BatchNorm"
   bottom: "conv3_1_1"
   top: "conv3_1_1"
   param {
      lr_mult: 0
   }
   param {
      lr_mult: 0
   }
   param {
      lr_mult: 0
   }
   batch_norm_param {
      use_global_stats: true
   }
}

layer {
   name: "scale3_1_1"
   type: "Scale"
   bottom: "conv3_1_1"
   top: "conv3_1_1"
   scale_param {
      bias_term: true
   }
}

layer {
   name: "relu3_1_1"
   type: "ReLU"
   bottom: "conv3_1_1"
   top: "conv3_1_1"
}

layer {
   name: "conv3_1_2"
   type: "Convolution"
   bottom: "conv3_1_1"
   top: "conv3_1_2"
   param {
      lr_mult: 1
      decay_mult: 1
   }
   convolution_param {
      num_output: 191
      bias_term: false
      pad: 1
      kernel_size: 3
      stride: 2
      weight_filler {
         type: "msra"
      }
   }
}

layer {
   name: "bn3_1_2"
   type: "BatchNorm"
   bottom: "conv3_1_2"
   top: "conv3_1_2"
   param {
      lr_mult: 0
   }
   param {
      lr_mult: 0
   }
   param {
      lr_mult: 0
   }
   batch_norm_param {
      use_global_stats: true
   }
}

layer {
   name: "scale3_1_2"
   type: "Scale"
   bottom: "conv3_1_2"
   top: "conv3_1_2"
   scale_param {
      bias_term: true
   }
}

layer {
   name: "relu3_1_2"
   type: "ReLU"
   bottom: "conv3_1_2"
   top: "conv3_1_2"
}

layer {
   name: "conv3_1_3"
   type: "Convolution"
   bottom: "conv3_1_2"
   top: "conv3_1_3"
   param {
      lr_mult: 1
      decay_mult: 1
   }
   convolution_param {
      num_output: 764
      bias_term: false
      pad: 0
      kernel_size: 1
      stride: 1
      weight_filler {
         type: "msra"
      }
   }
}

layer {
   name: "bn3_1_3"
   type: "BatchNorm"
   bottom: "conv3_1_3"
   top: "conv3_1_3"
   param {
      lr_mult: 0
   }
   param {
      lr_mult: 0
   }
   param {
      lr_mult: 0
   }
   batch_norm_param {
      use_global_stats: true
   }
}

layer {
   name: "scale3_1_3"
   type: "Scale"
   bottom: "conv3_1_3"
   top: "conv3_1_3"
   scale_param {
      bias_term: true
   }
}

layer {
   name: "pool3"
   type: "Pooling"
   bottom: "res2_24"
   top: "pool3"
   pooling_param {
      pool: AVE
      kernel_size: 2
      stride: 2
   }}

layer {
   name: "zero_conv3_1"
   type: "Convolution"
   bottom: "pool3"
   top: "zero_conv3_1"
   param {
      lr_mult: 0
      decay_mult: 0
   }
   convolution_param {
      num_output: 16
      bias_term: false
      pad: 0
      kernel_size: 1
      stride: 1
      weight_filler {
         type: "constant"
         value: 0.0
      }
   }
}

layer {
   name: "zero3_1"
   type: "Concat"
   bottom: "pool3"
   bottom: "zero_conv3_1"
   top: "zero3_1"
   concat_param {
      axis: 1
   }
}

layer {
   name: "res3_1"
   type: "Eltwise"
   bottom: "zero3_1"
   bottom: "conv3_1_3"
   top: "res3_1"
   eltwise_param {
      operation: SUM 
   }
}

layer {
   name: "bn3_2"
   type: "BatchNorm"
   bottom: "res3_1"
   top: "bn3_2"
   param {
      lr_mult: 0
   }
   param {
      lr_mult: 0
   }
   param {
      lr_mult: 0
   }
   batch_norm_param {
      use_global_stats: true
   }
}

layer {
   name: "scale3_2"
   type: "Scale"
   bottom: "bn3_2"
   top: "bn3_2"
   scale_param {
      bias_term: true
   }
}

layer {
   name: "conv3_2_1"
   type: "Convolution"
   bottom: "bn3_2"
   top: "conv3_2_1"
   param {
      lr_mult: 1
      decay_mult: 1
   }
   convolution_param {
      num_output: 196
      bias_term: false
      pad: 0
      kernel_size: 1
      stride: 1
      weight_filler {
         type: "msra"
      }
   }
}

layer {
   name: "bn3_2_1"
   type: "BatchNorm"
   bottom: "conv3_2_1"
   top: "conv3_2_1"
   param {
      lr_mult: 0
   }
   param {
      lr_mult: 0
   }
   param {
      lr_mult: 0
   }
   batch_norm_param {
      use_global_stats: true
   }
}

layer {
   name: "scale3_2_1"
   type: "Scale"
   bottom: "conv3_2_1"
   top: "conv3_2_1"
   scale_param {
      bias_term: true
   }
}

layer {
   name: "relu3_2_1"
   type: "ReLU"
   bottom: "conv3_2_1"
   top: "conv3_2_1"
}

layer {
   name: "conv3_2_2"
   type: "Convolution"
   bottom: "conv3_2_1"
   top: "conv3_2_2"
   param {
      lr_mult: 1
      decay_mult: 1
   }
   convolution_param {
      num_output: 196
      bias_term: false
      pad: 1
      kernel_size: 3
      stride: 1
      weight_filler {
         type: "msra"
      }
   }
}

layer {
   name: "bn3_2_2"
   type: "BatchNorm"
   bottom: "conv3_2_2"
   top: "conv3_2_2"
   param {
      lr_mult: 0
   }
   param {
      lr_mult: 0
   }
   param {
      lr_mult: 0
   }
   batch_norm_param {
      use_global_stats: true
   }
}

layer {
   name: "scale3_2_2"
   type: "Scale"
   bottom: "conv3_2_2"
   top: "conv3_2_2"
   scale_param {
      bias_term: true
   }
}

layer {
   name: "relu3_2_2"
   type: "ReLU"
   bottom: "conv3_2_2"
   top: "conv3_2_2"
}

layer {
   name: "conv3_2_3"
   type: "Convolution"
   bottom: "conv3_2_2"
   top: "conv3_2_3"
   param {
      lr_mult: 1
      decay_mult: 1
   }
   convolution_param {
      num_output: 784
      bias_term: false
      pad: 0
      kernel_size: 1
      stride: 1
      weight_filler {
         type: "msra"
      }
   }
}

layer {
   name: "bn3_2_3"
   type: "BatchNorm"
   bottom: "conv3_2_3"
   top: "conv3_2_3"
   param {
      lr_mult: 0
   }
   param {
      lr_mult: 0
   }
   param {
      lr_mult: 0
   }
   batch_norm_param {
      use_global_stats: true
   }
}

layer {
   name: "scale3_2_3"
   type: "Scale"
   bottom: "conv3_2_3"
   top: "conv3_2_3"
   scale_param {
      bias_term: true
   }
}

layer {
   name: "zero_conv3_2"
   type: "Convolution"
   bottom: "res3_1"
   top: "zero_conv3_2"
   param {
      lr_mult: 0
      decay_mult: 0
   }
   convolution_param {
      num_output: 20
      bias_term: false
      pad: 0
      kernel_size: 1
      stride: 1
      weight_filler {
         type: "constant"
         value: 0.0
      }
   }
}

layer {
   name: "zero3_2"
   type: "Concat"
   bottom: "res3_1"
   bottom: "zero_conv3_2"
   top: "zero3_2"
   concat_param {
      axis: 1
   }
}

layer {
   name: "res3_2"
   type: "Eltwise"
   bottom: "zero3_2"
   bottom: "conv3_2_3"
   top: "res3_2"
   eltwise_param {
      operation: SUM 
   }
}

layer {
   name: "bn3_3"
   type: "BatchNorm"
   bottom: "res3_2"
   top: "bn3_3"
   param {
      lr_mult: 0
   }
   param {
      lr_mult: 0
   }
   param {
      lr_mult: 0
   }
   batch_norm_param {
      use_global_stats: true
   }
}

layer {
   name: "scale3_3"
   type: "Scale"
   bottom: "bn3_3"
   top: "bn3_3"
   scale_param {
      bias_term: true
   }
}

layer {
   name: "conv3_3_1"
   type: "Convolution"
   bottom: "bn3_3"
   top: "conv3_3_1"
   param {
      lr_mult: 1
      decay_mult: 1
   }
   convolution_param {
      num_output: 200
      bias_term: false
      pad: 0
      kernel_size: 1
      stride: 1
      weight_filler {
         type: "msra"
      }
   }
}

layer {
   name: "bn3_3_1"
   type: "BatchNorm"
   bottom: "conv3_3_1"
   top: "conv3_3_1"
   param {
      lr_mult: 0
   }
   param {
      lr_mult: 0
   }
   param {
      lr_mult: 0
   }
   batch_norm_param {
      use_global_stats: true
   }
}

layer {
   name: "scale3_3_1"
   type: "Scale"
   bottom: "conv3_3_1"
   top: "conv3_3_1"
   scale_param {
      bias_term: true
   }
}

layer {
   name: "relu3_3_1"
   type: "ReLU"
   bottom: "conv3_3_1"
   top: "conv3_3_1"
}

layer {
   name: "conv3_3_2"
   type: "Convolution"
   bottom: "conv3_3_1"
   top: "conv3_3_2"
   param {
      lr_mult: 1
      decay_mult: 1
   }
   convolution_param {
      num_output: 200
      bias_term: false
      pad: 1
      kernel_size: 3
      stride: 1
      weight_filler {
         type: "msra"
      }
   }
}

layer {
   name: "bn3_3_2"
   type: "BatchNorm"
   bottom: "conv3_3_2"
   top: "conv3_3_2"
   param {
      lr_mult: 0
   }
   param {
      lr_mult: 0
   }
   param {
      lr_mult: 0
   }
   batch_norm_param {
      use_global_stats: true
   }
}

layer {
   name: "scale3_3_2"
   type: "Scale"
   bottom: "conv3_3_2"
   top: "conv3_3_2"
   scale_param {
      bias_term: true
   }
}

layer {
   name: "relu3_3_2"
   type: "ReLU"
   bottom: "conv3_3_2"
   top: "conv3_3_2"
}

layer {
   name: "conv3_3_3"
   type: "Convolution"
   bottom: "conv3_3_2"
   top: "conv3_3_3"
   param {
      lr_mult: 1
      decay_mult: 1
   }
   convolution_param {
      num_output: 800
      bias_term: false
      pad: 0
      kernel_size: 1
      stride: 1
      weight_filler {
         type: "msra"
      }
   }
}

layer {
   name: "bn3_3_3"
   type: "BatchNorm"
   bottom: "conv3_3_3"
   top: "conv3_3_3"
   param {
      lr_mult: 0
   }
   param {
      lr_mult: 0
   }
   param {
      lr_mult: 0
   }
   batch_norm_param {
      use_global_stats: true
   }
}

layer {
   name: "scale3_3_3"
   type: "Scale"
   bottom: "conv3_3_3"
   top: "conv3_3_3"
   scale_param {
      bias_term: true
   }
}

layer {
   name: "zero_conv3_3"
   type: "Convolution"
   bottom: "res3_2"
   top: "zero_conv3_3"
   param {
      lr_mult: 0
      decay_mult: 0
   }
   convolution_param {
      num_output: 16
      bias_term: false
      pad: 0
      kernel_size: 1
      stride: 1
      weight_filler {
         type: "constant"
         value: 0.0
      }
   }
}

layer {
   name: "zero3_3"
   type: "Concat"
   bottom: "res3_2"
   bottom: "zero_conv3_3"
   top: "zero3_3"
   concat_param {
      axis: 1
   }
}

layer {
   name: "res3_3"
   type: "Eltwise"
   bottom: "zero3_3"
   bottom: "conv3_3_3"
   top: "res3_3"
   eltwise_param {
      operation: SUM 
   }
}

layer {
   name: "bn3_4"
   type: "BatchNorm"
   bottom: "res3_3"
   top: "bn3_4"
   param {
      lr_mult: 0
   }
   param {
      lr_mult: 0
   }
   param {
      lr_mult: 0
   }
   batch_norm_param {
      use_global_stats: true
   }
}

layer {
   name: "scale3_4"
   type: "Scale"
   bottom: "bn3_4"
   top: "bn3_4"
   scale_param {
      bias_term: true
   }
}

layer {
   name: "conv3_4_1"
   type: "Convolution"
   bottom: "bn3_4"
   top: "conv3_4_1"
   param {
      lr_mult: 1
      decay_mult: 1
   }
   convolution_param {
      num_output: 205
      bias_term: false
      pad: 0
      kernel_size: 1
      stride: 1
      weight_filler {
         type: "msra"
      }
   }
}

layer {
   name: "bn3_4_1"
   type: "BatchNorm"
   bottom: "conv3_4_1"
   top: "conv3_4_1"
   param {
      lr_mult: 0
   }
   param {
      lr_mult: 0
   }
   param {
      lr_mult: 0
   }
   batch_norm_param {
      use_global_stats: true
   }
}

layer {
   name: "scale3_4_1"
   type: "Scale"
   bottom: "conv3_4_1"
   top: "conv3_4_1"
   scale_param {
      bias_term: true
   }
}

layer {
   name: "relu3_4_1"
   type: "ReLU"
   bottom: "conv3_4_1"
   top: "conv3_4_1"
}

layer {
   name: "conv3_4_2"
   type: "Convolution"
   bottom: "conv3_4_1"
   top: "conv3_4_2"
   param {
      lr_mult: 1
      decay_mult: 1
   }
   convolution_param {
      num_output: 205
      bias_term: false
      pad: 1
      kernel_size: 3
      stride: 1
      weight_filler {
         type: "msra"
      }
   }
}

layer {
   name: "bn3_4_2"
   type: "BatchNorm"
   bottom: "conv3_4_2"
   top: "conv3_4_2"
   param {
      lr_mult: 0
   }
   param {
      lr_mult: 0
   }
   param {
      lr_mult: 0
   }
   batch_norm_param {
      use_global_stats: true
   }
}

layer {
   name: "scale3_4_2"
   type: "Scale"
   bottom: "conv3_4_2"
   top: "conv3_4_2"
   scale_param {
      bias_term: true
   }
}

layer {
   name: "relu3_4_2"
   type: "ReLU"
   bottom: "conv3_4_2"
   top: "conv3_4_2"
}

layer {
   name: "conv3_4_3"
   type: "Convolution"
   bottom: "conv3_4_2"
   top: "conv3_4_3"
   param {
      lr_mult: 1
      decay_mult: 1
   }
   convolution_param {
      num_output: 820
      bias_term: false
      pad: 0
      kernel_size: 1
      stride: 1
      weight_filler {
         type: "msra"
      }
   }
}

layer {
   name: "bn3_4_3"
   type: "BatchNorm"
   bottom: "conv3_4_3"
   top: "conv3_4_3"
   param {
      lr_mult: 0
   }
   param {
      lr_mult: 0
   }
   param {
      lr_mult: 0
   }
   batch_norm_param {
      use_global_stats: true
   }
}

layer {
   name: "scale3_4_3"
   type: "Scale"
   bottom: "conv3_4_3"
   top: "conv3_4_3"
   scale_param {
      bias_term: true
   }
}

layer {
   name: "zero_conv3_4"
   type: "Convolution"
   bottom: "res3_3"
   top: "zero_conv3_4"
   param {
      lr_mult: 0
      decay_mult: 0
   }
   convolution_param {
      num_output: 20
      bias_term: false
      pad: 0
      kernel_size: 1
      stride: 1
      weight_filler {
         type: "constant"
         value: 0.0
      }
   }
}

layer {
   name: "zero3_4"
   type: "Concat"
   bottom: "res3_3"
   bottom: "zero_conv3_4"
   top: "zero3_4"
   concat_param {
      axis: 1
   }
}

layer {
   name: "res3_4"
   type: "Eltwise"
   bottom: "zero3_4"
   bottom: "conv3_4_3"
   top: "res3_4"
   eltwise_param {
      operation: SUM 
   }
}

layer {
   name: "bn3_5"
   type: "BatchNorm"
   bottom: "res3_4"
   top: "bn3_5"
   param {
      lr_mult: 0
   }
   param {
      lr_mult: 0
   }
   param {
      lr_mult: 0
   }
   batch_norm_param {
      use_global_stats: true
   }
}

layer {
   name: "scale3_5"
   type: "Scale"
   bottom: "bn3_5"
   top: "bn3_5"
   scale_param {
      bias_term: true
   }
}

layer {
   name: "conv3_5_1"
   type: "Convolution"
   bottom: "bn3_5"
   top: "conv3_5_1"
   param {
      lr_mult: 1
      decay_mult: 1
   }
   convolution_param {
      num_output: 209
      bias_term: false
      pad: 0
      kernel_size: 1
      stride: 1
      weight_filler {
         type: "msra"
      }
   }
}

layer {
   name: "bn3_5_1"
   type: "BatchNorm"
   bottom: "conv3_5_1"
   top: "conv3_5_1"
   param {
      lr_mult: 0
   }
   param {
      lr_mult: 0
   }
   param {
      lr_mult: 0
   }
   batch_norm_param {
      use_global_stats: true
   }
}

layer {
   name: "scale3_5_1"
   type: "Scale"
   bottom: "conv3_5_1"
   top: "conv3_5_1"
   scale_param {
      bias_term: true
   }
}

layer {
   name: "relu3_5_1"
   type: "ReLU"
   bottom: "conv3_5_1"
   top: "conv3_5_1"
}

layer {
   name: "conv3_5_2"
   type: "Convolution"
   bottom: "conv3_5_1"
   top: "conv3_5_2"
   param {
      lr_mult: 1
      decay_mult: 1
   }
   convolution_param {
      num_output: 209
      bias_term: false
      pad: 1
      kernel_size: 3
      stride: 1
      weight_filler {
         type: "msra"
      }
   }
}

layer {
   name: "bn3_5_2"
   type: "BatchNorm"
   bottom: "conv3_5_2"
   top: "conv3_5_2"
   param {
      lr_mult: 0
   }
   param {
      lr_mult: 0
   }
   param {
      lr_mult: 0
   }
   batch_norm_param {
      use_global_stats: true
   }
}

layer {
   name: "scale3_5_2"
   type: "Scale"
   bottom: "conv3_5_2"
   top: "conv3_5_2"
   scale_param {
      bias_term: true
   }
}

layer {
   name: "relu3_5_2"
   type: "ReLU"
   bottom: "conv3_5_2"
   top: "conv3_5_2"
}

layer {
   name: "conv3_5_3"
   type: "Convolution"
   bottom: "conv3_5_2"
   top: "conv3_5_3"
   param {
      lr_mult: 1
      decay_mult: 1
   }
   convolution_param {
      num_output: 836
      bias_term: false
      pad: 0
      kernel_size: 1
      stride: 1
      weight_filler {
         type: "msra"
      }
   }
}

layer {
   name: "bn3_5_3"
   type: "BatchNorm"
   bottom: "conv3_5_3"
   top: "conv3_5_3"
   param {
      lr_mult: 0
   }
   param {
      lr_mult: 0
   }
   param {
      lr_mult: 0
   }
   batch_norm_param {
      use_global_stats: true
   }
}

layer {
   name: "scale3_5_3"
   type: "Scale"
   bottom: "conv3_5_3"
   top: "conv3_5_3"
   scale_param {
      bias_term: true
   }
}

layer {
   name: "zero_conv3_5"
   type: "Convolution"
   bottom: "res3_4"
   top: "zero_conv3_5"
   param {
      lr_mult: 0
      decay_mult: 0
   }
   convolution_param {
      num_output: 16
      bias_term: false
      pad: 0
      kernel_size: 1
      stride: 1
      weight_filler {
         type: "constant"
         value: 0.0
      }
   }
}

layer {
   name: "zero3_5"
   type: "Concat"
   bottom: "res3_4"
   bottom: "zero_conv3_5"
   top: "zero3_5"
   concat_param {
      axis: 1
   }
}

layer {
   name: "res3_5"
   type: "Eltwise"
   bottom: "zero3_5"
   bottom: "conv3_5_3"
   top: "res3_5"
   eltwise_param {
      operation: SUM 
   }
}

layer {
   name: "bn3_6"
   type: "BatchNorm"
   bottom: "res3_5"
   top: "bn3_6"
   param {
      lr_mult: 0
   }
   param {
      lr_mult: 0
   }
   param {
      lr_mult: 0
   }
   batch_norm_param {
      use_global_stats: true
   }
}

layer {
   name: "scale3_6"
   type: "Scale"
   bottom: "bn3_6"
   top: "bn3_6"
   scale_param {
      bias_term: true
   }
}

layer {
   name: "conv3_6_1"
   type: "Convolution"
   bottom: "bn3_6"
   top: "conv3_6_1"
   param {
      lr_mult: 1
      decay_mult: 1
   }
   convolution_param {
      num_output: 214
      bias_term: false
      pad: 0
      kernel_size: 1
      stride: 1
      weight_filler {
         type: "msra"
      }
   }
}

layer {
   name: "bn3_6_1"
   type: "BatchNorm"
   bottom: "conv3_6_1"
   top: "conv3_6_1"
   param {
      lr_mult: 0
   }
   param {
      lr_mult: 0
   }
   param {
      lr_mult: 0
   }
   batch_norm_param {
      use_global_stats: true
   }
}

layer {
   name: "scale3_6_1"
   type: "Scale"
   bottom: "conv3_6_1"
   top: "conv3_6_1"
   scale_param {
      bias_term: true
   }
}

layer {
   name: "relu3_6_1"
   type: "ReLU"
   bottom: "conv3_6_1"
   top: "conv3_6_1"
}

layer {
   name: "conv3_6_2"
   type: "Convolution"
   bottom: "conv3_6_1"
   top: "conv3_6_2"
   param {
      lr_mult: 1
      decay_mult: 1
   }
   convolution_param {
      num_output: 214
      bias_term: false
      pad: 1
      kernel_size: 3
      stride: 1
      weight_filler {
         type: "msra"
      }
   }
}

layer {
   name: "bn3_6_2"
   type: "BatchNorm"
   bottom: "conv3_6_2"
   top: "conv3_6_2"
   param {
      lr_mult: 0
   }
   param {
      lr_mult: 0
   }
   param {
      lr_mult: 0
   }
   batch_norm_param {
      use_global_stats: true
   }
}

layer {
   name: "scale3_6_2"
   type: "Scale"
   bottom: "conv3_6_2"
   top: "conv3_6_2"
   scale_param {
      bias_term: true
   }
}

layer {
   name: "relu3_6_2"
   type: "ReLU"
   bottom: "conv3_6_2"
   top: "conv3_6_2"
}

layer {
   name: "conv3_6_3"
   type: "Convolution"
   bottom: "conv3_6_2"
   top: "conv3_6_3"
   param {
      lr_mult: 1
      decay_mult: 1
   }
   convolution_param {
      num_output: 856
      bias_term: false
      pad: 0
      kernel_size: 1
      stride: 1
      weight_filler {
         type: "msra"
      }
   }
}

layer {
   name: "bn3_6_3"
   type: "BatchNorm"
   bottom: "conv3_6_3"
   top: "conv3_6_3"
   param {
      lr_mult: 0
   }
   param {
      lr_mult: 0
   }
   param {
      lr_mult: 0
   }
   batch_norm_param {
      use_global_stats: true
   }
}

layer {
   name: "scale3_6_3"
   type: "Scale"
   bottom: "conv3_6_3"
   top: "conv3_6_3"
   scale_param {
      bias_term: true
   }
}

layer {
   name: "zero_conv3_6"
   type: "Convolution"
   bottom: "res3_5"
   top: "zero_conv3_6"
   param {
      lr_mult: 0
      decay_mult: 0
   }
   convolution_param {
      num_output: 20
      bias_term: false
      pad: 0
      kernel_size: 1
      stride: 1
      weight_filler {
         type: "constant"
         value: 0.0
      }
   }
}

layer {
   name: "zero3_6"
   type: "Concat"
   bottom: "res3_5"
   bottom: "zero_conv3_6"
   top: "zero3_6"
   concat_param {
      axis: 1
   }
}

layer {
   name: "res3_6"
   type: "Eltwise"
   bottom: "zero3_6"
   bottom: "conv3_6_3"
   top: "res3_6"
   eltwise_param {
      operation: SUM 
   }
}

layer {
   name: "bn3_7"
   type: "BatchNorm"
   bottom: "res3_6"
   top: "bn3_7"
   param {
      lr_mult: 0
   }
   param {
      lr_mult: 0
   }
   param {
      lr_mult: 0
   }
   batch_norm_param {
      use_global_stats: true
   }
}

layer {
   name: "scale3_7"
   type: "Scale"
   bottom: "bn3_7"
   top: "bn3_7"
   scale_param {
      bias_term: true
   }
}

layer {
   name: "conv3_7_1"
   type: "Convolution"
   bottom: "bn3_7"
   top: "conv3_7_1"
   param {
      lr_mult: 1
      decay_mult: 1
   }
   convolution_param {
      num_output: 219
      bias_term: false
      pad: 0
      kernel_size: 1
      stride: 1
      weight_filler {
         type: "msra"
      }
   }
}

layer {
   name: "bn3_7_1"
   type: "BatchNorm"
   bottom: "conv3_7_1"
   top: "conv3_7_1"
   param {
      lr_mult: 0
   }
   param {
      lr_mult: 0
   }
   param {
      lr_mult: 0
   }
   batch_norm_param {
      use_global_stats: true
   }
}

layer {
   name: "scale3_7_1"
   type: "Scale"
   bottom: "conv3_7_1"
   top: "conv3_7_1"
   scale_param {
      bias_term: true
   }
}

layer {
   name: "relu3_7_1"
   type: "ReLU"
   bottom: "conv3_7_1"
   top: "conv3_7_1"
}

layer {
   name: "conv3_7_2"
   type: "Convolution"
   bottom: "conv3_7_1"
   top: "conv3_7_2"
   param {
      lr_mult: 1
      decay_mult: 1
   }
   convolution_param {
      num_output: 219
      bias_term: false
      pad: 1
      kernel_size: 3
      stride: 1
      weight_filler {
         type: "msra"
      }
   }
}

layer {
   name: "bn3_7_2"
   type: "BatchNorm"
   bottom: "conv3_7_2"
   top: "conv3_7_2"
   param {
      lr_mult: 0
   }
   param {
      lr_mult: 0
   }
   param {
      lr_mult: 0
   }
   batch_norm_param {
      use_global_stats: true
   }
}

layer {
   name: "scale3_7_2"
   type: "Scale"
   bottom: "conv3_7_2"
   top: "conv3_7_2"
   scale_param {
      bias_term: true
   }
}

layer {
   name: "relu3_7_2"
   type: "ReLU"
   bottom: "conv3_7_2"
   top: "conv3_7_2"
}

layer {
   name: "conv3_7_3"
   type: "Convolution"
   bottom: "conv3_7_2"
   top: "conv3_7_3"
   param {
      lr_mult: 1
      decay_mult: 1
   }
   convolution_param {
      num_output: 876
      bias_term: false
      pad: 0
      kernel_size: 1
      stride: 1
      weight_filler {
         type: "msra"
      }
   }
}

layer {
   name: "bn3_7_3"
   type: "BatchNorm"
   bottom: "conv3_7_3"
   top: "conv3_7_3"
   param {
      lr_mult: 0
   }
   param {
      lr_mult: 0
   }
   param {
      lr_mult: 0
   }
   batch_norm_param {
      use_global_stats: true
   }
}

layer {
   name: "scale3_7_3"
   type: "Scale"
   bottom: "conv3_7_3"
   top: "conv3_7_3"
   scale_param {
      bias_term: true
   }
}

layer {
   name: "zero_conv3_7"
   type: "Convolution"
   bottom: "res3_6"
   top: "zero_conv3_7"
   param {
      lr_mult: 0
      decay_mult: 0
   }
   convolution_param {
      num_output: 20
      bias_term: false
      pad: 0
      kernel_size: 1
      stride: 1
      weight_filler {
         type: "constant"
         value: 0.0
      }
   }
}

layer {
   name: "zero3_7"
   type: "Concat"
   bottom: "res3_6"
   bottom: "zero_conv3_7"
   top: "zero3_7"
   concat_param {
      axis: 1
   }
}

layer {
   name: "res3_7"
   type: "Eltwise"
   bottom: "zero3_7"
   bottom: "conv3_7_3"
   top: "res3_7"
   eltwise_param {
      operation: SUM 
   }
}

layer {
   name: "bn3_8"
   type: "BatchNorm"
   bottom: "res3_7"
   top: "bn3_8"
   param {
      lr_mult: 0
   }
   param {
      lr_mult: 0
   }
   param {
      lr_mult: 0
   }
   batch_norm_param {
      use_global_stats: true
   }
}

layer {
   name: "scale3_8"
   type: "Scale"
   bottom: "bn3_8"
   top: "bn3_8"
   scale_param {
      bias_term: true
   }
}

layer {
   name: "conv3_8_1"
   type: "Convolution"
   bottom: "bn3_8"
   top: "conv3_8_1"
   param {
      lr_mult: 1
      decay_mult: 1
   }
   convolution_param {
      num_output: 223
      bias_term: false
      pad: 0
      kernel_size: 1
      stride: 1
      weight_filler {
         type: "msra"
      }
   }
}

layer {
   name: "bn3_8_1"
   type: "BatchNorm"
   bottom: "conv3_8_1"
   top: "conv3_8_1"
   param {
      lr_mult: 0
   }
   param {
      lr_mult: 0
   }
   param {
      lr_mult: 0
   }
   batch_norm_param {
      use_global_stats: true
   }
}

layer {
   name: "scale3_8_1"
   type: "Scale"
   bottom: "conv3_8_1"
   top: "conv3_8_1"
   scale_param {
      bias_term: true
   }
}

layer {
   name: "relu3_8_1"
   type: "ReLU"
   bottom: "conv3_8_1"
   top: "conv3_8_1"
}

layer {
   name: "conv3_8_2"
   type: "Convolution"
   bottom: "conv3_8_1"
   top: "conv3_8_2"
   param {
      lr_mult: 1
      decay_mult: 1
   }
   convolution_param {
      num_output: 223
      bias_term: false
      pad: 1
      kernel_size: 3
      stride: 1
      weight_filler {
         type: "msra"
      }
   }
}

layer {
   name: "bn3_8_2"
   type: "BatchNorm"
   bottom: "conv3_8_2"
   top: "conv3_8_2"
   param {
      lr_mult: 0
   }
   param {
      lr_mult: 0
   }
   param {
      lr_mult: 0
   }
   batch_norm_param {
      use_global_stats: true
   }
}

layer {
   name: "scale3_8_2"
   type: "Scale"
   bottom: "conv3_8_2"
   top: "conv3_8_2"
   scale_param {
      bias_term: true
   }
}

layer {
   name: "relu3_8_2"
   type: "ReLU"
   bottom: "conv3_8_2"
   top: "conv3_8_2"
}

layer {
   name: "conv3_8_3"
   type: "Convolution"
   bottom: "conv3_8_2"
   top: "conv3_8_3"
   param {
      lr_mult: 1
      decay_mult: 1
   }
   convolution_param {
      num_output: 892
      bias_term: false
      pad: 0
      kernel_size: 1
      stride: 1
      weight_filler {
         type: "msra"
      }
   }
}

layer {
   name: "bn3_8_3"
   type: "BatchNorm"
   bottom: "conv3_8_3"
   top: "conv3_8_3"
   param {
      lr_mult: 0
   }
   param {
      lr_mult: 0
   }
   param {
      lr_mult: 0
   }
   batch_norm_param {
      use_global_stats: true
   }
}

layer {
   name: "scale3_8_3"
   type: "Scale"
   bottom: "conv3_8_3"
   top: "conv3_8_3"
   scale_param {
      bias_term: true
   }
}

layer {
   name: "zero_conv3_8"
   type: "Convolution"
   bottom: "res3_7"
   top: "zero_conv3_8"
   param {
      lr_mult: 0
      decay_mult: 0
   }
   convolution_param {
      num_output: 16
      bias_term: false
      pad: 0
      kernel_size: 1
      stride: 1
      weight_filler {
         type: "constant"
         value: 0.0
      }
   }
}

layer {
   name: "zero3_8"
   type: "Concat"
   bottom: "res3_7"
   bottom: "zero_conv3_8"
   top: "zero3_8"
   concat_param {
      axis: 1
   }
}

layer {
   name: "res3_8"
   type: "Eltwise"
   bottom: "zero3_8"
   bottom: "conv3_8_3"
   top: "res3_8"
   eltwise_param {
      operation: SUM 
   }
}

layer {
   name: "bn3_9"
   type: "BatchNorm"
   bottom: "res3_8"
   top: "bn3_9"
   param {
      lr_mult: 0
   }
   param {
      lr_mult: 0
   }
   param {
      lr_mult: 0
   }
   batch_norm_param {
      use_global_stats: true
   }
}

layer {
   name: "scale3_9"
   type: "Scale"
   bottom: "bn3_9"
   top: "bn3_9"
   scale_param {
      bias_term: true
   }
}

layer {
   name: "conv3_9_1"
   type: "Convolution"
   bottom: "bn3_9"
   top: "conv3_9_1"
   param {
      lr_mult: 1
      decay_mult: 1
   }
   convolution_param {
      num_output: 228
      bias_term: false
      pad: 0
      kernel_size: 1
      stride: 1
      weight_filler {
         type: "msra"
      }
   }
}

layer {
   name: "bn3_9_1"
   type: "BatchNorm"
   bottom: "conv3_9_1"
   top: "conv3_9_1"
   param {
      lr_mult: 0
   }
   param {
      lr_mult: 0
   }
   param {
      lr_mult: 0
   }
   batch_norm_param {
      use_global_stats: true
   }
}

layer {
   name: "scale3_9_1"
   type: "Scale"
   bottom: "conv3_9_1"
   top: "conv3_9_1"
   scale_param {
      bias_term: true
   }
}

layer {
   name: "relu3_9_1"
   type: "ReLU"
   bottom: "conv3_9_1"
   top: "conv3_9_1"
}

layer {
   name: "conv3_9_2"
   type: "Convolution"
   bottom: "conv3_9_1"
   top: "conv3_9_2"
   param {
      lr_mult: 1
      decay_mult: 1
   }
   convolution_param {
      num_output: 228
      bias_term: false
      pad: 1
      kernel_size: 3
      stride: 1
      weight_filler {
         type: "msra"
      }
   }
}

layer {
   name: "bn3_9_2"
   type: "BatchNorm"
   bottom: "conv3_9_2"
   top: "conv3_9_2"
   param {
      lr_mult: 0
   }
   param {
      lr_mult: 0
   }
   param {
      lr_mult: 0
   }
   batch_norm_param {
      use_global_stats: true
   }
}

layer {
   name: "scale3_9_2"
   type: "Scale"
   bottom: "conv3_9_2"
   top: "conv3_9_2"
   scale_param {
      bias_term: true
   }
}

layer {
   name: "relu3_9_2"
   type: "ReLU"
   bottom: "conv3_9_2"
   top: "conv3_9_2"
}

layer {
   name: "conv3_9_3"
   type: "Convolution"
   bottom: "conv3_9_2"
   top: "conv3_9_3"
   param {
      lr_mult: 1
      decay_mult: 1
   }
   convolution_param {
      num_output: 912
      bias_term: false
      pad: 0
      kernel_size: 1
      stride: 1
      weight_filler {
         type: "msra"
      }
   }
}

layer {
   name: "bn3_9_3"
   type: "BatchNorm"
   bottom: "conv3_9_3"
   top: "conv3_9_3"
   param {
      lr_mult: 0
   }
   param {
      lr_mult: 0
   }
   param {
      lr_mult: 0
   }
   batch_norm_param {
      use_global_stats: true
   }
}

layer {
   name: "scale3_9_3"
   type: "Scale"
   bottom: "conv3_9_3"
   top: "conv3_9_3"
   scale_param {
      bias_term: true
   }
}

layer {
   name: "zero_conv3_9"
   type: "Convolution"
   bottom: "res3_8"
   top: "zero_conv3_9"
   param {
      lr_mult: 0
      decay_mult: 0
   }
   convolution_param {
      num_output: 20
      bias_term: false
      pad: 0
      kernel_size: 1
      stride: 1
      weight_filler {
         type: "constant"
         value: 0.0
      }
   }
}

layer {
   name: "zero3_9"
   type: "Concat"
   bottom: "res3_8"
   bottom: "zero_conv3_9"
   top: "zero3_9"
   concat_param {
      axis: 1
   }
}

layer {
   name: "res3_9"
   type: "Eltwise"
   bottom: "zero3_9"
   bottom: "conv3_9_3"
   top: "res3_9"
   eltwise_param {
      operation: SUM 
   }
}

layer {
   name: "bn3_10"
   type: "BatchNorm"
   bottom: "res3_9"
   top: "bn3_10"
   param {
      lr_mult: 0
   }
   param {
      lr_mult: 0
   }
   param {
      lr_mult: 0
   }
   batch_norm_param {
      use_global_stats: true
   }
}

layer {
   name: "scale3_10"
   type: "Scale"
   bottom: "bn3_10"
   top: "bn3_10"
   scale_param {
      bias_term: true
   }
}

layer {
   name: "conv3_10_1"
   type: "Convolution"
   bottom: "bn3_10"
   top: "conv3_10_1"
   param {
      lr_mult: 1
      decay_mult: 1
   }
   convolution_param {
      num_output: 232
      bias_term: false
      pad: 0
      kernel_size: 1
      stride: 1
      weight_filler {
         type: "msra"
      }
   }
}

layer {
   name: "bn3_10_1"
   type: "BatchNorm"
   bottom: "conv3_10_1"
   top: "conv3_10_1"
   param {
      lr_mult: 0
   }
   param {
      lr_mult: 0
   }
   param {
      lr_mult: 0
   }
   batch_norm_param {
      use_global_stats: true
   }
}

layer {
   name: "scale3_10_1"
   type: "Scale"
   bottom: "conv3_10_1"
   top: "conv3_10_1"
   scale_param {
      bias_term: true
   }
}

layer {
   name: "relu3_10_1"
   type: "ReLU"
   bottom: "conv3_10_1"
   top: "conv3_10_1"
}

layer {
   name: "conv3_10_2"
   type: "Convolution"
   bottom: "conv3_10_1"
   top: "conv3_10_2"
   param {
      lr_mult: 1
      decay_mult: 1
   }
   convolution_param {
      num_output: 232
      bias_term: false
      pad: 1
      kernel_size: 3
      stride: 1
      weight_filler {
         type: "msra"
      }
   }
}

layer {
   name: "bn3_10_2"
   type: "BatchNorm"
   bottom: "conv3_10_2"
   top: "conv3_10_2"
   param {
      lr_mult: 0
   }
   param {
      lr_mult: 0
   }
   param {
      lr_mult: 0
   }
   batch_norm_param {
      use_global_stats: true
   }
}

layer {
   name: "scale3_10_2"
   type: "Scale"
   bottom: "conv3_10_2"
   top: "conv3_10_2"
   scale_param {
      bias_term: true
   }
}

layer {
   name: "relu3_10_2"
   type: "ReLU"
   bottom: "conv3_10_2"
   top: "conv3_10_2"
}

layer {
   name: "conv3_10_3"
   type: "Convolution"
   bottom: "conv3_10_2"
   top: "conv3_10_3"
   param {
      lr_mult: 1
      decay_mult: 1
   }
   convolution_param {
      num_output: 928
      bias_term: false
      pad: 0
      kernel_size: 1
      stride: 1
      weight_filler {
         type: "msra"
      }
   }
}

layer {
   name: "bn3_10_3"
   type: "BatchNorm"
   bottom: "conv3_10_3"
   top: "conv3_10_3"
   param {
      lr_mult: 0
   }
   param {
      lr_mult: 0
   }
   param {
      lr_mult: 0
   }
   batch_norm_param {
      use_global_stats: true
   }
}

layer {
   name: "scale3_10_3"
   type: "Scale"
   bottom: "conv3_10_3"
   top: "conv3_10_3"
   scale_param {
      bias_term: true
   }
}

layer {
   name: "zero_conv3_10"
   type: "Convolution"
   bottom: "res3_9"
   top: "zero_conv3_10"
   param {
      lr_mult: 0
      decay_mult: 0
   }
   convolution_param {
      num_output: 16
      bias_term: false
      pad: 0
      kernel_size: 1
      stride: 1
      weight_filler {
         type: "constant"
         value: 0.0
      }
   }
}

layer {
   name: "zero3_10"
   type: "Concat"
   bottom: "res3_9"
   bottom: "zero_conv3_10"
   top: "zero3_10"
   concat_param {
      axis: 1
   }
}

layer {
   name: "res3_10"
   type: "Eltwise"
   bottom: "zero3_10"
   bottom: "conv3_10_3"
   top: "res3_10"
   eltwise_param {
      operation: SUM 
   }
}

layer {
   name: "bn3_11"
   type: "BatchNorm"
   bottom: "res3_10"
   top: "bn3_11"
   param {
      lr_mult: 0
   }
   param {
      lr_mult: 0
   }
   param {
      lr_mult: 0
   }
   batch_norm_param {
      use_global_stats: true
   }
}

layer {
   name: "scale3_11"
   type: "Scale"
   bottom: "bn3_11"
   top: "bn3_11"
   scale_param {
      bias_term: true
   }
}

layer {
   name: "conv3_11_1"
   type: "Convolution"
   bottom: "bn3_11"
   top: "conv3_11_1"
   param {
      lr_mult: 1
      decay_mult: 1
   }
   convolution_param {
      num_output: 237
      bias_term: false
      pad: 0
      kernel_size: 1
      stride: 1
      weight_filler {
         type: "msra"
      }
   }
}

layer {
   name: "bn3_11_1"
   type: "BatchNorm"
   bottom: "conv3_11_1"
   top: "conv3_11_1"
   param {
      lr_mult: 0
   }
   param {
      lr_mult: 0
   }
   param {
      lr_mult: 0
   }
   batch_norm_param {
      use_global_stats: true
   }
}

layer {
   name: "scale3_11_1"
   type: "Scale"
   bottom: "conv3_11_1"
   top: "conv3_11_1"
   scale_param {
      bias_term: true
   }
}

layer {
   name: "relu3_11_1"
   type: "ReLU"
   bottom: "conv3_11_1"
   top: "conv3_11_1"
}

layer {
   name: "conv3_11_2"
   type: "Convolution"
   bottom: "conv3_11_1"
   top: "conv3_11_2"
   param {
      lr_mult: 1
      decay_mult: 1
   }
   convolution_param {
      num_output: 237
      bias_term: false
      pad: 1
      kernel_size: 3
      stride: 1
      weight_filler {
         type: "msra"
      }
   }
}

layer {
   name: "bn3_11_2"
   type: "BatchNorm"
   bottom: "conv3_11_2"
   top: "conv3_11_2"
   param {
      lr_mult: 0
   }
   param {
      lr_mult: 0
   }
   param {
      lr_mult: 0
   }
   batch_norm_param {
      use_global_stats: true
   }
}

layer {
   name: "scale3_11_2"
   type: "Scale"
   bottom: "conv3_11_2"
   top: "conv3_11_2"
   scale_param {
      bias_term: true
   }
}

layer {
   name: "relu3_11_2"
   type: "ReLU"
   bottom: "conv3_11_2"
   top: "conv3_11_2"
}

layer {
   name: "conv3_11_3"
   type: "Convolution"
   bottom: "conv3_11_2"
   top: "conv3_11_3"
   param {
      lr_mult: 1
      decay_mult: 1
   }
   convolution_param {
      num_output: 948
      bias_term: false
      pad: 0
      kernel_size: 1
      stride: 1
      weight_filler {
         type: "msra"
      }
   }
}

layer {
   name: "bn3_11_3"
   type: "BatchNorm"
   bottom: "conv3_11_3"
   top: "conv3_11_3"
   param {
      lr_mult: 0
   }
   param {
      lr_mult: 0
   }
   param {
      lr_mult: 0
   }
   batch_norm_param {
      use_global_stats: true
   }
}

layer {
   name: "scale3_11_3"
   type: "Scale"
   bottom: "conv3_11_3"
   top: "conv3_11_3"
   scale_param {
      bias_term: true
   }
}

layer {
   name: "zero_conv3_11"
   type: "Convolution"
   bottom: "res3_10"
   top: "zero_conv3_11"
   param {
      lr_mult: 0
      decay_mult: 0
   }
   convolution_param {
      num_output: 20
      bias_term: false
      pad: 0
      kernel_size: 1
      stride: 1
      weight_filler {
         type: "constant"
         value: 0.0
      }
   }
}

layer {
   name: "zero3_11"
   type: "Concat"
   bottom: "res3_10"
   bottom: "zero_conv3_11"
   top: "zero3_11"
   concat_param {
      axis: 1
   }
}

layer {
   name: "res3_11"
   type: "Eltwise"
   bottom: "zero3_11"
   bottom: "conv3_11_3"
   top: "res3_11"
   eltwise_param {
      operation: SUM 
   }
}

layer {
   name: "bn3_12"
   type: "BatchNorm"
   bottom: "res3_11"
   top: "bn3_12"
   param {
      lr_mult: 0
   }
   param {
      lr_mult: 0
   }
   param {
      lr_mult: 0
   }
   batch_norm_param {
      use_global_stats: true
   }
}

layer {
   name: "scale3_12"
   type: "Scale"
   bottom: "bn3_12"
   top: "bn3_12"
   scale_param {
      bias_term: true
   }
}

layer {
   name: "conv3_12_1"
   type: "Convolution"
   bottom: "bn3_12"
   top: "conv3_12_1"
   param {
      lr_mult: 1
      decay_mult: 1
   }
   convolution_param {
      num_output: 241
      bias_term: false
      pad: 0
      kernel_size: 1
      stride: 1
      weight_filler {
         type: "msra"
      }
   }
}

layer {
   name: "bn3_12_1"
   type: "BatchNorm"
   bottom: "conv3_12_1"
   top: "conv3_12_1"
   param {
      lr_mult: 0
   }
   param {
      lr_mult: 0
   }
   param {
      lr_mult: 0
   }
   batch_norm_param {
      use_global_stats: true
   }
}

layer {
   name: "scale3_12_1"
   type: "Scale"
   bottom: "conv3_12_1"
   top: "conv3_12_1"
   scale_param {
      bias_term: true
   }
}

layer {
   name: "relu3_12_1"
   type: "ReLU"
   bottom: "conv3_12_1"
   top: "conv3_12_1"
}

layer {
   name: "conv3_12_2"
   type: "Convolution"
   bottom: "conv3_12_1"
   top: "conv3_12_2"
   param {
      lr_mult: 1
      decay_mult: 1
   }
   convolution_param {
      num_output: 241
      bias_term: false
      pad: 1
      kernel_size: 3
      stride: 1
      weight_filler {
         type: "msra"
      }
   }
}

layer {
   name: "bn3_12_2"
   type: "BatchNorm"
   bottom: "conv3_12_2"
   top: "conv3_12_2"
   param {
      lr_mult: 0
   }
   param {
      lr_mult: 0
   }
   param {
      lr_mult: 0
   }
   batch_norm_param {
      use_global_stats: true
   }
}

layer {
   name: "scale3_12_2"
   type: "Scale"
   bottom: "conv3_12_2"
   top: "conv3_12_2"
   scale_param {
      bias_term: true
   }
}

layer {
   name: "relu3_12_2"
   type: "ReLU"
   bottom: "conv3_12_2"
   top: "conv3_12_2"
}

layer {
   name: "conv3_12_3"
   type: "Convolution"
   bottom: "conv3_12_2"
   top: "conv3_12_3"
   param {
      lr_mult: 1
      decay_mult: 1
   }
   convolution_param {
      num_output: 964
      bias_term: false
      pad: 0
      kernel_size: 1
      stride: 1
      weight_filler {
         type: "msra"
      }
   }
}

layer {
   name: "bn3_12_3"
   type: "BatchNorm"
   bottom: "conv3_12_3"
   top: "conv3_12_3"
   param {
      lr_mult: 0
   }
   param {
      lr_mult: 0
   }
   param {
      lr_mult: 0
   }
   batch_norm_param {
      use_global_stats: true
   }
}

layer {
   name: "scale3_12_3"
   type: "Scale"
   bottom: "conv3_12_3"
   top: "conv3_12_3"
   scale_param {
      bias_term: true
   }
}

layer {
   name: "zero_conv3_12"
   type: "Convolution"
   bottom: "res3_11"
   top: "zero_conv3_12"
   param {
      lr_mult: 0
      decay_mult: 0
   }
   convolution_param {
      num_output: 16
      bias_term: false
      pad: 0
      kernel_size: 1
      stride: 1
      weight_filler {
         type: "constant"
         value: 0.0
      }
   }
}

layer {
   name: "zero3_12"
   type: "Concat"
   bottom: "res3_11"
   bottom: "zero_conv3_12"
   top: "zero3_12"
   concat_param {
      axis: 1
   }
}

layer {
   name: "res3_12"
   type: "Eltwise"
   bottom: "zero3_12"
   bottom: "conv3_12_3"
   top: "res3_12"
   eltwise_param {
      operation: SUM 
   }
}

layer {
   name: "bn3_13"
   type: "BatchNorm"
   bottom: "res3_12"
   top: "bn3_13"
   param {
      lr_mult: 0
   }
   param {
      lr_mult: 0
   }
   param {
      lr_mult: 0
   }
   batch_norm_param {
      use_global_stats: true
   }
}

layer {
   name: "scale3_13"
   type: "Scale"
   bottom: "bn3_13"
   top: "bn3_13"
   scale_param {
      bias_term: true
   }
}

layer {
   name: "conv3_13_1"
   type: "Convolution"
   bottom: "bn3_13"
   top: "conv3_13_1"
   param {
      lr_mult: 1
      decay_mult: 1
   }
   convolution_param {
      num_output: 246
      bias_term: false
      pad: 0
      kernel_size: 1
      stride: 1
      weight_filler {
         type: "msra"
      }
   }
}

layer {
   name: "bn3_13_1"
   type: "BatchNorm"
   bottom: "conv3_13_1"
   top: "conv3_13_1"
   param {
      lr_mult: 0
   }
   param {
      lr_mult: 0
   }
   param {
      lr_mult: 0
   }
   batch_norm_param {
      use_global_stats: true
   }
}

layer {
   name: "scale3_13_1"
   type: "Scale"
   bottom: "conv3_13_1"
   top: "conv3_13_1"
   scale_param {
      bias_term: true
   }
}

layer {
   name: "relu3_13_1"
   type: "ReLU"
   bottom: "conv3_13_1"
   top: "conv3_13_1"
}

layer {
   name: "conv3_13_2"
   type: "Convolution"
   bottom: "conv3_13_1"
   top: "conv3_13_2"
   param {
      lr_mult: 1
      decay_mult: 1
   }
   convolution_param {
      num_output: 246
      bias_term: false
      pad: 1
      kernel_size: 3
      stride: 1
      weight_filler {
         type: "msra"
      }
   }
}

layer {
   name: "bn3_13_2"
   type: "BatchNorm"
   bottom: "conv3_13_2"
   top: "conv3_13_2"
   param {
      lr_mult: 0
   }
   param {
      lr_mult: 0
   }
   param {
      lr_mult: 0
   }
   batch_norm_param {
      use_global_stats: true
   }
}

layer {
   name: "scale3_13_2"
   type: "Scale"
   bottom: "conv3_13_2"
   top: "conv3_13_2"
   scale_param {
      bias_term: true
   }
}

layer {
   name: "relu3_13_2"
   type: "ReLU"
   bottom: "conv3_13_2"
   top: "conv3_13_2"
}

layer {
   name: "conv3_13_3"
   type: "Convolution"
   bottom: "conv3_13_2"
   top: "conv3_13_3"
   param {
      lr_mult: 1
      decay_mult: 1
   }
   convolution_param {
      num_output: 984
      bias_term: false
      pad: 0
      kernel_size: 1
      stride: 1
      weight_filler {
         type: "msra"
      }
   }
}

layer {
   name: "bn3_13_3"
   type: "BatchNorm"
   bottom: "conv3_13_3"
   top: "conv3_13_3"
   param {
      lr_mult: 0
   }
   param {
      lr_mult: 0
   }
   param {
      lr_mult: 0
   }
   batch_norm_param {
      use_global_stats: true
   }
}

layer {
   name: "scale3_13_3"
   type: "Scale"
   bottom: "conv3_13_3"
   top: "conv3_13_3"
   scale_param {
      bias_term: true
   }
}

layer {
   name: "zero_conv3_13"
   type: "Convolution"
   bottom: "res3_12"
   top: "zero_conv3_13"
   param {
      lr_mult: 0
      decay_mult: 0
   }
   convolution_param {
      num_output: 20
      bias_term: false
      pad: 0
      kernel_size: 1
      stride: 1
      weight_filler {
         type: "constant"
         value: 0.0
      }
   }
}

layer {
   name: "zero3_13"
   type: "Concat"
   bottom: "res3_12"
   bottom: "zero_conv3_13"
   top: "zero3_13"
   concat_param {
      axis: 1
   }
}

layer {
   name: "res3_13"
   type: "Eltwise"
   bottom: "zero3_13"
   bottom: "conv3_13_3"
   top: "res3_13"
   eltwise_param {
      operation: SUM 
   }
}

layer {
   name: "bn3_14"
   type: "BatchNorm"
   bottom: "res3_13"
   top: "bn3_14"
   param {
      lr_mult: 0
   }
   param {
      lr_mult: 0
   }
   param {
      lr_mult: 0
   }
   batch_norm_param {
      use_global_stats: true
   }
}

layer {
   name: "scale3_14"
   type: "Scale"
   bottom: "bn3_14"
   top: "bn3_14"
   scale_param {
      bias_term: true
   }
}

layer {
   name: "conv3_14_1"
   type: "Convolution"
   bottom: "bn3_14"
   top: "conv3_14_1"
   param {
      lr_mult: 1
      decay_mult: 1
   }
   convolution_param {
      num_output: 250
      bias_term: false
      pad: 0
      kernel_size: 1
      stride: 1
      weight_filler {
         type: "msra"
      }
   }
}

layer {
   name: "bn3_14_1"
   type: "BatchNorm"
   bottom: "conv3_14_1"
   top: "conv3_14_1"
   param {
      lr_mult: 0
   }
   param {
      lr_mult: 0
   }
   param {
      lr_mult: 0
   }
   batch_norm_param {
      use_global_stats: true
   }
}

layer {
   name: "scale3_14_1"
   type: "Scale"
   bottom: "conv3_14_1"
   top: "conv3_14_1"
   scale_param {
      bias_term: true
   }
}

layer {
   name: "relu3_14_1"
   type: "ReLU"
   bottom: "conv3_14_1"
   top: "conv3_14_1"
}

layer {
   name: "conv3_14_2"
   type: "Convolution"
   bottom: "conv3_14_1"
   top: "conv3_14_2"
   param {
      lr_mult: 1
      decay_mult: 1
   }
   convolution_param {
      num_output: 250
      bias_term: false
      pad: 1
      kernel_size: 3
      stride: 1
      weight_filler {
         type: "msra"
      }
   }
}

layer {
   name: "bn3_14_2"
   type: "BatchNorm"
   bottom: "conv3_14_2"
   top: "conv3_14_2"
   param {
      lr_mult: 0
   }
   param {
      lr_mult: 0
   }
   param {
      lr_mult: 0
   }
   batch_norm_param {
      use_global_stats: true
   }
}

layer {
   name: "scale3_14_2"
   type: "Scale"
   bottom: "conv3_14_2"
   top: "conv3_14_2"
   scale_param {
      bias_term: true
   }
}

layer {
   name: "relu3_14_2"
   type: "ReLU"
   bottom: "conv3_14_2"
   top: "conv3_14_2"
}

layer {
   name: "conv3_14_3"
   type: "Convolution"
   bottom: "conv3_14_2"
   top: "conv3_14_3"
   param {
      lr_mult: 1
      decay_mult: 1
   }
   convolution_param {
      num_output: 1000
      bias_term: false
      pad: 0
      kernel_size: 1
      stride: 1
      weight_filler {
         type: "msra"
      }
   }
}

layer {
   name: "bn3_14_3"
   type: "BatchNorm"
   bottom: "conv3_14_3"
   top: "conv3_14_3"
   param {
      lr_mult: 0
   }
   param {
      lr_mult: 0
   }
   param {
      lr_mult: 0
   }
   batch_norm_param {
      use_global_stats: true
   }
}

layer {
   name: "scale3_14_3"
   type: "Scale"
   bottom: "conv3_14_3"
   top: "conv3_14_3"
   scale_param {
      bias_term: true
   }
}

layer {
   name: "zero_conv3_14"
   type: "Convolution"
   bottom: "res3_13"
   top: "zero_conv3_14"
   param {
      lr_mult: 0
      decay_mult: 0
   }
   convolution_param {
      num_output: 16
      bias_term: false
      pad: 0
      kernel_size: 1
      stride: 1
      weight_filler {
         type: "constant"
         value: 0.0
      }
   }
}

layer {
   name: "zero3_14"
   type: "Concat"
   bottom: "res3_13"
   bottom: "zero_conv3_14"
   top: "zero3_14"
   concat_param {
      axis: 1
   }
}

layer {
   name: "res3_14"
   type: "Eltwise"
   bottom: "zero3_14"
   bottom: "conv3_14_3"
   top: "res3_14"
   eltwise_param {
      operation: SUM 
   }
}

layer {
   name: "bn3_15"
   type: "BatchNorm"
   bottom: "res3_14"
   top: "bn3_15"
   param {
      lr_mult: 0
   }
   param {
      lr_mult: 0
   }
   param {
      lr_mult: 0
   }
   batch_norm_param {
      use_global_stats: true
   }
}

layer {
   name: "scale3_15"
   type: "Scale"
   bottom: "bn3_15"
   top: "bn3_15"
   scale_param {
      bias_term: true
   }
}

layer {
   name: "conv3_15_1"
   type: "Convolution"
   bottom: "bn3_15"
   top: "conv3_15_1"
   param {
      lr_mult: 1
      decay_mult: 1
   }
   convolution_param {
      num_output: 255
      bias_term: false
      pad: 0
      kernel_size: 1
      stride: 1
      weight_filler {
         type: "msra"
      }
   }
}

layer {
   name: "bn3_15_1"
   type: "BatchNorm"
   bottom: "conv3_15_1"
   top: "conv3_15_1"
   param {
      lr_mult: 0
   }
   param {
      lr_mult: 0
   }
   param {
      lr_mult: 0
   }
   batch_norm_param {
      use_global_stats: true
   }
}

layer {
   name: "scale3_15_1"
   type: "Scale"
   bottom: "conv3_15_1"
   top: "conv3_15_1"
   scale_param {
      bias_term: true
   }
}

layer {
   name: "relu3_15_1"
   type: "ReLU"
   bottom: "conv3_15_1"
   top: "conv3_15_1"
}

layer {
   name: "conv3_15_2"
   type: "Convolution"
   bottom: "conv3_15_1"
   top: "conv3_15_2"
   param {
      lr_mult: 1
      decay_mult: 1
   }
   convolution_param {
      num_output: 255
      bias_term: false
      pad: 1
      kernel_size: 3
      stride: 1
      weight_filler {
         type: "msra"
      }
   }
}

layer {
   name: "bn3_15_2"
   type: "BatchNorm"
   bottom: "conv3_15_2"
   top: "conv3_15_2"
   param {
      lr_mult: 0
   }
   param {
      lr_mult: 0
   }
   param {
      lr_mult: 0
   }
   batch_norm_param {
      use_global_stats: true
   }
}

layer {
   name: "scale3_15_2"
   type: "Scale"
   bottom: "conv3_15_2"
   top: "conv3_15_2"
   scale_param {
      bias_term: true
   }
}

layer {
   name: "relu3_15_2"
   type: "ReLU"
   bottom: "conv3_15_2"
   top: "conv3_15_2"
}

layer {
   name: "conv3_15_3"
   type: "Convolution"
   bottom: "conv3_15_2"
   top: "conv3_15_3"
   param {
      lr_mult: 1
      decay_mult: 1
   }
   convolution_param {
      num_output: 1020
      bias_term: false
      pad: 0
      kernel_size: 1
      stride: 1
      weight_filler {
         type: "msra"
      }
   }
}

layer {
   name: "bn3_15_3"
   type: "BatchNorm"
   bottom: "conv3_15_3"
   top: "conv3_15_3"
   param {
      lr_mult: 0
   }
   param {
      lr_mult: 0
   }
   param {
      lr_mult: 0
   }
   batch_norm_param {
      use_global_stats: true
   }
}

layer {
   name: "scale3_15_3"
   type: "Scale"
   bottom: "conv3_15_3"
   top: "conv3_15_3"
   scale_param {
      bias_term: true
   }
}

layer {
   name: "zero_conv3_15"
   type: "Convolution"
   bottom: "res3_14"
   top: "zero_conv3_15"
   param {
      lr_mult: 0
      decay_mult: 0
   }
   convolution_param {
      num_output: 20
      bias_term: false
      pad: 0
      kernel_size: 1
      stride: 1
      weight_filler {
         type: "constant"
         value: 0.0
      }
   }
}

layer {
   name: "zero3_15"
   type: "Concat"
   bottom: "res3_14"
   bottom: "zero_conv3_15"
   top: "zero3_15"
   concat_param {
      axis: 1
   }
}

layer {
   name: "res3_15"
   type: "Eltwise"
   bottom: "zero3_15"
   bottom: "conv3_15_3"
   top: "res3_15"
   eltwise_param {
      operation: SUM 
   }
}

layer {
   name: "bn3_16"
   type: "BatchNorm"
   bottom: "res3_15"
   top: "bn3_16"
   param {
      lr_mult: 0
   }
   param {
      lr_mult: 0
   }
   param {
      lr_mult: 0
   }
   batch_norm_param {
      use_global_stats: true
   }
}

layer {
   name: "scale3_16"
   type: "Scale"
   bottom: "bn3_16"
   top: "bn3_16"
   scale_param {
      bias_term: true
   }
}

layer {
   name: "conv3_16_1"
   type: "Convolution"
   bottom: "bn3_16"
   top: "conv3_16_1"
   param {
      lr_mult: 1
      decay_mult: 1
   }
   convolution_param {
      num_output: 259
      bias_term: false
      pad: 0
      kernel_size: 1
      stride: 1
      weight_filler {
         type: "msra"
      }
   }
}

layer {
   name: "bn3_16_1"
   type: "BatchNorm"
   bottom: "conv3_16_1"
   top: "conv3_16_1"
   param {
      lr_mult: 0
   }
   param {
      lr_mult: 0
   }
   param {
      lr_mult: 0
   }
   batch_norm_param {
      use_global_stats: true
   }
}

layer {
   name: "scale3_16_1"
   type: "Scale"
   bottom: "conv3_16_1"
   top: "conv3_16_1"
   scale_param {
      bias_term: true
   }
}

layer {
   name: "relu3_16_1"
   type: "ReLU"
   bottom: "conv3_16_1"
   top: "conv3_16_1"
}

layer {
   name: "conv3_16_2"
   type: "Convolution"
   bottom: "conv3_16_1"
   top: "conv3_16_2"
   param {
      lr_mult: 1
      decay_mult: 1
   }
   convolution_param {
      num_output: 259
      bias_term: false
      pad: 1
      kernel_size: 3
      stride: 1
      weight_filler {
         type: "msra"
      }
   }
}

layer {
   name: "bn3_16_2"
   type: "BatchNorm"
   bottom: "conv3_16_2"
   top: "conv3_16_2"
   param {
      lr_mult: 0
   }
   param {
      lr_mult: 0
   }
   param {
      lr_mult: 0
   }
   batch_norm_param {
      use_global_stats: true
   }
}

layer {
   name: "scale3_16_2"
   type: "Scale"
   bottom: "conv3_16_2"
   top: "conv3_16_2"
   scale_param {
      bias_term: true
   }
}

layer {
   name: "relu3_16_2"
   type: "ReLU"
   bottom: "conv3_16_2"
   top: "conv3_16_2"
}

layer {
   name: "conv3_16_3"
   type: "Convolution"
   bottom: "conv3_16_2"
   top: "conv3_16_3"
   param {
      lr_mult: 1
      decay_mult: 1
   }
   convolution_param {
      num_output: 1036
      bias_term: false
      pad: 0
      kernel_size: 1
      stride: 1
      weight_filler {
         type: "msra"
      }
   }
}

layer {
   name: "bn3_16_3"
   type: "BatchNorm"
   bottom: "conv3_16_3"
   top: "conv3_16_3"
   param {
      lr_mult: 0
   }
   param {
      lr_mult: 0
   }
   param {
      lr_mult: 0
   }
   batch_norm_param {
      use_global_stats: true
   }
}

layer {
   name: "scale3_16_3"
   type: "Scale"
   bottom: "conv3_16_3"
   top: "conv3_16_3"
   scale_param {
      bias_term: true
   }
}

layer {
   name: "zero_conv3_16"
   type: "Convolution"
   bottom: "res3_15"
   top: "zero_conv3_16"
   param {
      lr_mult: 0
      decay_mult: 0
   }
   convolution_param {
      num_output: 16
      bias_term: false
      pad: 0
      kernel_size: 1
      stride: 1
      weight_filler {
         type: "constant"
         value: 0.0
      }
   }
}

layer {
   name: "zero3_16"
   type: "Concat"
   bottom: "res3_15"
   bottom: "zero_conv3_16"
   top: "zero3_16"
   concat_param {
      axis: 1
   }
}

layer {
   name: "res3_16"
   type: "Eltwise"
   bottom: "zero3_16"
   bottom: "conv3_16_3"
   top: "res3_16"
   eltwise_param {
      operation: SUM 
   }
}

layer {
   name: "bn3_17"
   type: "BatchNorm"
   bottom: "res3_16"
   top: "bn3_17"
   param {
      lr_mult: 0
   }
   param {
      lr_mult: 0
   }
   param {
      lr_mult: 0
   }
   batch_norm_param {
      use_global_stats: true
   }
}

layer {
   name: "scale3_17"
   type: "Scale"
   bottom: "bn3_17"
   top: "bn3_17"
   scale_param {
      bias_term: true
   }
}

layer {
   name: "conv3_17_1"
   type: "Convolution"
   bottom: "bn3_17"
   top: "conv3_17_1"
   param {
      lr_mult: 1
      decay_mult: 1
   }
   convolution_param {
      num_output: 264
      bias_term: false
      pad: 0
      kernel_size: 1
      stride: 1
      weight_filler {
         type: "msra"
      }
   }
}

layer {
   name: "bn3_17_1"
   type: "BatchNorm"
   bottom: "conv3_17_1"
   top: "conv3_17_1"
   param {
      lr_mult: 0
   }
   param {
      lr_mult: 0
   }
   param {
      lr_mult: 0
   }
   batch_norm_param {
      use_global_stats: true
   }
}

layer {
   name: "scale3_17_1"
   type: "Scale"
   bottom: "conv3_17_1"
   top: "conv3_17_1"
   scale_param {
      bias_term: true
   }
}

layer {
   name: "relu3_17_1"
   type: "ReLU"
   bottom: "conv3_17_1"
   top: "conv3_17_1"
}

layer {
   name: "conv3_17_2"
   type: "Convolution"
   bottom: "conv3_17_1"
   top: "conv3_17_2"
   param {
      lr_mult: 1
      decay_mult: 1
   }
   convolution_param {
      num_output: 264
      bias_term: false
      pad: 1
      kernel_size: 3
      stride: 1
      weight_filler {
         type: "msra"
      }
   }
}

layer {
   name: "bn3_17_2"
   type: "BatchNorm"
   bottom: "conv3_17_2"
   top: "conv3_17_2"
   param {
      lr_mult: 0
   }
   param {
      lr_mult: 0
   }
   param {
      lr_mult: 0
   }
   batch_norm_param {
      use_global_stats: true
   }
}

layer {
   name: "scale3_17_2"
   type: "Scale"
   bottom: "conv3_17_2"
   top: "conv3_17_2"
   scale_param {
      bias_term: true
   }
}

layer {
   name: "relu3_17_2"
   type: "ReLU"
   bottom: "conv3_17_2"
   top: "conv3_17_2"
}

layer {
   name: "conv3_17_3"
   type: "Convolution"
   bottom: "conv3_17_2"
   top: "conv3_17_3"
   param {
      lr_mult: 1
      decay_mult: 1
   }
   convolution_param {
      num_output: 1056
      bias_term: false
      pad: 0
      kernel_size: 1
      stride: 1
      weight_filler {
         type: "msra"
      }
   }
}

layer {
   name: "bn3_17_3"
   type: "BatchNorm"
   bottom: "conv3_17_3"
   top: "conv3_17_3"
   param {
      lr_mult: 0
   }
   param {
      lr_mult: 0
   }
   param {
      lr_mult: 0
   }
   batch_norm_param {
      use_global_stats: true
   }
}

layer {
   name: "scale3_17_3"
   type: "Scale"
   bottom: "conv3_17_3"
   top: "conv3_17_3"
   scale_param {
      bias_term: true
   }
}

layer {
   name: "zero_conv3_17"
   type: "Convolution"
   bottom: "res3_16"
   top: "zero_conv3_17"
   param {
      lr_mult: 0
      decay_mult: 0
   }
   convolution_param {
      num_output: 20
      bias_term: false
      pad: 0
      kernel_size: 1
      stride: 1
      weight_filler {
         type: "constant"
         value: 0.0
      }
   }
}

layer {
   name: "zero3_17"
   type: "Concat"
   bottom: "res3_16"
   bottom: "zero_conv3_17"
   top: "zero3_17"
   concat_param {
      axis: 1
   }
}

layer {
   name: "res3_17"
   type: "Eltwise"
   bottom: "zero3_17"
   bottom: "conv3_17_3"
   top: "res3_17"
   eltwise_param {
      operation: SUM 
   }
}

layer {
   name: "bn3_18"
   type: "BatchNorm"
   bottom: "res3_17"
   top: "bn3_18"
   param {
      lr_mult: 0
   }
   param {
      lr_mult: 0
   }
   param {
      lr_mult: 0
   }
   batch_norm_param {
      use_global_stats: true
   }
}

layer {
   name: "scale3_18"
   type: "Scale"
   bottom: "bn3_18"
   top: "bn3_18"
   scale_param {
      bias_term: true
   }
}

layer {
   name: "conv3_18_1"
   type: "Convolution"
…
      stride: 1
      weight_filler {
         type: "msra"
      }
   }
}

layer {
   name: "bn3_25_3"
   type: "BatchNorm"
   bottom: "conv3_25_3"
   top: "conv3_25_3"
   param {
      lr_mult: 0
   }
   param {
      lr_mult: 0
   }
   param {
      lr_mult: 0
   }
   batch_norm_param {
      use_global_stats: true
   }
}

layer {
   name: "scale3_25_3"
   type: "Scale"
   bottom: "conv3_25_3"
   top: "conv3_25_3"
   scale_param {
      bias_term: true
   }
}

layer {
   name: "zero_conv3_25"
   type: "Convolution"
   bottom: "res3_24"
   top: "zero_conv3_25"
   param {
      lr_mult: 0
      decay_mult: 0
   }
   convolution_param {
      num_output: 16
      bias_term: false
      pad: 0
      kernel_size: 1
      stride: 1
      weight_filler {
         type: "constant"
         value: 0.0
      }
   }
}

layer {
   name: "zero3_25"
   type: "Concat"
   bottom: "res3_24"
   bottom: "zero_conv3_25"
   top: "zero3_25"
   concat_param {
      axis: 1
   }
}

layer {
   name: "res3_25"
   type: "Eltwise"
   bottom: "zero3_25"
   bottom: "conv3_25_3"
   top: "res3_25"
   eltwise_param {
      operation: SUM 
   }
}

layer {
   name: "bn3_26"
   type: "BatchNorm"
   bottom: "res3_25"
   top: "bn3_26"
   param {
      lr_mult: 0
   }
   param {
      lr_mult: 0
   }
   param {
      lr_mult: 0
   }
   batch_norm_param {
      use_global_stats: true
   }
}

layer {
   name: "scale3_26"
   type: "Scale"
   bottom: "bn3_26"
   top: "bn3_26"
   scale_param {
      bias_term: true
   }
}

layer {
   name: "conv3_26_1"
   type: "Convolution"
   bottom: "bn3_26"
   top: "conv3_26_1"
   param {
      lr_mult: 1
      decay_mult: 1
   }
   convolution_param {
      num_output: 305
      bias_term: false
      pad: 0
      kernel_size: 1
      stride: 1
      weight_filler {
         type: "msra"
      }
   }
}

layer {
   name: "bn3_26_1"
   type: "BatchNorm"
   bottom: "conv3_26_1"
   top: "conv3_26_1"
   param {
      lr_mult: 0
   }
   param {
      lr_mult: 0
   }
   param {
      lr_mult: 0
   }
   batch_norm_param {
      use_global_stats: true
   }
}

layer {
   name: "scale3_26_1"
   type: "Scale"
   bottom: "conv3_26_1"
   top: "conv3_26_1"
   scale_param {
      bias_term: true
   }
}

layer {
   name: "relu3_26_1"
   type: "ReLU"
   bottom: "conv3_26_1"
   top: "conv3_26_1"
}

layer {
   name: "conv3_26_2"
   type: "Convolution"
   bottom: "conv3_26_1"
   top: "conv3_26_2"
   param {
      lr_mult: 1
      decay_mult: 1
   }
   convolution_param {
      num_output: 305
      bias_term: false
      pad: 1
      kernel_size: 3
      stride: 1
      weight_filler {
         type: "msra"
      }
   }
}

layer {
   name: "bn3_26_2"
   type: "BatchNorm"
   bottom: "conv3_26_2"
   top: "conv3_26_2"
   param {
      lr_mult: 0
   }
   param {
      lr_mult: 0
   }
   param {
      lr_mult: 0
   }
   batch_norm_param {
      use_global_stats: true
   }
}

layer {
   name: "scale3_26_2"
   type: "Scale"
   bottom: "conv3_26_2"
   top: "conv3_26_2"
   scale_param {
      bias_term: true
   }
}

layer {
   name: "relu3_26_2"
   type: "ReLU"
   bottom: "conv3_26_2"
   top: "conv3_26_2"
}

layer {
   name: "conv3_26_3"
   type: "Convolution"
   bottom: "conv3_26_2"
   top: "conv3_26_3"
   param {
      lr_mult: 1
      decay_mult: 1
   }
   convolution_param {
      num_output: 1220
      bias_term: false
      pad: 0
      kernel_size: 1
      stride: 1
      weight_filler {
         type: "msra"
      }
   }
}

layer {
   name: "bn3_26_3"
   type: "BatchNorm"
   bottom: "conv3_26_3"
   top: "conv3_26_3"
   param {
      lr_mult: 0
   }
   param {
      lr_mult: 0
   }
   param {
      lr_mult: 0
   }
   batch_norm_param {
      use_global_stats: true
   }
}

layer {
   name: "scale3_26_3"
   type: "Scale"
   bottom: "conv3_26_3"
   top: "conv3_26_3"
   scale_param {
      bias_term: true
   }
}

layer {
   name: "zero_conv3_26"
   type: "Convolution"
   bottom: "res3_25"
   top: "zero_conv3_26"
   param {
      lr_mult: 0
      decay_mult: 0
   }
   convolution_param {
      num_output: 20
      bias_term: false
      pad: 0
      kernel_size: 1
      stride: 1
      weight_filler {
         type: "constant"
         value: 0.0
      }
   }
}

layer {
   name: "zero3_26"
   type: "Concat"
   bottom: "res3_25"
   bottom: "zero_conv3_26"
   top: "zero3_26"
   concat_param {
      axis: 1
   }
}

layer {
   name: "res3_26"
   type: "Eltwise"
   bottom: "zero3_26"
   bottom: "conv3_26_3"
   top: "res3_26"
   eltwise_param {
      operation: SUM 
   }
}

layer {
   name: "bn3_27"
   type: "BatchNorm"
   bottom: "res3_26"
   top: "bn3_27"
   param {
      lr_mult: 0
   }
   param {
      lr_mult: 0
   }
   param {
      lr_mult: 0
   }
   batch_norm_param {
      use_global_stats: true
   }
}

layer {
   name: "scale3_27"
   type: "Scale"
   bottom: "bn3_27"
   top: "bn3_27"
   scale_param {
      bias_term: true
   }
}

layer {
   name: "conv3_27_1"
   type: "Convolution"
   bottom: "bn3_27"
   top: "conv3_27_1"
   param {
      lr_mult: 1
      decay_mult: 1
   }
   convolution_param {
      num_output: 309
      bias_term: false
      pad: 0
      kernel_size: 1
      stride: 1
      weight_filler {
         type: "msra"
      }
   }
}

layer {
   name: "bn3_27_1"
   type: "BatchNorm"
   bottom: "conv3_27_1"
   top: "conv3_27_1"
   param {
      lr_mult: 0
   }
   param {
      lr_mult: 0
   }
   param {
      lr_mult: 0
   }
   batch_norm_param {
      use_global_stats: true
   }
}

layer {
   name: "scale3_27_1"
   type: "Scale"
   bottom: "conv3_27_1"
   top: "conv3_27_1"
   scale_param {
      bias_term: true
   }
}

layer {
   name: "relu3_27_1"
   type: "ReLU"
   bottom: "conv3_27_1"
   top: "conv3_27_1"
}

layer {
   name: "conv3_27_2"
   type: "Convolution"
   bottom: "conv3_27_1"
   top: "conv3_27_2"
   param {
      lr_mult: 1
      decay_mult: 1
   }
   convolution_param {
      num_output: 309
      bias_term: false
      pad: 1
      kernel_size: 3
      stride: 1
      weight_filler {
         type: "msra"
      }
   }
}

layer {
   name: "bn3_27_2"
   type: "BatchNorm"
   bottom: "conv3_27_2"
   top: "conv3_27_2"
   param {
      lr_mult: 0
   }
   param {
      lr_mult: 0
   }
   param {
      lr_mult: 0
   }
   batch_norm_param {
      use_global_stats: true
   }
}

layer {
   name: "scale3_27_2"
   type: "Scale"
   bottom: "conv3_27_2"
   top: "conv3_27_2"
   scale_param {
      bias_term: true
   }
}

layer {
   name: "relu3_27_2"
   type: "ReLU"
   bottom: "conv3_27_2"
   top: "conv3_27_2"
}

layer {
   name: "conv3_27_3"
   type: "Convolution"
   bottom: "conv3_27_2"
   top: "conv3_27_3"
   param {
      lr_mult: 1
      decay_mult: 1
   }
   convolution_param {
      num_output: 1236
      bias_term: false
      pad: 0
      kernel_size: 1
      stride: 1
      weight_filler {
         type: "msra"
      }
   }
}

layer {
   name: "bn3_27_3"
   type: "BatchNorm"
   bottom: "conv3_27_3"
   top: "conv3_27_3"
   param {
      lr_mult: 0
   }
   param {
      lr_mult: 0
   }
   param {
      lr_mult: 0
   }
   batch_norm_param {
      use_global_stats: true
   }
}

layer {
   name: "scale3_27_3"
   type: "Scale"
   bottom: "conv3_27_3"
   top: "conv3_27_3"
   scale_param {
      bias_term: true
   }
}

layer {
   name: "zero_conv3_27"
   type: "Convolution"
   bottom: "res3_26"
   top: "zero_conv3_27"
   param {
      lr_mult: 0
      decay_mult: 0
   }
   convolution_param {
      num_output: 16
      bias_term: false
      pad: 0
      kernel_size: 1
      stride: 1
      weight_filler {
         type: "constant"
         value: 0.0
      }
   }
}

layer {
   name: "zero3_27"
   type: "Concat"
   bottom: "res3_26"
   bottom: "zero_conv3_27"
   top: "zero3_27"
   concat_param {
      axis: 1
   }
}

layer {
   name: "res3_27"
   type: "Eltwise"
   bottom: "zero3_27"
   bottom: "conv3_27_3"
   top: "res3_27"
   eltwise_param {
      operation: SUM 
   }
}

layer {
   name: "bn3_28"
   type: "BatchNorm"
   bottom: "res3_27"
   top: "bn3_28"
   param {
      lr_mult: 0
   }
   param {
      lr_mult: 0
   }
   param {
      lr_mult: 0
   }
   batch_norm_param {
      use_global_stats: true
   }
}

layer {
   name: "scale3_28"
   type: "Scale"
   bottom: "bn3_28"
   top: "bn3_28"
   scale_param {
      bias_term: true
   }
}

layer {
   name: "conv3_28_1"
   type: "Convolution"
   bottom: "bn3_28"
   top: "conv3_28_1"
   param {
      lr_mult: 1
      decay_mult: 1
   }
   convolution_param {
      num_output: 314
      bias_term: false
      pad: 0
      kernel_size: 1
      stride: 1
      weight_filler {
         type: "msra"
      }
   }
}

layer {
   name: "bn3_28_1"
   type: "BatchNorm"
   bottom: "conv3_28_1"
   top: "conv3_28_1"
   param {
      lr_mult: 0
   }
   param {
      lr_mult: 0
   }
   param {
      lr_mult: 0
   }
   batch_norm_param {
      use_global_stats: true
   }
}

layer {
   name: "scale3_28_1"
   type: "Scale"
   bottom: "conv3_28_1"
   top: "conv3_28_1"
   scale_param {
      bias_term: true
   }
}

layer {
   name: "relu3_28_1"
   type: "ReLU"
   bottom: "conv3_28_1"
   top: "conv3_28_1"
}

layer {
   name: "conv3_28_2"
   type: "Convolution"
   bottom: "conv3_28_1"
   top: "conv3_28_2"
   param {
      lr_mult: 1
      decay_mult: 1
   }
   convolution_param {
      num_output: 314
      bias_term: false
      pad: 1
      kernel_size: 3
      stride: 1
      weight_filler {
         type: "msra"
      }
   }
}

layer {
   name: "bn3_28_2"
   type: "BatchNorm"
   bottom: "conv3_28_2"
   top: "conv3_28_2"
   param {
      lr_mult: 0
   }
   param {
      lr_mult: 0
   }
   param {
      lr_mult: 0
   }
   batch_norm_param {
      use_global_stats: true
   }
}

layer {
   name: "scale3_28_2"
   type: "Scale"
   bottom: "conv3_28_2"
   top: "conv3_28_2"
   scale_param {
      bias_term: true
   }
}

layer {
   name: "relu3_28_2"
   type: "ReLU"
   bottom: "conv3_28_2"
   top: "conv3_28_2"
}

layer {
   name: "conv3_28_3"
   type: "Convolution"
   bottom: "conv3_28_2"
   top: "conv3_28_3"
   param {
      lr_mult: 1
      decay_mult: 1
   }
   convolution_param {
      num_output: 1256
      bias_term: false
      pad: 0
      kernel_size: 1
      stride: 1
      weight_filler {
         type: "msra"
      }
   }
}

layer {
   name: "bn3_28_3"
   type: "BatchNorm"
   bottom: "conv3_28_3"
   top: "conv3_28_3"
   param {
      lr_mult: 0
   }
   param {
      lr_mult: 0
   }
   param {
      lr_mult: 0
   }
   batch_norm_param {
      use_global_stats: true
   }
}

layer {
   name: "scale3_28_3"
   type: "Scale"
   bottom: "conv3_28_3"
   top: "conv3_28_3"
   scale_param {
      bias_term: true
   }
}

layer {
   name: "zero_conv3_28"
   type: "Convolution"
   bottom: "res3_27"
   top: "zero_conv3_28"
   param {
      lr_mult: 0
      decay_mult: 0
   }
   convolution_param {
      num_output: 20
      bias_term: false
      pad: 0
      kernel_size: 1
      stride: 1
      weight_filler {
         type: "constant"
         value: 0.0
      }
   }
}

layer {
   name: "zero3_28"
   type: "Concat"
   bottom: "res3_27"
   bottom: "zero_conv3_28"
   top: "zero3_28"
   concat_param {
      axis: 1
   }
}

layer {
   name: "res3_28"
   type: "Eltwise"
   bottom: "zero3_28"
   bottom: "conv3_28_3"
   top: "res3_28"
   eltwise_param {
      operation: SUM 
   }
}

layer {
   name: "bn3_29"
   type: "BatchNorm"
   bottom: "res3_28"
   top: "bn3_29"
   param {
      lr_mult: 0
   }
   param {
      lr_mult: 0
   }
   param {
      lr_mult: 0
   }
   batch_norm_param {
      use_global_stats: true
   }
}

layer {
   name: "scale3_29"
   type: "Scale"
   bottom: "bn3_29"
   top: "bn3_29"
   scale_param {
      bias_term: true
   }
}

layer {
   name: "conv3_29_1"
   type: "Convolution"
   bottom: "bn3_29"
   top: "conv3_29_1"
   param {
      lr_mult: 1
      decay_mult: 1
   }
   convolution_param {
      num_output: 319
      bias_term: false
      pad: 0
      kernel_size: 1
      stride: 1
      weight_filler {
         type: "msra"
      }
   }
}

layer {
   name: "bn3_29_1"
   type: "BatchNorm"
   bottom: "conv3_29_1"
   top: "conv3_29_1"
   param {
      lr_mult: 0
   }
   param {
      lr_mult: 0
   }
   param {
      lr_mult: 0
   }
   batch_norm_param {
      use_global_stats: true
   }
}

layer {
   name: "scale3_29_1"
   type: "Scale"
   bottom: "conv3_29_1"
   top: "conv3_29_1"
   scale_param {
      bias_term: true
   }
}

layer {
   name: "relu3_29_1"
   type: "ReLU"
   bottom: "conv3_29_1"
   top: "conv3_29_1"
}

layer {
   name: "conv3_29_2"
   type: "Convolution"
   bottom: "conv3_29_1"
   top: "conv3_29_2"
   param {
      lr_mult: 1
      decay_mult: 1
   }
   convolution_param {
      num_output: 319
      bias_term: false
      pad: 1
      kernel_size: 3
      stride: 1
      weight_filler {
         type: "msra"
      }
   }
}

layer {
   name: "bn3_29_2"
   type: "BatchNorm"
   bottom: "conv3_29_2"
   top: "conv3_29_2"
   param {
      lr_mult: 0
   }
   param {
      lr_mult: 0
   }
   param {
      lr_mult: 0
   }
   batch_norm_param {
      use_global_stats: true
   }
}

layer {
   name: "scale3_29_2"
   type: "Scale"
   bottom: "conv3_29_2"
   top: "conv3_29_2"
   scale_param {
      bias_term: true
   }
}

layer {
   name: "relu3_29_2"
   type: "ReLU"
   bottom: "conv3_29_2"
   top: "conv3_29_2"
}

layer {
   name: "conv3_29_3"
   type: "Convolution"
   bottom: "conv3_29_2"
   top: "conv3_29_3"
   param {
      lr_mult: 1
      decay_mult: 1
   }
   convolution_param {
      num_output: 1276
      bias_term: false
      pad: 0
      kernel_size: 1
      stride: 1
      weight_filler {
         type: "msra"
      }
   }
}

layer {
   name: "bn3_29_3"
   type: "BatchNorm"
   bottom: "conv3_29_3"
   top: "conv3_29_3"
   param {
      lr_mult: 0
   }
   param {
      lr_mult: 0
   }
   param {
      lr_mult: 0
   }
   batch_norm_param {
      use_global_stats: true
   }
}

layer {
   name: "scale3_29_3"
   type: "Scale"
   bottom: "conv3_29_3"
   top: "conv3_29_3"
   scale_param {
      bias_term: true
   }
}

layer {
   name: "zero_conv3_29"
   type: "Convolution"
   bottom: "res3_28"
   top: "zero_conv3_29"
   param {
      lr_mult: 0
      decay_mult: 0
   }
   convolution_param {
      num_output: 20
      bias_term: false
      pad: 0
      kernel_size: 1
      stride: 1
      weight_filler {
         type: "constant"
         value: 0.0
      }
   }
}

layer {
   name: "zero3_29"
   type: "Concat"
   bottom: "res3_28"
   bottom: "zero_conv3_29"
   top: "zero3_29"
   concat_param {
      axis: 1
   }
}

layer {
   name: "res3_29"
   type: "Eltwise"
   bottom: "zero3_29"
   bottom: "conv3_29_3"
   top: "res3_29"
   eltwise_param {
      operation: SUM 
   }
}

layer {
   name: "bn3_30"
   type: "BatchNorm"
   bottom: "res3_29"
   top: "bn3_30"
   param {
      lr_mult: 0
   }
   param {
      lr_mult: 0
   }
   param {
      lr_mult: 0
   }
   batch_norm_param {
      use_global_stats: true
   }
}

layer {
   name: "scale3_30"
   type: "Scale"
   bottom: "bn3_30"
   top: "bn3_30"
   scale_param {
      bias_term: true
   }
}

layer {
   name: "conv3_30_1"
   type: "Convolution"
   bottom: "bn3_30"
   top: "conv3_30_1"
   param {
      lr_mult: 1
      decay_mult: 1
   }
   convolution_param {
      num_output: 323
      bias_term: false
      pad: 0
      kernel_size: 1
      stride: 1
      weight_filler {
         type: "msra"
      }
   }
}

layer {
   name: "bn3_30_1"
   type: "BatchNorm"
   bottom: "conv3_30_1"
   top: "conv3_30_1"
   param {
      lr_mult: 0
   }
   param {
      lr_mult: 0
   }
   param {
      lr_mult: 0
   }
   batch_norm_param {
      use_global_stats: true
   }
}

layer {
   name: "scale3_30_1"
   type: "Scale"
   bottom: "conv3_30_1"
   top: "conv3_30_1"
   scale_param {
      bias_term: true
   }
}

layer {
   name: "relu3_30_1"
   type: "ReLU"
   bottom: "conv3_30_1"
   top: "conv3_30_1"
}

layer {
   name: "conv3_30_2"
   type: "Convolution"
   bottom: "conv3_30_1"
   top: "conv3_30_2"
   param {
      lr_mult: 1
      decay_mult: 1
   }
   convolution_param {
      num_output: 323
      bias_term: false
      pad: 1
      kernel_size: 3
      stride: 1
      weight_filler {
         type: "msra"
      }
   }
}

layer {
   name: "bn3_30_2"
   type: "BatchNorm"
   bottom: "conv3_30_2"
   top: "conv3_30_2"
   param {
      lr_mult: 0
   }
   param {
      lr_mult: 0
   }
   param {
      lr_mult: 0
   }
   batch_norm_param {
      use_global_stats: true
   }
}

layer {
   name: "scale3_30_2"
   type: "Scale"
   bottom: "conv3_30_2"
   top: "conv3_30_2"
   scale_param {
      bias_term: true
   }
}

layer {
   name: "relu3_30_2"
   type: "ReLU"
   bottom: "conv3_30_2"
   top: "conv3_30_2"
}

layer {
   name: "conv3_30_3"
   type: "Convolution"
   bottom: "conv3_30_2"
   top: "conv3_30_3"
   param {
      lr_mult: 1
      decay_mult: 1
   }
   convolution_param {
      num_output: 1292
      bias_term: false
      pad: 0
      kernel_size: 1
      stride: 1
      weight_filler {
         type: "msra"
      }
   }
}

layer {
   name: "bn3_30_3"
   type: "BatchNorm"
   bottom: "conv3_30_3"
   top: "conv3_30_3"
   param {
      lr_mult: 0
   }
   param {
      lr_mult: 0
   }
   param {
      lr_mult: 0
   }
   batch_norm_param {
      use_global_stats: true
   }
}

layer {
   name: "scale3_30_3"
   type: "Scale"
   bottom: "conv3_30_3"
   top: "conv3_30_3"
   scale_param {
      bias_term: true
   }
}

layer {
   name: "zero_conv3_30"
   type: "Convolution"
   bottom: "res3_29"
   top: "zero_conv3_30"
   param {
      lr_mult: 0
      decay_mult: 0
   }
   convolution_param {
      num_output: 16
      bias_term: false
      pad: 0
      kernel_size: 1
      stride: 1
      weight_filler {
         type: "constant"
         value: 0.0
      }
   }
}

layer {
   name: "zero3_30"
   type: "Concat"
   bottom: "res3_29"
   bottom: "zero_conv3_30"
   top: "zero3_30"
   concat_param {
      axis: 1
   }
}

layer {
   name: "res3_30"
   type: "Eltwise"
   bottom: "zero3_30"
   bottom: "conv3_30_3"
   top: "res3_30"
   eltwise_param {
      operation: SUM 
   }
}

layer {
   name: "bn3_31"
   type: "BatchNorm"
   bottom: "res3_30"
   top: "bn3_31"
   param {
      lr_mult: 0
   }
   param {
      lr_mult: 0
   }
   param {
      lr_mult: 0
   }
   batch_norm_param {
      use_global_stats: true
   }
}

layer {
   name: "scale3_31"
   type: "Scale"
   bottom: "bn3_31"
   top: "bn3_31"
   scale_param {
      bias_term: true
   }
}

layer {
   name: "conv3_31_1"
   type: "Convolution"
   bottom: "bn3_31"
   top: "conv3_31_1"
   param {
      lr_mult: 1
      decay_mult: 1
   }
   convolution_param {
      num_output: 328
      bias_term: false
      pad: 0
      kernel_size: 1
      stride: 1
      weight_filler {
         type: "msra"
      }
   }
}

layer {
   name: "bn3_31_1"
   type: "BatchNorm"
   bottom: "conv3_31_1"
   top: "conv3_31_1"
   param {
      lr_mult: 0
   }
   param {
      lr_mult: 0
   }
   param {
      lr_mult: 0
   }
   batch_norm_param {
      use_global_stats: true
   }
}

layer {
   name: "scale3_31_1"
   type: "Scale"
   bottom: "conv3_31_1"
   top: "conv3_31_1"
   scale_param {
      bias_term: true
   }
}

layer {
   name: "relu3_31_1"
   type: "ReLU"
   bottom: "conv3_31_1"
   top: "conv3_31_1"
}

layer {
   name: "conv3_31_2"
   type: "Convolution"
   bottom: "conv3_31_1"
   top: "conv3_31_2"
   param {
      lr_mult: 1
      decay_mult: 1
   }
   convolution_param {
      num_output: 328
      bias_term: false
      pad: 1
      kernel_size: 3
      stride: 1
      weight_filler {
         type: "msra"
      }
   }
}

layer {
   name: "bn3_31_2"
   type: "BatchNorm"
   bottom: "conv3_31_2"
   top: "conv3_31_2"
   param {
      lr_mult: 0
   }
   param {
      lr_mult: 0
   }
   param {
      lr_mult: 0
   }
   batch_norm_param {
      use_global_stats: true
   }
}

layer {
   name: "scale3_31_2"
   type: "Scale"
   bottom: "conv3_31_2"
   top: "conv3_31_2"
   scale_param {
      bias_term: true
   }
}

layer {
   name: "relu3_31_2"
   type: "ReLU"
   bottom: "conv3_31_2"
   top: "conv3_31_2"
}

layer {
   name: "conv3_31_3"
   type: "Convolution"
   bottom: "conv3_31_2"
   top: "conv3_31_3"
   param {
      lr_mult: 1
      decay_mult: 1
   }
   convolution_param {
      num_output: 1312
      bias_term: false
      pad: 0
      kernel_size: 1
      stride: 1
      weight_filler {
         type: "msra"
      }
   }
}

layer {
   name: "bn3_31_3"
   type: "BatchNorm"
   bottom: "conv3_31_3"
   top: "conv3_31_3"
   param {
      lr_mult: 0
   }
   param {
      lr_mult: 0
   }
   param {
      lr_mult: 0
   }
   batch_norm_param {
      use_global_stats: true
   }
}

layer {
   name: "scale3_31_3"
   type: "Scale"
   bottom: "conv3_31_3"
   top: "conv3_31_3"
   scale_param {
      bias_term: true
   }
}

layer {
   name: "zero_conv3_31"
   type: "Convolution"
   bottom: "res3_30"
   top: "zero_conv3_31"
   param {
      lr_mult: 0
      decay_mult: 0
   }
   convolution_param {
      num_output: 20
      bias_term: false
      pad: 0
      kernel_size: 1
      stride: 1
      weight_filler {
         type: "constant"
         value: 0.0
      }
   }
}

layer {
   name: "zero3_31"
   type: "Concat"
   bottom: "res3_30"
   bottom: "zero_conv3_31"
   top: "zero3_31"
   concat_param {
      axis: 1
   }
}

layer {
   name: "res3_31"
   type: "Eltwise"
   bottom: "zero3_31"
   bottom: "conv3_31_3"
   top: "res3_31"
   eltwise_param {
      operation: SUM 
   }
}

layer {
   name: "bn3_32"
   type: "BatchNorm"
   bottom: "res3_31"
   top: "bn3_32"
   param {
      lr_mult: 0
   }
   param {
      lr_mult: 0
   }
   param {
      lr_mult: 0
   }
   batch_norm_param {
      use_global_stats: true
   }
}

layer {
   name: "scale3_32"
   type: "Scale"
   bottom: "bn3_32"
   top: "bn3_32"
   scale_param {
      bias_term: true
   }
}

layer {
   name: "conv3_32_1"
   type: "Convolution"
   bottom: "bn3_32"
   top: "conv3_32_1"
   param {
      lr_mult: 1
      decay_mult: 1
   }
   convolution_param {
      num_output: 332
      bias_term: false
      pad: 0
      kernel_size: 1
      stride: 1
      weight_filler {
         type: "msra"
      }
   }
}

layer {
   name: "bn3_32_1"
   type: "BatchNorm"
   bottom: "conv3_32_1"
   top: "conv3_32_1"
   param {
      lr_mult: 0
   }
   param {
      lr_mult: 0
   }
   param {
      lr_mult: 0
   }
   batch_norm_param {
      use_global_stats: true
   }
}

layer {
   name: "scale3_32_1"
   type: "Scale"
   bottom: "conv3_32_1"
   top: "conv3_32_1"
   scale_param {
      bias_term: true
   }
}

layer {
   name: "relu3_32_1"
   type: "ReLU"
   bottom: "conv3_32_1"
   top: "conv3_32_1"
}

layer {
   name: "conv3_32_2"
   type: "Convolution"
   bottom: "conv3_32_1"
   top: "conv3_32_2"
   param {
      lr_mult: 1
      decay_mult: 1
   }
   convolution_param {
      num_output: 332
      bias_term: false
      pad: 1
      kernel_size: 3
      stride: 1
      weight_filler {
         type: "msra"
      }
   }
}

layer {
   name: "bn3_32_2"
   type: "BatchNorm"
   bottom: "conv3_32_2"
   top: "conv3_32_2"
   param {
      lr_mult: 0
   }
   param {
      lr_mult: 0
   }
   param {
      lr_mult: 0
   }
   batch_norm_param {
      use_global_stats: true
   }
}

layer {
   name: "scale3_32_2"
   type: "Scale"
   bottom: "conv3_32_2"
   top: "conv3_32_2"
   scale_param {
      bias_term: true
   }
}

layer {
   name: "relu3_32_2"
   type: "ReLU"
   bottom: "conv3_32_2"
   top: "conv3_32_2"
}

layer {
   name: "conv3_32_3"
   type: "Convolution"
   bottom: "conv3_32_2"
   top: "conv3_32_3"
   param {
      lr_mult: 1
      decay_mult: 1
   }
   convolution_param {
      num_output: 1328
      bias_term: false
      pad: 0
      kernel_size: 1
      stride: 1
      weight_filler {
         type: "msra"
      }
   }
}

layer {
   name: "bn3_32_3"
   type: "BatchNorm"
   bottom: "conv3_32_3"
   top: "conv3_32_3"
   param {
      lr_mult: 0
   }
   param {
      lr_mult: 0
   }
   param {
      lr_mult: 0
   }
   batch_norm_param {
      use_global_stats: true
   }
}

layer {
   name: "scale3_32_3"
   type: "Scale"
   bottom: "conv3_32_3"
   top: "conv3_32_3"
   scale_param {
      bias_term: true
   }
}

layer {
   name: "zero_conv3_32"
   type: "Convolution"
   bottom: "res3_31"
   top: "zero_conv3_32"
   param {
      lr_mult: 0
      decay_mult: 0
   }
   convolution_param {
      num_output: 16
      bias_term: false
      pad: 0
      kernel_size: 1
      stride: 1
      weight_filler {
         type: "constant"
         value: 0.0
      }
   }
}

layer {
   name: "zero3_32"
   type: "Concat"
   bottom: "res3_31"
   bottom: "zero_conv3_32"
   top: "zero3_32"
   concat_param {
      axis: 1
   }
}

layer {
   name: "res3_32"
   type: "Eltwise"
   bottom: "zero3_32"
   bottom: "conv3_32_3"
   top: "res3_32"
   eltwise_param {
      operation: SUM 
   }
}

layer {
   name: "bn3_33"
   type: "BatchNorm"
   bottom: "res3_32"
   top: "bn3_33"
   param {
      lr_mult: 0
   }
   param {
      lr_mult: 0
   }
   param {
      lr_mult: 0
   }
   batch_norm_param {
      use_global_stats: true
   }
}

layer {
   name: "scale3_33"
   type: "Scale"
   bottom: "bn3_33"
   top: "bn3_33"
   scale_param {
      bias_term: true
   }
}

layer {
   name: "conv3_33_1"
   type: "Convolution"
   bottom: "bn3_33"
   top: "conv3_33_1"
   param {
      lr_mult: 1
      decay_mult: 1
   }
   convolution_param {
      num_output: 337
      bias_term: false
      pad: 0
      kernel_size: 1
      stride: 1
      weight_filler {
         type: "msra"
      }
   }
}

layer {
   name: "bn3_33_1"
   type: "BatchNorm"
   bottom: "conv3_33_1"
   top: "conv3_33_1"
   param {
      lr_mult: 0
   }
   param {
      lr_mult: 0
   }
   param {
      lr_mult: 0
   }
   batch_norm_param {
      use_global_stats: true
   }
}

layer {
   name: "scale3_33_1"
   type: "Scale"
   bottom: "conv3_33_1"
   top: "conv3_33_1"
   scale_param {
      bias_term: true
   }
}

layer {
   name: "relu3_33_1"
   type: "ReLU"
   bottom: "conv3_33_1"
   top: "conv3_33_1"
}

layer {
   name: "conv3_33_2"
   type: "Convolution"
   bottom: "conv3_33_1"
   top: "conv3_33_2"
   param {
      lr_mult: 1
      decay_mult: 1
   }
   convolution_param {
      num_output: 337
      bias_term: false
      pad: 1
      kernel_size: 3
      stride: 1
      weight_filler {
         type: "msra"
      }
   }
}

layer {
   name: "bn3_33_2"
   type: "BatchNorm"
   bottom: "conv3_33_2"
   top: "conv3_33_2"
   param {
      lr_mult: 0
   }
   param {
      lr_mult: 0
   }
   param {
      lr_mult: 0
   }
   batch_norm_param {
      use_global_stats: true
   }
}

layer {
   name: "scale3_33_2"
   type: "Scale"
   bottom: "conv3_33_2"
   top: "conv3_33_2"
   scale_param {
      bias_term: true
   }
}

layer {
   name: "relu3_33_2"
   type: "ReLU"
   bottom: "conv3_33_2"
   top: "conv3_33_2"
}

layer {
   name: "conv3_33_3"
   type: "Convolution"
   bottom: "conv3_33_2"
   top: "conv3_33_3"
   param {
      lr_mult: 1
      decay_mult: 1
   }
   convolution_param {
      num_output: 1348
      bias_term: false
      pad: 0
      kernel_size: 1
      stride: 1
      weight_filler {
         type: "msra"
      }
   }
}

layer {
   name: "bn3_33_3"
   type: "BatchNorm"
   bottom: "conv3_33_3"
   top: "conv3_33_3"
   param {
      lr_mult: 0
   }
   param {
      lr_mult: 0
   }
   param {
      lr_mult: 0
   }
   batch_norm_param {
      use_global_stats: true
   }
}

layer {
   name: "scale3_33_3"
   type: "Scale"
   bottom: "conv3_33_3"
   top: "conv3_33_3"
   scale_param {
      bias_term: true
   }
}

layer {
   name: "zero_conv3_33"
   type: "Convolution"
   bottom: "res3_32"
   top: "zero_conv3_33"
   param {
      lr_mult: 0
      decay_mult: 0
   }
   convolution_param {
      num_output: 20
      bias_term: false
      pad: 0
      kernel_size: 1
      stride: 1
      weight_filler {
         type: "constant"
         value: 0.0
      }
   }
}

layer {
   name: "zero3_33"
   type: "Concat"
   bottom: "res3_32"
   bottom: "zero_conv3_33"
   top: "zero3_33"
   concat_param {
      axis: 1
   }
}

layer {
   name: "res3_33"
   type: "Eltwise"
   bottom: "zero3_33"
   bottom: "conv3_33_3"
   top: "res3_33"
   eltwise_param {
      operation: SUM 
   }
}

layer {
   name: "bn3_34"
   type: "BatchNorm"
   bottom: "res3_33"
   top: "bn3_34"
   param {
      lr_mult: 0
   }
   param {
      lr_mult: 0
   }
   param {
      lr_mult: 0
   }
   batch_norm_param {
      use_global_stats: true
   }
}

layer {
   name: "scale3_34"
   type: "Scale"
   bottom: "bn3_34"
   top: "bn3_34"
   scale_param {
      bias_term: true
   }
}

layer {
   name: "conv3_34_1"
   type: "Convolution"
   bottom: "bn3_34"
   top: "conv3_34_1"
   param {
      lr_mult: 1
      decay_mult: 1
   }
   convolution_param {
      num_output: 341
      bias_term: false
      pad: 0
      kernel_size: 1
      stride: 1
      weight_filler {
         type: "msra"
      }
   }
}

layer {
   name: "bn3_34_1"
   type: "BatchNorm"
   bottom: "conv3_34_1"
   top: "conv3_34_1"
   param {
      lr_mult: 0
   }
   param {
      lr_mult: 0
   }
   param {
      lr_mult: 0
   }
   batch_norm_param {
      use_global_stats: true
   }
}

layer {
   name: "scale3_34_1"
   type: "Scale"
   bottom: "conv3_34_1"
   top: "conv3_34_1"
   scale_param {
      bias_term: true
   }
}

layer {
   name: "relu3_34_1"
   type: "ReLU"
   bottom: "conv3_34_1"
   top: "conv3_34_1"
}

layer {
   name: "conv3_34_2"
   type: "Convolution"
   bottom: "conv3_34_1"
   top: "conv3_34_2"
   param {
      lr_mult: 1
      decay_mult: 1
   }
   convolution_param {
      num_output: 341
      bias_term: false
      pad: 1
      kernel_size: 3
      stride: 1
      weight_filler {
         type: "msra"
      }
   }
}

layer {
   name: "bn3_34_2"
   type: "BatchNorm"
   bottom: "conv3_34_2"
   top: "conv3_34_2"
   param {
      lr_mult: 0
   }
   param {
      lr_mult: 0
   }
   param {
      lr_mult: 0
   }
   batch_norm_param {
      use_global_stats: true
   }
}

layer {
   name: "scale3_34_2"
   type: "Scale"
   bottom: "conv3_34_2"
   top: "conv3_34_2"
   scale_param {
      bias_term: true
   }
}

layer {
   name: "relu3_34_2"
   type: "ReLU"
   bottom: "conv3_34_2"
   top: "conv3_34_2"
}

layer {
   name: "conv3_34_3"
   type: "Convolution"
   bottom: "conv3_34_2"
   top: "conv3_34_3"
   param {
      lr_mult: 1
      decay_mult: 1
   }
   convolution_param {
      num_output: 1364
      bias_term: false
      pad: 0
      kernel_size: 1
      stride: 1
      weight_filler {
         type: "msra"
      }
   }
}

layer {
   name: "bn3_34_3"
   type: "BatchNorm"
   bottom: "conv3_34_3"
   top: "conv3_34_3"
   param {
      lr_mult: 0
   }
   param {
      lr_mult: 0
   }
   param {
      lr_mult: 0
   }
   batch_norm_param {
      use_global_stats: true
   }
}

layer {
   name: "scale3_34_3"
   type: "Scale"
   bottom: "conv3_34_3"
   top: "conv3_34_3"
   scale_param {
      bias_term: true
   }
}

layer {
   name: "zero_conv3_34"
   type: "Convolution"
   bottom: "res3_33"
   top: "zero_conv3_34"
   param {
      lr_mult: 0
      decay_mult: 0
   }
   convolution_param {
      num_output: 16
      bias_term: false
      pad: 0
      kernel_size: 1
      stride: 1
      weight_filler {
         type: "constant"
         value: 0.0
      }
   }
}

layer {
   name: "zero3_34"
   type: "Concat"
   bottom: "res3_33"
   bottom: "zero_conv3_34"
   top: "zero3_34"
   concat_param {
      axis: 1
   }
}

layer {
   name: "res3_34"
   type: "Eltwise"
   bottom: "zero3_34"
   bottom: "conv3_34_3"
   top: "res3_34"
   eltwise_param {
      operation: SUM 
   }
}

layer {
   name: "bn3_35"
   type: "BatchNorm"
   bottom: "res3_34"
   top: "bn3_35"
   param {
      lr_mult: 0
   }
   param {
      lr_mult: 0
   }
   param {
      lr_mult: 0
   }
   batch_norm_param {
      use_global_stats: true
   }
}

layer {
   name: "scale3_35"
   type: "Scale"
   bottom: "bn3_35"
   top: "bn3_35"
   scale_param {
      bias_term: true
   }
}

layer {
   name: "conv3_35_1"
   type: "Convolution"
   bottom: "bn3_35"
   top: "conv3_35_1"
   param {
      lr_mult: 1
      decay_mult: 1
   }
   convolution_param {
      num_output: 346
      bias_term: false
      pad: 0
      kernel_size: 1
      stride: 1
      weight_filler {
         type: "msra"
      }
   }
}

layer {
   name: "bn3_35_1"
   type: "BatchNorm"
   bottom: "conv3_35_1"
   top: "conv3_35_1"
   param {
      lr_mult: 0
   }
   param {
      lr_mult: 0
   }
   param {
      lr_mult: 0
   }
   batch_norm_param {
      use_global_stats: true
   }
}

layer {
   name: "scale3_35_1"
   type: "Scale"
   bottom: "conv3_35_1"
   top: "conv3_35_1"
   scale_param {
      bias_term: true
   }
}

layer {
   name: "relu3_35_1"
   type: "ReLU"
   bottom: "conv3_35_1"
   top: "conv3_35_1"
}

layer {
   name: "conv3_35_2"
   type: "Convolution"
   bottom: "conv3_35_1"
   top: "conv3_35_2"
   param {
      lr_mult: 1
      decay_mult: 1
   }
   convolution_param {
      num_output: 346
      bias_term: false
      pad: 1
      kernel_size: 3
      stride: 1
      weight_filler {
         type: "msra"
      }
   }
}

layer {
   name: "bn3_35_2"
   type: "BatchNorm"
   bottom: "conv3_35_2"
   top: "conv3_35_2"
   param {
      lr_mult: 0
   }
   param {
      lr_mult: 0
   }
   param {
      lr_mult: 0
   }
   batch_norm_param {
      use_global_stats: true
   }
}

layer {
   name: "scale3_35_2"
   type: "Scale"
   bottom: "conv3_35_2"
   top: "conv3_35_2"
   scale_param {
      bias_term: true
   }
}

layer {
   name: "relu3_35_2"
   type: "ReLU"
   bottom: "conv3_35_2"
   top: "conv3_35_2"
}

layer {
   name: "conv3_35_3"
   type: "Convolution"
   bottom: "conv3_35_2"
   top: "conv3_35_3"
   param {
      lr_mult: 1
      decay_mult: 1
   }
   convolution_param {
      num_output: 1384
      bias_term: false
      pad: 0
      kernel_size: 1
      stride: 1
      weight_filler {
         type: "msra"
      }
   }
}

layer {
   name: "bn3_35_3"
   type: "BatchNorm"
   bottom: "conv3_35_3"
   top: "conv3_35_3"
   param {
      lr_mult: 0
   }
   param {
      lr_mult: 0
   }
   param {
      lr_mult: 0
   }
   batch_norm_param {
      use_global_stats: true
   }
}

layer {
   name: "scale3_35_3"
   type: "Scale"
   bottom: "conv3_35_3"
   top: "conv3_35_3"
   scale_param {
      bias_term: true
   }
}

layer {
   name: "zero_conv3_35"
   type: "Convolution"
   bottom: "res3_34"
   top: "zero_conv3_35"
   param {
      lr_mult: 0
      decay_mult: 0
   }
   convolution_param {
      num_output: 20
      bias_term: false
      pad: 0
      kernel_size: 1
      stride: 1
      weight_filler {
         type: "constant"
         value: 0.0
      }
   }
}

layer {
   name: "zero3_35"
   type: "Concat"
   bottom: "res3_34"
   bottom: "zero_conv3_35"
   top: "zero3_35"
   concat_param {
      axis: 1
   }
}

layer {
   name: "res3_35"
   type: "Eltwise"
   bottom: "zero3_35"
   bottom: "conv3_35_3"
   top: "res3_35"
   eltwise_param {
      operation: SUM 
   }
}

layer {
   name: "bn3_36"
   type: "BatchNorm"
   bottom: "res3_35"
   top: "bn3_36"
   param {
      lr_mult: 0
   }
   param {
      lr_mult: 0
   }
   param {
      lr_mult: 0
   }
   batch_norm_param {
      use_global_stats: true
   }
}

layer {
   name: "scale3_36"
   type: "Scale"
   bottom: "bn3_36"
   top: "bn3_36"
   scale_param {
      bias_term: true
   }
}

layer {
   name: "conv3_36_1"
   type: "Convolution"
   bottom: "bn3_36"
   top: "conv3_36_1"
   param {
      lr_mult: 1
      decay_mult: 1
   }
   convolution_param {
      num_output: 350
      bias_term: false
      pad: 0
      kernel_size: 1
      stride: 1
      weight_filler {
         type: "msra"
      }
   }
}

layer {
   name: "bn3_36_1"
   type: "BatchNorm"
   bottom: "conv3_36_1"
   top: "conv3_36_1"
   param {
      lr_mult: 0
   }
   param {
      lr_mult: 0
   }
   param {
      lr_mult: 0
   }
   batch_norm_param {
      use_global_stats: true
   }
}

layer {
   name: "scale3_36_1"
   type: "Scale"
   bottom: "conv3_36_1"
   top: "conv3_36_1"
   scale_param {
      bias_term: true
   }
}

layer {
   name: "relu3_36_1"
   type: "ReLU"
   bottom: "conv3_36_1"
   top: "conv3_36_1"
}

layer {
   name: "conv3_36_2"
   type: "Convolution"
   bottom: "conv3_36_1"
   top: "conv3_36_2"
   param {
      lr_mult: 1
      decay_mult: 1
   }
   convolution_param {
      num_output: 350
      bias_term: false
      pad: 1
      kernel_size: 3
      stride: 1
      weight_filler {
         type: "msra"
      }
   }
}

layer {
   name: "bn3_36_2"
   type: "BatchNorm"
   bottom: "conv3_36_2"
   top: "conv3_36_2"
   param {
      lr_mult: 0
   }
   param {
      lr_mult: 0
   }
   param {
      lr_mult: 0
   }
   batch_norm_param {
      use_global_stats: true
   }
}

layer {
   name: "scale3_36_2"
   type: "Scale"
   bottom: "conv3_36_2"
   top: "conv3_36_2"
   scale_param {
      bias_term: true
   }
}

layer {
   name: "relu3_36_2"
   type: "ReLU"
   bottom: "conv3_36_2"
   top: "conv3_36_2"
}

layer {
   name: "conv3_36_3"
   type: "Convolution"
   bottom: "conv3_36_2"
   top: "conv3_36_3"
   param {
      lr_mult: 1
      decay_mult: 1
   }
   convolution_param {
      num_output: 1400
      bias_term: false
      pad: 0
      kernel_size: 1
      stride: 1
      weight_filler {
         type: "msra"
      }
   }
}

layer {
   name: "bn3_36_3"
   type: "BatchNorm"
   bottom: "conv3_36_3"
   top: "conv3_36_3"
   param {
      lr_mult: 0
   }
   param {
      lr_mult: 0
   }
   param {
      lr_mult: 0
   }
   batch_norm_param {
      use_global_stats: true
   }
}

layer {
   name: "scale3_36_3"
   type: "Scale"
   bottom: "conv3_36_3"
   top: "conv3_36_3"
   scale_param {
      bias_term: true
   }
}

layer {
   name: "zero_conv3_36"
   type: "Convolution"
   bottom: "res3_35"
   top: "zero_conv3_36"
   param {
      lr_mult: 0
      decay_mult: 0
   }
   convolution_param {
      num_output: 16
      bias_term: false
      pad: 0
      kernel_size: 1
      stride: 1
      weight_filler {
         type: "constant"
         value: 0.0
      }
   }
}

layer {
   name: "zero3_36"
   type: "Concat"
   bottom: "res3_35"
   bottom: "zero_conv3_36"
   top: "zero3_36"
   concat_param {
      axis: 1
   }
}

layer {
   name: "res3_36"
   type: "Eltwise"
   bottom: "zero3_36"
   bottom: "conv3_36_3"
   top: "res3_36"
   eltwise_param {
      operation: SUM 
   }
}

layer {
   name: "bn4_1"
   type: "BatchNorm"
   bottom: "res3_36"
   top: "bn4_1"
   param {
      lr_mult: 0
   }
   param {
      lr_mult: 0
   }
   param {
      lr_mult: 0
   }
   batch_norm_param {
      use_global_stats: true
   }
}

layer {
   name: "scale4_1"
   type: "Scale"
   bottom: "bn4_1"
   top: "bn4_1"
   scale_param {
      bias_term: true
   }
}

layer {
   name: "conv4_1_1"
   type: "Convolution"
   bottom: "bn4_1"
   top: "conv4_1_1"
   param {
      lr_mult: 1
      decay_mult: 1
   }
   convolution_param {
      num_output: 355
      bias_term: false
      pad: 0
      kernel_size: 1
      stride: 1
      weight_filler {
         type: "msra"
      }
   }
}

layer {
   name: "bn4_1_1"
   type: "BatchNorm"
   bottom: "conv4_1_1"
   top: "conv4_1_1"
   param {
      lr_mult: 0
   }
   param {
      lr_mult: 0
   }
   param {
      lr_mult: 0
   }
   batch_norm_param {
      use_global_stats: true
   }
}

layer {
   name: "scale4_1_1"
   type: "Scale"
   bottom: "conv4_1_1"
   top: "conv4_1_1"
   scale_param {
      bias_term: true
   }
}

layer {
   name: "relu4_1_1"
   type: "ReLU"
   bottom: "conv4_1_1"
   top: "conv4_1_1"
}

layer {
   name: "conv4_1_2"
   type: "Convolution"
   bottom: "conv4_1_1"
   top: "conv4_1_2"
   param {
      lr_mult: 1
      decay_mult: 1
   }
   convolution_param {
      num_output: 355
      bias_term: false
      pad: 1
      kernel_size: 3
      stride: 2
      weight_filler {
         type: "msra"
      }
   }
}

layer {
   name: "bn4_1_2"
   type: "BatchNorm"
   bottom: "conv4_1_2"
   top: "conv4_1_2"
   param {
      lr_mult: 0
   }
   param {
      lr_mult: 0
   }
   param {
      lr_mult: 0
   }
   batch_norm_param {
      use_global_stats: true
   }
}

layer {
   name: "scale4_1_2"
   type: "Scale"
   bottom: "conv4_1_2"
   top: "conv4_1_2"
   scale_param {
      bias_term: true
   }
}

layer {
   name: "relu4_1_2"
   type: "ReLU"
   bottom: "conv4_1_2"
   top: "conv4_1_2"
}

layer {
   name: "conv4_1_3"
   type: "Convolution"
   bottom: "conv4_1_2"
   top: "conv4_1_3"
   param {
      lr_mult: 1
      decay_mult: 1
   }
   convolution_param {
      num_output: 1420
      bias_term: false
      pad: 0
      kernel_size: 1
      stride: 1
      weight_filler {
         type: "msra"
      }
   }
}

layer {
   name: "bn4_1_3"
   type: "BatchNorm"
   bottom: "conv4_1_3"
   top: "conv4_1_3"
   param {
      lr_mult: 0
   }
   param {
      lr_mult: 0
   }
   param {
      lr_mult: 0
   }
   batch_norm_param {
      use_global_stats: true
   }
}

layer {
   name: "scale4_1_3"
   type: "Scale"
   bottom: "conv4_1_3"
   top: "conv4_1_3"
   scale_param {
      bias_term: true
   }
}

layer {
   name: "pool4"
   type: "Pooling"
   bottom: "res3_36"
   top: "pool4"
   pooling_param {
      pool: AVE
      kernel_size: 2
      stride: 2
   }}

layer {
   name: "zero_conv4_1"
   type: "Convolution"
   bottom: "pool4"
   top: "zero_conv4_1"
   param {
      lr_mult: 0
      decay_mult: 0
   }
   convolution_param {
      num_output: 20
      bias_term: false
      pad: 0
      kernel_size: 1
      stride: 1
      weight_filler {
         type: "constant"
         value: 0.0
      }
   }
}

layer {
   name: "zero4_1"
   type: "Concat"
   bottom: "pool4"
   bottom: "zero_conv4_1"
   top: "zero4_1"
   concat_param {
      axis: 1
   }
}

layer {
   name: "res4_1"
   type: "Eltwise"
   bottom: "zero4_1"
   bottom: "conv4_1_3"
   top: "res4_1"
   eltwise_param {
      operation: SUM 
   }
}

layer {
   name: "bn4_2"
   type: "BatchNorm"
   bottom: "res4_1"
   top: "bn4_2"
   param {
      lr_mult: 0
   }
   param {
      lr_mult: 0
   }
   param {
      lr_mult: 0
   }
   batch_norm_param {
      use_global_stats: true
   }
}

layer {
   name: "scale4_2"
   type: "Scale"
   bottom: "bn4_2"
   top: "bn4_2"
   scale_param {
      bias_term: true
   }
}

layer {
   name: "conv4_2_1"
   type: "Convolution"
   bottom: "bn4_2"
   top: "conv4_2_1"
   param {
      lr_mult: 1
      decay_mult: 1
   }
   convolution_param {
      num_output: 359
      bias_term: false
      pad: 0
      kernel_size: 1
      stride: 1
      weight_filler {
         type: "msra"
      }
   }
}

layer {
   name: "bn4_2_1"
   type: "BatchNorm"
   bottom: "conv4_2_1"
   top: "conv4_2_1"
   param {
      lr_mult: 0
   }
   param {
      lr_mult: 0
   }
   param {
      lr_mult: 0
   }
   batch_norm_param {
      use_global_stats: true
   }
}

layer {
   name: "scale4_2_1"
   type: "Scale"
   bottom: "conv4_2_1"
   top: "conv4_2_1"
   scale_param {
      bias_term: true
   }
}

layer {
   name: "relu4_2_1"
   type: "ReLU"
   bottom: "conv4_2_1"
   top: "conv4_2_1"
}

layer {
   name: "conv4_2_2"
   type: "Convolution"
   bottom: "conv4_2_1"
   top: "conv4_2_2"
   param {
      lr_mult: 1
      decay_mult: 1
   }
   convolution_param {
      num_output: 359
      bias_term: false
      pad: 1
      kernel_size: 3
      stride: 1
      weight_filler {
         type: "msra"
      }
   }
}

layer {
   name: "bn4_2_2"
   type: "BatchNorm"
   bottom: "conv4_2_2"
   top: "conv4_2_2"
   param {
      lr_mult: 0
   }
   param {
      lr_mult: 0
   }
   param {
      lr_mult: 0
   }
   batch_norm_param {
      use_global_stats: true
   }
}

layer {
   name: "scale4_2_2"
   type: "Scale"
   bottom: "conv4_2_2"
   top: "conv4_2_2"
   scale_param {
      bias_term: true
   }
}

layer {
   name: "relu4_2_2"
   type: "ReLU"
   bottom: "conv4_2_2"
   top: "conv4_2_2"
}

layer {
   name: "conv4_2_3"
   type: "Convolution"
   bottom: "conv4_2_2"
   top: "conv4_2_3"
   param {
      lr_mult: 1
      decay_mult: 1
   }
   convolution_param {
      num_output: 1436
      bias_term: false
      pad: 0
      kernel_size: 1
      stride: 1
      weight_filler {
         type: "msra"
      }
   }
}

layer {
   name: "bn4_2_3"
   type: "BatchNorm"
   bottom: "conv4_2_3"
   top: "conv4_2_3"
   param {
      lr_mult: 0
   }
   param {
      lr_mult: 0
   }
   param {
      lr_mult: 0
   }
   batch_norm_param {
      use_global_stats: true
   }
}

layer {
   name: "scale4_2_3"
   type: "Scale"
   bottom: "conv4_2_3"
   top: "conv4_2_3"
   scale_param {
      bias_term: true
   }
}

layer {
   name: "zero_conv4_2"
   type: "Convolution"
   bottom: "res4_1"
   top: "zero_conv4_2"
   param {
      lr_mult: 0
      decay_mult: 0
   }
   convolution_param {
      num_output: 16
      bias_term: false
      pad: 0
      kernel_size: 1
      stride: 1
      weight_filler {
         type: "constant"
         value: 0.0
      }
   }
}

layer {
   name: "zero4_2"
   type: "Concat"
   bottom: "res4_1"
   bottom: "zero_conv4_2"
   top: "zero4_2"
   concat_param {
      axis: 1
   }
}

layer {
   name: "res4_2"
   type: "Eltwise"
   bottom: "zero4_2"
   bottom: "conv4_2_3"
   top: "res4_2"
   eltwise_param {
      operation: SUM 
   }
}

layer {
   name: "bn4_3"
   type: "BatchNorm"
   bottom: "res4_2"
   top: "bn4_3"
   param {
      lr_mult: 0
   }
   param {
      lr_mult: 0
   }
   param {
      lr_mult: 0
   }
   batch_norm_param {
      use_global_stats: true
   }
}

layer {
   name: "scale4_3"
   type: "Scale"
   bottom: "bn4_3"
   top: "bn4_3"
   scale_param {
      bias_term: true
   }
}

layer {
   name: "conv4_3_1"
   type: "Convolution"
   bottom: "bn4_3"
   top: "conv4_3_1"
   param {
      lr_mult: 1
      decay_mult: 1
   }
   convolution_param {
      num_output: 364
      bias_term: false
      pad: 0
      kernel_size: 1
      stride: 1
      weight_filler {
         type: "msra"
      }
   }
}

layer {
   name: "bn4_3_1"
   type: "BatchNorm"
   bottom: "conv4_3_1"
   top: "conv4_3_1"
   param {
      lr_mult: 0
   }
   param {
      lr_mult: 0
   }
   param {
      lr_mult: 0
   }
   batch_norm_param {
      use_global_stats: true
   }
}

layer {
   name: "scale4_3_1"
   type: "Scale"
   bottom: "conv4_3_1"
   top: "conv4_3_1"
   scale_param {
      bias_term: true
   }
}

layer {
   name: "relu4_3_1"
   type: "ReLU"
   bottom: "conv4_3_1"
   top: "conv4_3_1"
}

layer {
   name: "conv4_3_2"
   type: "Convolution"
   bottom: "conv4_3_1"
   top: "conv4_3_2"
   param {
      lr_mult: 1
      decay_mult: 1
   }
   convolution_param {
      num_output: 364
      bias_term: false
      pad: 1
      kernel_size: 3
      stride: 1
      weight_filler {
         type: "msra"
      }
   }
}

layer {
   name: "bn4_3_2"
   type: "BatchNorm"
   bottom: "conv4_3_2"
   top: "conv4_3_2"
   param {
      lr_mult: 0
   }
   param {
      lr_mult: 0
   }
   param {
      lr_mult: 0
   }
   batch_norm_param {
      use_global_stats: true
   }
}

layer {
   name: "scale4_3_2"
   type: "Scale"
   bottom: "conv4_3_2"
   top: "conv4_3_2"
   scale_param {
      bias_term: true
   }
}

layer {
   name: "relu4_3_2"
   type: "ReLU"
   bottom: "conv4_3_2"
   top: "conv4_3_2"
}

layer {
   name: "conv4_3_3"
   type: "Convolution"
   bottom: "conv4_3_2"
   top: "conv4_3_3"
   param {
      lr_mult: 1
      decay_mult: 1
   }
   convolution_param {
      num_output: 1456
      bias_term: false
      pad: 0
      kernel_size: 1
      stride: 1
      weight_filler {
         type: "msra"
      }
   }
}

layer {
   name: "bn4_3_3"
   type: "BatchNorm"
   bottom: "conv4_3_3"
   top: "conv4_3_3"
   param {
      lr_mult: 0
   }
   param {
      lr_mult: 0
   }
   param {
      lr_mult: 0
   }
   batch_norm_param {
      use_global_stats: true
   }
}

layer {
   name: "scale4_3_3"
   type: "Scale"
   bottom: "conv4_3_3"
   top: "conv4_3_3"
   scale_param {
      bias_term: true
   }
}

layer {
   name: "zero_conv4_3"
   type: "Convolution"
   bottom: "res4_2"
   top: "zero_conv4_3"
   param {
      lr_mult: 0
      decay_mult: 0
   }
   convolution_param {
      num_output: 20
      bias_term: false
      pad: 0
      kernel_size: 1
      stride: 1
      weight_filler {
         type: "constant"
         value: 0.0
      }
   }
}

layer {
   name: "zero4_3"
   type: "Concat"
   bottom: "res4_2"
   bottom: "zero_conv4_3"
   top: "zero4_3"
   concat_param {
      axis: 1
   }
}

layer {
   name: "res4_3"
   type: "Eltwise"
   bottom: "zero4_3"
   bottom: "conv4_3_3"
   top: "res4_3"
   eltwise_param {
      operation: SUM 
   }
}

layer {
   name: "bn5"
   type: "BatchNorm"
   bottom: "res4_3"
   top: "bn5"
   param {
      lr_mult: 0
   }
   param {
      lr_mult: 0
   }
   param {
      lr_mult: 0
   }
   batch_norm_param {
      use_global_stats: true
   }
}

layer {
   name: "scale5"
   type: "Scale"
   bottom: "bn5"
   top: "bn5"
   scale_param {
      bias_term: true
   }
}

layer {
   name: "relu5"
   type: "ReLU"
   bottom: "bn5"
   top: "bn5"
}

layer {
   name: "global_avg_pool"
   type: "Pooling"
   bottom: "bn5"
   top: "global_avg_pool"
   pooling_param {
      pool: AVE 
      global_pooling: true
   }
}

layer {
   name: "fc"
   type: "InnerProduct"
   bottom: "global_avg_pool"
   top: "fc"
   param {
      lr_mult: 1
      decay_mult: 1
   }
   param {
      lr_mult: 1
      decay_mult: 1
   }
   inner_product_param {
      num_output: 1000
      weight_filler {
         type: "msra"
      }
      bias_filler {
         type: "constant"
         value: 0.0
      }
   }
}

layer {
   name: "loss"
   type: "SoftmaxWithLoss"
   bottom: "fc"
   bottom: "label"
   top: "loss"
}

layer {
   name: "softmax"
   type: "Softmax"
   bottom: "fc"
   top: "softmax"
}

layer {
   name: "Accuracy"
   type: "Accuracy"
   bottom: "softmax"
   bottom: "label"
   top: "Accuracy"
}
layer {
   name: "Accuracy_top5"
   type: "Accuracy"
   bottom: "softmax"
   bottom: "label"
   top: "Accuracy_top5"
   accuracy_param {
      top_k: 5
   }
}

